model/model_mlp_f6_c70.pth (torch_old, 4429 bytes, 6 tensors)

fc1.weight f4 [32, 6]
000000 eb cb 38 3e d9 b1 e5 bd f8 1d 93 be 83 e4 8b be
       0.18046539 -0.112155624 -0.28733802 -0.27322778
000010 65 89 b1 be 0b 1c 83 bc 00 9a 4e be bc e8 7f bb
       -0.34675136 -0.016004583 -0.20175934 -0.0039048633
000020 aa a5 8d be 28 41 76 3e 54 06 99 be 02 fc 89 be
       -0.27665454 0.24048293 -0.2988764 -0.2695008
000030 25 f0 df bd 43 c9 c2 be f0 db 49 3d cf 6d 68 be
       -0.10934476 -0.38044176 0.049282014 -0.22698139
000040 e4 3c 0d bd 9f 30 87 3e 40 03 be bd 87 59 15 3e
       -0.034481898 0.26404282 -0.09277964 0.14584933
000050 2a 7b 57 bd 52 31 94 3e 14 c1 d1 bc b0 25 5b bc
       -0.052607693 0.28943878 -0.025604762 -0.013375685
000060 37 0a bf 3e bd 11 6e bd 5f 57 c4 be c0 46 6e be
       0.3731248 -0.058122385 -0.3834791 -0.23269176
000070 ef bb b6 3e 25 f1 51 3e 37 90 5a 3e 9c ca 99 be
       0.35690257 0.20502146 0.21344076 -0.3003739
000080 9e ce bf be b5 3c 90 3e cf 44 1d be 35 1b f6 3d
       -0.37462324 0.28171316 -0.1535828 0.12016908
000090 99 06 12 3d 4f 86 01 3e c6 99 54 3e 95 0e 92 be
       0.035650823 0.12648891 0.20761785 -0.2852675
0000a0 3c 12 57 bd 63 a6 be 3d 84 30 d4 3e df 97 b4 be
       -0.052507624 0.093090795 0.41443264 -0.35272118
0000b0 39 18 be be 5b 95 50 be d1 4f d0 be 01 c9 b3 3d
       -0.37127855 -0.20369475 -0.40685895 0.08778573
0000c0 42 c1 c2 3e 33 fa 44 3e d8 1b 3c 3e 10 45 63 3e
       0.3803807 0.19236068 0.18369997 0.22194314
0000d0 74 6f c7 3d b3 2e 80 be 0c f5 7e bd 20 58 fa 3d
       0.09738055 -0.2503563 -0.062245414 0.1222384
0000e0 d3 2f 8d 3e 08 03 52 be d6 2f 45 bd 5e 80 0f 3e
       0.2757555 -0.20508969 -0.048141323 0.14013812
0000f0 f8 fd ca 3e 26 e4 ae be 10 3b 79 be 87 b2 b9 be
       0.39646888 -0.34158438 -0.24338937 -0.36269018
000100 dd f9 30 3e 9a b6 5d be a0 34 c5 3e 62 8b 2f bb
       0.17282815 -0.21651688 0.38516712 -0.002678596
000110 45 b2 ee bd b7 c1 d0 bd 10 d6 f1 bd 38 bb cf 3e
       -0.11655096 -0.10193198 -0.11808407 0.40572524
000120 51 2d ec 3b 9b 3d 29 3e 80 3f 8d 3e e7 fc c3 3e
       0.0072075506 0.16527407 0.2758751 0.38278887
000130 1d ad b1 be b3 ce 83 3d dc 55 c3 3d 45 6c e6 3c
       -0.34702387 0.06435909 0.09537861 0.028127799
000140 3f d1 35 3e ce 60 80 3e 49 01 b6 3e 48 54 b3 be
       0.17755602 0.25073856 0.35547855 -0.3502524
000150 40 24 31 be c2 d3 3f be bb f2 4b be dd 0f 68 3e
       -0.17298985 -0.18733123 -0.19916813 0.22662301
000160 b9 72 f4 3d 85 28 61 3e 2f aa 96 3e 7e 2b 06 3d
       0.11935944 0.21988113 0.29426715 0.03275632
000170 3b d0 59 be ba 04 fe bd 57 4b ca be fc d0 e1 bc
       -0.2127084 -0.12403245 -0.39510605 -0.027565472
000180 e8 82 4a be a9 4b b1 be 23 fd 55 be b2 7c b7 3d
       -0.197765 -0.34628037 -0.20897345 0.089593306
000190 a9 eb 9b 3d d9 59 13 3e d6 ea 90 be 22 54 5f 3d
       0.07613308 0.14389743 -0.28304166 0.054523595
0001a0 86 c4 07 3e c5 f8 e8 3d 07 bf c2 3e c8 07 bd be
       0.13258561 0.11375574 0.38036367 -0.3692
0001b0 c3 0e 59 be ba 89 76 be 23 b9 b4 3e eb 90 86 3e
       -0.21197037 -0.24075976 0.35297498 0.2628244
0001c0 9e 3c bc 3e 65 7c be 3e 8f c8 b7 bd d3 34 d5 bd
       0.36764997 0.3720428 -0.089738004 -0.10410466
0001d0 bc 57 48 3e c4 ca fc bd f3 97 1c 3e 1c 2d 19 be
       0.19564718 -0.12343362 0.15292339 -0.14958614
0001e0 5c 24 a2 be e6 7c b4 bc 6d a4 8a 3e 44 cb a1 bd
       -0.31668365 -0.022032212 0.27078572 -0.07900098
0001f0 9c 32 9e 3d 6f a1 67 be b5 cb 6c be 90 36 07 3e
       0.07724497 -0.22620176 -0.23124583 0.13204408
000200 2c 8a 1f 3e 7a 5a b4 bd 8b 5b d0 3e 29 8f c3 be
       0.15580052 -0.088063195 0.40694842 -0.3819516
000210 04 e2 c3 3e 8f 6f 8b be 4f 9e a1 3e 9e e7 d0 3e
       0.38258374 -0.2723355 0.31566092 0.4080171
000220 c5 c6 04 3e ec c2 c4 3e d0 3b af be 22 e6 ca 3e
       0.1296645 0.38429964 -0.3422532 0.39628702
000230 fe de 1b 3e 81 75 69 3e c7 05 76 be 17 e0 76 3d
       0.15221784 0.2279873 -0.24025641 0.060272302
000240 97 e4 12 be 90 be bc 3e d7 88 6f 3e 71 6a e6 3b
       -0.14345013 0.36864138 0.23392044 0.007031732
000250 5b 8d 1b 3e 0a 17 cc 3e d3 f0 89 bc bf ca b6 bd
       0.15190642 0.39861327 -0.016838467 -0.089253895
000260 c3 fe 4c 3e 05 37 aa bd d8 bd 92 be 4c 0d bb 3e
       0.20019059 -0.083112754 -0.28660464 0.36533582
000270 18 62 a1 be d7 86 d5 3c dc 40 99 be 9a d8 bb 3c
       -0.31520152 0.026065273 -0.29932296 0.022930432
000280 76 86 82 be ae 2d a4 be 13 a1 91 be 2a e9 86 bd
       -0.2549321 -0.320661 -0.28443202 -0.06587441
000290 cf cd c6 3d d3 44 17 3e de e4 de ba 0a 14 d6 3d
       0.097072236 0.14772348 -0.0017005464 0.10453041
0002a0 cd b2 bc be 5c b0 b4 bd 10 31 80 be dc bf 78 3e
       -0.36855164 -0.088227004 -0.25037432 0.24291939
0002b0 f0 1c c1 be cf 07 c3 3e ae ac 9e 3e a2 f1 15 3e
       -0.3771739 0.38091895 0.3099112 0.14642957
0002c0 6b de bb 3d b8 dd 84 be c6 37 e0 be 3f e5 2e be
       0.09173282 -0.25950408 -0.43792552 -0.17079638
0002d0 11 96 c1 3e 52 ff 32 3e 0d da a1 be 12 1c 1e 3d
       0.37809804 0.1748021 -0.31611672 0.03860099
0002e0 e3 39 3e be 15 60 b4 3d 51 06 9d 3e 36 5c ef bd
       -0.1857677 0.08807389 0.30668882 -0.1168751
0002f0 6e 53 78 3d 60 3f 9b 3d 27 d4 19 be 3b 11 b5 bb
       0.06062644 0.07580447 -0.15022336 -0.0055257357

fc1.bias f4 [32]
000000 c4 62 ad be db c0 d0 bc 84 e0 52 be 48 75 c3 be
       -0.33864415 -0.025482586 -0.20593458 -0.38175416
000010 75 6b ba be 51 8c 56 be ef 43 17 3e ec a9 bc bd
       -0.36410108 -0.20951964 0.14772008 -0.092120975
000020 50 3a af be 22 64 17 3e 00 d2 7e be 4d b2 9e 3e
       -0.34224176 0.14784291 -0.24884796 0.30995408
000030 2d 13 7c 3e e4 6c 60 bd 01 41 b1 be 6b e2 c0 3e
       0.2461669 -0.054791346 -0.34619907 0.37672743
000040 1c 18 94 bc cb 3c 51 bd 90 ee 8f bd e7 37 65 be
       -0.018077902 -0.051083367 -0.07027924 -0.22384606
000050 27 71 a8 be d3 87 9f be 2d 66 97 3e 84 d9 c5 3d
       -0.32898828 -0.31158313 0.2957014 0.096606284
000060 53 91 90 be 37 e1 a6 3d 16 54 c0 3e 46 0a a3 be
       -0.28235874 0.08148425 0.37564152 -0.31843776
000070 e1 86 d3 3e 14 b7 b3 3d 07 37 99 3e 19 6b 90 be
       0.41313842 0.08775154 0.29924795 -0.2820671

fc2.weight f4 [16, 32]
000000 5c b7 f5 3d e3 47 9f bc 08 45 8a bc a5 0c d6 bd
       0.11997864 -0.019443458 -0.01687862 -0.104516305
000010 09 e3 29 be 37 0e 15 bd 30 8c 97 bc ca db e3 3d
       -0.16590513 -0.03639051 -0.018499464 0.11125906
000020 d1 7e c4 3d 7d bb ec 3c e3 ee dc bd 51 a6 7b 3c
       0.09594501 0.028897995 -0.107877515 0.015359477
000030 da 80 fb bc 1f a8 23 be 95 4b 0a be ff a0 fa 3d
       -0.03070109 -0.15982102 -0.13505395 0.12237739
000040 ee 37 11 3e 86 32 29 be 00 80 3d 3e a0 62 fa 3d
       0.14181492 -0.1652318 0.1850586 0.122258425
000050 3e 0e 8a bd ea a4 b9 bc 32 b5 5f 3c 85 90 b4 bb
       -0.06740998 -0.022661645 0.01365404 -0.005510392
000060 8e d6 1d be 4e b7 06 bd 40 cc 87 3c a7 5c aa bd
       -0.15413877 -0.032889657 0.016576886 -0.08318453
000070 9e 30 66 3c a9 98 f3 3d 89 85 3a bd 8e bc b8 3d
       0.014049677 0.11894352 -0.045537505 0.09020339
000080 0a 5a 7b 3d e8 67 8e bd 37 18 18 bd ff 33 0c 3e
       0.061365165 -0.06953412 -0.037132468 0.1369171
000090 7b 6e 03 3e 51 3a 34 3c d3 af 5c 3d 14 c8 21 be
       0.12835114 0.011000232 0.053878617 -0.1579898
0000a0 f0 7c 90 3d 6e 4b 0a 3c e8 2c 03 bc 23 69 ac bd
       0.0705508 0.008440835 -0.008006312 -0.08418491
0000b0 5e a3 12 3e ee 8d 43 3c 26 97 e4 bd 42 ef 2a be
       0.14320132 0.011935694 -0.11161642 -0.16692832
0000c0 5b 83 26 3e fb d9 85 3d b9 80 0a 3e ae eb 1b be
       0.16261046 0.06535717 0.13525666 -0.15226623
0000d0 f8 09 f5 3d f2 5b 12 3e d9 f9 e4 3d a8 5b 0a 3e
       0.11964792 0.14292887 0.11180467 0.13511527
0000e0 a9 e1 ad bd 58 30 8e bd 55 7d 46 bd 07 da a2 3d
       -0.08490307 -0.069428146 -0.04845937 0.07951742
0000f0 d9 24 31 bd ff 91 fe bc 76 64 29 3e ce 49 08 be
       -0.04324803 -0.031075476 0.16542229 -0.13309404
000100 d9 01 e9 bd c2 d9 f8 bd 48 07 85 3d cb 0a 33 be
       -0.113773055 -0.12150909 0.064955294 -0.17484586
000110 3e 44 1f be f2 3a d1 3d b3 7d 26 be 7c 5d 1c bd
       -0.15553376 0.10216321 -0.16258888 -0.03817509
000120 68 08 5d bd cb 50 45 be de 23 2d bd 6b e2 08 be
       -0.053963095 -0.19269101 -0.042270534 -0.13367622
000130 b0 bc 35 be 3a 1b dc 3c ba 0a d7 3d 7e ba 18 be
       -0.1774776 0.026868451 0.10500093 -0.14914891
000140 00 9d 9b bd c2 25 99 bd 27 5c 3d bd db 8a cf bd
       -0.07598305 -0.07477905 -0.04623046 -0.101339065
000150 d1 cc 34 bd 8c af 9b 3d e0 d9 12 bb 07 66 01 be
       -0.04414064 0.07601842 -0.0022407696 -0.12636577
000160 87 2d 2d bd 9b 2c a1 3d 05 1f d3 bd 24 00 13 3e
       -0.042279746 0.07869836 -0.10308651 0.14355522
000170 50 b2 4b bd 7b 64 35 3d 9e 5c 2d be c4 11 2f be
       -0.0497306 0.04428528 -0.16929862 -0.17096621
000180 7d 3c d9 3d be 46 27 bc 91 16 3e 3d 2f ce ca 3d
       0.1060724 -0.010209737 0.04640824 0.09902608
000190 7e e5 06 3e 1e 09 06 be 82 69 fd 3d e4 42 aa bc
       0.13173482 -0.13089415 0.1237364 -0.020783849
0001a0 11 c5 f3 bc 60 4a e9 bc 77 22 aa bc a8 2c ba bd
       -0.029757055 -0.028477848 -0.020768387 -0.09090549
0001b0 26 85 6f 3d 7d 4f b2 bc 13 81 0a 3e 62 48 f5 bc
       0.05847659 -0.021766419 0.135258 -0.029941741
0001c0 78 8d 0a bd ca ab 7d bd 34 c5 8b 3d 5d e6 9f bd
       -0.03382632 -0.06193141 0.06824723 -0.0780761
0001d0 f9 a8 d4 3d 34 1b ec 3d aa 0e 46 3d d1 3b 19 3e
       0.103837915 0.11528626 0.04835383 0.14964224
0001e0 47 7f c3 3d 83 94 4b 3d f5 86 73 3d ca 71 f5 bd
       0.095457606 0.04970218 0.059454877 -0.11984594
0001f0 03 64 09 be 6e 5e b3 3d cf ba 46 bd 4e b3 dd b9
       -0.13417058 0.087582454 -0.048518 -0.00042285997
000200 f6 d2 e3 3d 12 13 1c be 8c b3 ed bd 26 95 17 3e
       0.11124222 -0.1524165 -0.116065115 0.1480299
000210 8a 81 0f 3e c5 8e 44 3d 91 60 cc bd c2 3f 9b bc
       0.14014259 0.047987718 -0.09979356 -0.0189513
000220 ea f1 f3 3c 57 64 12 3e 6b 71 11 be eb 2b 15 3d
       0.02977844 0.14296089 -0.14203422 0.036418837
000230 4c 65 96 bd 1f d8 36 3e 30 db 28 be fd 85 55 bc
       -0.073435396 0.17855881 -0.16489863 -0.013032434
000240 5c d1 7e bd b6 fd e9 3d ba 10 8e 3d d5 33 70 3c
       -0.06221138 0.11425345 0.06936784 0.014660795
000250 f5 a9 da b9 7d 6f ca 3c 5c 6f b8 3d 7b f7 15 3e
       -0.00041706828 0.024711365 0.09005615 0.14645188
000260 1b f8 44 3e 9c 6f 67 bd 09 95 fb 3d fd 5b 07 3d
       0.1923527 -0.056502923 0.122842856 0.03304671
000270 26 7d fc bc 53 2f 73 bd e9 74 fb 3d 1e 66 bd bd
       -0.030821394 -0.059371304 0.12278158 -0.09247993
000280 d8 9b 08 3e 1a 0d 15 be 6c 21 07 be 78 06 ef 3c
       0.133407 -0.14555779 -0.13196343 0.02917789
000290 71 fb 21 be e2 16 d0 bd ff aa 03 be 4c 86 c4 bd
       -0.15818574 -0.101606146 -0.12858199 -0.095959276
0002a0 b2 18 c1 bd ba d9 ad 3d 00 7f ec 3c 4c de 04 be
       -0.094285384 0.08488794 0.028869152 -0.12975425
0002b0 88 b8 5c be ab 25 b0 ba 66 18 95 bd aa 44 1f bc
       -0.21554768 -0.001343896 -0.07280044 -0.009720961
0002c0 b9 11 5a bd 8c 54 9e bd f1 62 8b bd bd 11 82 3d
       -0.053239558 -0.0773097 -0.06805981 0.063510396
0002d0 ab 12 81 be 4e a3 88 3d c0 a9 41 3c 20 9c 14 be
       -0.25209555 0.06671773 0.011820257 -0.14512682
0002e0 a0 51 10 3d a2 2b 81 3c 8a 8b 06 3e 1c 50 04 3c
       0.035234094 0.015767876 0.13139167 0.00807574
0002f0 de 0f 2e be 5d bc 09 3d a9 6f 86 3d 89 c8 8f 3d
       -0.1699824 0.033626903 0.06564266 0.07020671
000300 00 5e c3 bc e4 8f 0a be 00 fa 86 3d 23 62 1e be
       -0.023848534 -0.13531452 0.065906525 -0.15467124
000310 b7 c4 06 3e 59 31 1b bd 08 4a c4 bd dc f1 ec bd
       0.13160978 -0.03788886 -0.09584433 -0.115695685
000320 9d aa 18 be a3 4c 25 be 0c d4 61 3d 2b 1b ae bd
       -0.14908834 -0.16142516 0.055133864 -0.08501276
000330 98 a7 c5 3c 45 83 14 3c 7c 17 62 3d 41 24 e9 bd
       0.024127766 0.0090645 0.055198178 -0.11383868
000340 5c 25 c6 3d 71 2c 7c bd 8c 6e 0d 3d 3c 37 1d be
       0.096750945 -0.06156582 0.034529254 -0.15353101
000350 17 3d e0 bd 64 66 21 3e 78 3c d9 3c 4a 83 a9 3d
       -0.10949152 0.15761715 0.026518092 0.082769945
000360 b2 b1 31 be 86 d6 b8 bd 22 6e a7 3d 72 f1 12 be
       -0.17352942 -0.09025292 0.08175303 -0.14349917
000370 75 06 c8 bd 44 3c 14 be c6 f4 04 be dd 72 e7 bd
       -0.097668566 -0.14476115 -0.12983999 -0.11301205
000380 90 2a 03 be 65 a3 2d 3d 2b 9c cd 3b c8 54 92 bc
       -0.12809205 0.042392153 0.00627472 -0.017862692
000390 da 78 89 bd 40 81 10 3e 4c 34 1f be 65 8b 35 3e
       -0.06712504 0.14111805 -0.15547293 0.17728956
0003a0 4c 35 85 bd a5 66 22 be cf b2 dd 3d bf ea 7a 3c
       -0.06504306 -0.15859468 0.10825121 0.015314757
0003b0 c8 d5 8b bc 43 5f 8a 3d e0 9f d7 bd 56 66 b5 3d
       -0.017069712 0.06756451 -0.105285406 0.0885741
0003c0 9e bc cc 3c 5a dc 75 3d b8 35 3a be cb dd 9f 3c
       0.024992283 0.060024597 -0.18184555 0.019514939
0003d0 31 0b 06 3d 23 07 3a be 1a bc 00 bd 74 71 c1 ba
       0.032725517 -0.18166785 -0.031429388 -0.0014758543
0003e0 40 02 d9 bd a2 42 98 bd 5e 2f 3b 3e 5c f0 06 be
       -0.10596132 -0.07434584 0.18279788 -0.13177627
0003f0 96 f7 de 3d 6d 69 4e be f2 7b 9c 3d 7b 94 9c bd
       0.10887067 -0.20157404 0.07640828 -0.07645508

fc2.bias f4 [16]
000000 a6 ca 89 3d 3a a1 8e 3d 8d a5 55 bc 5b bb e6 3c
       0.06728105 0.06964345 -0.013039959 0.02816551
000010 c1 7c fb bd a6 f4 19 bd 16 3d 90 bc 75 81 c0 3d
       -0.12279654 -0.03758683 -0.017607253 0.09399692
000020 a3 43 b4 3d b1 52 88 3c 60 79 25 be 23 15 0f be
       0.08801963 0.016640993 -0.16159582 -0.13972907
000030 f3 b0 23 3d 26 4c 89 3c 9e 14 ff 3c b8 f5 e8 bd
       0.039963674 0.016759943 0.03113776 -0.11374992

fc3.weight f4 [6, 16]
000000 e0 46 1d bc 92 51 84 3d 6c 1a fe bd 8e e6 cc 3d
       -0.009599417 0.06460871 -0.12407383 0.10004912
000010 99 67 e4 bc 96 bf 29 3e 9a 88 0f bd a4 66 45 be
       -0.02788143 0.1657699 -0.035042383 -0.19277436
000020 14 d2 4e be 4a a1 5d be a8 ee d0 bd 95 97 6a be
       -0.20197326 -0.21643558 -0.1020177 -0.22909386
000030 87 39 11 be fc 20 c2 bd 72 9b 66 3e dc 9d e6 3d
       -0.14182101 -0.094789475 0.22520235 0.11260578
000040 84 d5 8c 3e c9 4f 76 be 03 76 fc 3c be 6f 44 3d
       0.2750665 -0.24053873 0.030817991 0.04795813
000050 e7 91 7a be 21 51 4e bd c9 c3 03 be 1a 19 43 be
       -0.2446972 -0.05037034 -0.12867655 -0.19052544
000060 c4 2b 23 be b4 dd 0d be b6 ac 34 3e 90 9a 77 bd
       -0.15934664 -0.13854104 0.17644009 -0.060450137
000070 ce 0b 0e be 29 4f 1e be b4 94 26 3e 6e 60 52 3e
       -0.1387169 -0.15459885 0.16267663 0.20544598
000080 c5 85 46 3e 02 81 1b bd 0a 71 1f 3e df ff 1b be
       0.19386967 -0.03796483 0.15570465 -0.15234326
000090 99 e0 bb bd 27 c7 22 3d 80 cc 8f bc 6c f8 76 3d
       -0.09173698 0.039740708 -0.017553568 0.060295507
0000a0 c8 1e 08 3d f7 a0 25 3d b3 28 e1 be 0a 56 7d 3e
       0.03323248 0.04043671 -0.43976364 0.24739853
0000b0 a8 3a 9c bd db 61 7c bd c0 c3 f6 bd 80 87 e1 3c
       -0.07628375 -0.06161676 -0.12049055 0.027530432
0000c0 26 f9 70 3e 4e d4 e1 bc c3 f6 40 be 68 10 44 be
       0.23532543 -0.027567055 -0.18844132 -0.19146883
0000d0 08 35 19 3d 00 81 a3 bc 78 06 bf bd d4 7b b6 3d
       0.03740409 -0.019958973 -0.09327406 0.08910337
0000e0 3e d1 14 3e 1d 0b 91 bd b4 e7 68 be c0 7b 8d bb
       0.14532945 -0.07082198 -0.22744638 -0.0043177307
0000f0 c4 c3 2a be 3c 0c a7 3d 06 36 7c be 68 ae e3 3d
       -0.16676241 0.081566304 -0.24629983 0.1111725
000100 d7 43 36 be df af c6 3d 29 8b c4 bd a1 93 94 bd
       -0.17799316 0.097015135 -0.09596855 -0.072547205
000110 ab e9 bf 3c 96 bc 93 3d 84 fe 1c 3e e6 d1 78 3e
       0.023426851 0.07213704 0.15331465 0.2429882
000120 30 27 48 3e dd a1 c9 bd a6 df 00 be f5 ec 31 be
       0.19546199 -0.09845326 -0.12585315 -0.17375548
000130 7c 4d 00 3e 41 e6 5e be ca 75 58 3e db c2 b3 bd
       0.12529558 -0.21767522 0.21138683 -0.087774
000140 40 31 26 bc 70 ff 55 bd 90 c6 51 be 0e 6f 09 be
       -0.010143578 -0.052245557 -0.20485902 -0.1342127
000150 90 73 67 3d 26 a0 27 be f8 ec 51 be 72 b0 0d 3e
       0.056506693 -0.16369686 -0.20500553 0.1383684
000160 b0 c0 4e 3d b4 50 00 3e a8 bf d0 bd b8 ae 32 3e
       0.05047673 0.12530786 -0.101928055 0.17449462
000170 20 1a a1 3c a4 6d 83 3d 30 35 89 3d 2c 34 ec 3d
       0.019665778 0.06417397 0.06699598 0.115333885

fc3.bias f4 [6]
000000 20 0e 61 be 19 b9 9f 3d 84 68 78 3e cd 0c 21 be
       -0.21978045 0.077989765 0.2425862 -0.1572754
000010 b8 72 20 3e 3a 9e 7e be
       0.15668762 -0.24865046
