model/model_vae_mlp_f6_c70_z3.pth (torch_old, 8522 bytes, 14 tensors)

encoder.fc1.weight f4 [32, 6]
00000000: 67c4 99be 6dff 7f3e f75f bb3d 0c17 4fbe
00000010: 738e 15be 9fb5 a03d c39f 813e 4aee 6ebe
00000020: a065 4d3e 58c7 023e fa52 a0be a8fb 343e
00000030: 9f96 b0bd 860b bcbe defa 763d d4b4 98be
00000040: 2712 663c c98c 663c 8412 eebd 03f4 a7bd
00000050: 2a0d 90be ca63 fdbd 1236 bd3e e8b9 fabd
00000060: 31a5 b2be 2ade 883e e14b 843d 0e53 86bc
00000070: c550 8e3e 1179 88be 9167 55be 0bb2 8fbe
00000080: 189c dbbd 2389 843e 2751 1f3e bc16 60be
00000090: 32ae 6f3d d264 a83e 8178 453e 1149 e7bd
000000a0: 998f 8f3e 1477 70be e0ad 1b3c 42ce 483e
000000b0: 4b3c bbbc fc4a 423e 25bb 6e3e dc20 633b
000000c0: e141 02be af7a 0ebd c68a b3bc 892a 79be
000000d0: 8c1e 263e 4a7e 2cbe 03db 41bd a66f 97be
000000e0: c09d 813e 30c7 443e 34d9 96be 9a6b b1bd
000000f0: 4f25 803e b4d7 773c 21da 2ebc 32e8 233e
00000100: 3ece 683e c6fe 543e 7448 1abd 5ae1 9c3d
00000110: 1c64 233e 1bb6 59be be77 89be b9da 0a3e
00000120: 8e75 8a3e 71f3 cabe 7acd 8ebd 20e2 acbe
00000130: a9cf 8c3e 10f9 aabe ffbe e63e 8413 09be
00000140: 2a45 aa3e 9870 9a3e f400 ca3d 1a06 2c3d
00000150: 7285 d9be 4fa3 803c ec26 8c3e fe72 b23e
00000160: 8c11 62be 8a4d 01be 6da3 c43e b7bb 2cbe
00000170: bf71 6f3e 620c bc3e 4955 503e b590 1bbe
00000180: dd27 38be 4368 083e ae38 84be e811 8bbe
00000190: 7085 943e f01d 393e 9648 6c3e c7c9 94be
000001a0: 136a aa3e 1859 2a3e 2568 9abe ea98 74be
000001b0: ff6a 08bc 5b0a 2dbc 03b6 f83c 6d94 e539
000001c0: 871a 13be 9855 84be 3c0d 00bc 8224 26bd
000001d0: 9bec 3bbd efb7 8dbe d01f 173e 61e9 1fbe
000001e0: 978f 3d3e c9c9 45be 3c69 783d 2e55 57be
000001f0: c482 7ebe 795e 9c3d 4bca 0a3e 9cdb a7be
00000200: fb8d 903e 61f2 36be 4848 26be 603c afbe
00000210: bbd0 19bd a6f4 ce3d 1e4e 9bbe f7a0 87be
00000220: b771 e1bd 7fa9 603e b800 30be d038 0a3e
00000230: 2a55 6d3e 4aab 783e 022d 3cbe 4f40 bfbe
00000240: 8882 4b3e 6465 10be b2ac 00bc 672b 47be
00000250: 4b95 99bd 71a5 683e 24e5 713e ee05 203e
00000260: 9cb1 bbbd 85e9 ca3d cadb a7be c800 ccbb
00000270: 0192 aabe 4fe4 993e e49f 253c e542 1ebe
00000280: 4304 403e f3b4 89be ab12 febd 8aa9 683e
00000290: 8228 bebe 9395 10be 57cd 84bd f29b af3e
000002a0: cc2a a93e e771 05bd 9bf6 7d3d 59f7 febc
000002b0: 6ff7 66be 8a35 09be ce65 baba 9015 c7bd
000002c0: 8a10 953e 5eaa 3a3d 55d2 b4be 3841 72bd
000002d0: b4e7 bc3e 361b a13e 0e69 21be 5467 f1bd
000002e0: 5d99 3c3e df22 193c f45e 893c 7bc8 1d3e
000002f0: 515b ddbd 5438 ee3d 141a 643e ad2d 6c3d
-0.30032656 0.24999781 0.09149163 -0.20223635 -0.14605121 0.078471415 0.253172 -0.23333088
0.20058298 0.12771356 -0.31313306 0.17674124 -0.08622479 -0.36727542 0.06029784 -0.2982546
0.014042414 0.014071652 -0.11624625 -0.082008384 -0.28135043 -0.12372549 0.36955315 -0.1224249
-0.34891656 0.26731998 0.06459785 -0.016397025 0.27795997 -0.26654866 -0.20840289 -0.28065524
-0.10723132 0.25885877 0.15558301 -0.21883672 0.058515735 0.3288942 0.1928425 -0.11293233
0.28039244 -0.23482925 0.009501904 0.19609931 -0.022855898 0.18973917 0.23313577 0.0034657037
-0.12720443 -0.03478497 -0.021916758 -0.24332632 0.1622259 -0.1684505 -0.047328006 -0.29577368
0.25315666 0.19216609 -0.29462588 -0.086631015 0.25028464 0.015127111 -0.010672123 0.16006544
0.22734925 0.20800313 -0.037666753 0.0766017 0.15956157 -0.21260874 -0.2684917 0.13559999
0.27042812 -0.39638856 -0.06972785 -0.3376627 0.27502182 -0.33393145 0.45067593 -0.13386351
0.33255893 0.30164027 0.09863463 0.041998006 -0.42484623 0.015702872 0.27373445 0.34853357
-0.22077006 -0.12627235 0.38405934 -0.16868483 0.23383234 0.36728197 0.20345034 -0.1519192
-0.17983957 0.13321023 -0.25824493 -0.271621 0.29008055 0.18077826 0.23074564 -0.29060194
0.33284053 0.16635549 -0.3015758 -0.23886457 -0.008326291 -0.010561551 0.030360227 0.0004378887
-0.14365588 -0.25846553 -0.007815655 -0.04056216 -0.04587994 -0.27679393 0.1475823 -0.1561637
0.18511806 -0.19315256 0.060647234 -0.21028587 -0.2485457 0.07635207 0.13553731 -0.32784736
0.28233323 -0.17865898 -0.1623851 -0.3422575 -0.037552577 0.10105257 -0.30333036 -0.26489994
-0.110080175 0.21939658 -0.17187774 0.13498235 0.23177019 0.24284092 -0.18376544 -0.3735375
0.19874012 -0.14101177 -0.007853674 -0.1945015 -0.074991785 0.22719361 0.23622566 0.15627262
-0.09164736 0.099078216 -0.32784873 -0.006225679 -0.33314517 0.30056998 0.010108922 -0.15455206
0.18751626 -0.26895866 -0.124059044 0.22720924 -0.3714028 -0.14119558 -0.06484478 0.34298664
0.33040464 -0.03257933 0.06200276 -0.031123804 -0.22555326 -0.1339933 -0.0014221014 -0.097209096
0.2911418 0.04557263 -0.3531672 -0.05914423 0.36895525 0.31466073 -0.15762731 -0.117872864
0.18417878 0.009346693 0.01676891 0.15408508 -0.10808433 0.116318375 0.22275573 0.057660747

encoder.fc1.bias f4 [32]
00000000: 1f35 293d 94fc 89be 7485 ccbe 7f9d fdbd
00000010: d055 d83d 3f5d 41be 5369 66be 6b38 933e
00000020: c94f c4be 51c2 71be dc5f ec3e 0f4f 433d
00000030: 5cff b9be 07d6 4dbe 3877 bebe 51cf c5bd
00000040: f8e4 0a3e 132d ffbe 2174 a73e 02f7 f63d
00000050: 913f 373e d9f3 863e 9c34 40be b561 a4be
00000060: fe16 35bd ea2d cb3c 38cc 5bbe cf38 dcbd
00000070: 613f 203e 34be 8fbb d9ec b5bc d24f b63e
0.041310426 -0.26950514 -0.39945567 -0.123835556 0.105632424 -0.18883227 -0.22501116 0.2875398
-0.3834212 -0.23609282 0.46166885 0.047682818 -0.36327636 -0.20101176 -0.37200332 -0.09658683
0.13563907 -0.49839076 0.32705787 0.12058832 0.17895342 0.26357916 -0.18770069 -0.32105795
-0.04421138 0.024802167 -0.21464622 -0.10753023 0.15649177 -0.0043866877 -0.022207664 0.35607773

encoder.fc2.weight f4 [16, 32]
00000000: 151e d4bd 93b3 42bd cd09 e4bd 3420 52bd
00000010: bd15 833d 2aca 273d 9643 b73d e996 1fbc
00000020: 5fd5 0d3d 0a5e acbd b4aa 093e 9a96 ac3d
00000030: 3820 243d d822 19be 421f 943d 8337 aa3d
00000040: 19b5 09bd 0415 88bd 36bb db3d 0a29 f3bd
00000050: e3d8 c9bc 11c3 fc3c 98de d73d f80c b13d
00000060: af7d 2d3d 284b 5b3d 1313 253d 3738 0fbc
00000070: 30a1 6cbd 582c 00bd 3c37 a7bc 8243 c2bd
00000080: a102 f03d 17a4 a63b 39f8 8dbb 4057 9e3d
00000090: ba06 4ebe ee9e 1c3d e020 df3d b507 c1bd
000000a0: ed9f d53d e84f 3d3c 286d 593c 2715 cb3d
000000b0: 168b 9b3d 97cf e6bd 5409 8abc 5a3b 11be
000000c0: 3752 043d 7706 1b3d df95 5dbd f34a f93c
000000d0: b566 3e3d d6d3 713d 000c c3bd b0f0 133e
000000e0: dd90 ddbd 6ae8 c5bc 3f03 71bd 5161 3d3e
000000f0: 91fa f03d ed7c 73bb 09dd 4c3d f811 773e
00000100: 12d9 5ebd a610 233b ebcc 183e 3920 17be
00000110: b6bd c53d 6bdf 773d a177 88bc f33e 0f3e
00000120: e00c 0cbe 2a16 053d 1be8 36be b02e fd3d
00000130: 2601 12be 1dec e33d b9b6 173e ef51 a5bd
00000140: 837f 183e b092 ae3d bdc0 8e3d 16e8 8a3d
00000150: 0cb0 3fbe 8129 34be 18e5 773d 5f8d 7cbd
00000160: fc85 903d 64c5 1dbe 8b8e 62bc aed4 47be
00000170: 8070 1a3e 87fc e1bd 5315 e7bd f6b9 643d
00000180: 90f6 0bbd aebf 083e 985e 4c3d 31df 91bd
00000190: a625 e63d 9c64 6d3d ab1f 2abe f516 26be
000001a0: cb00 14be 09a9 ce3d 6cdc a7bd 7b7e 92bd
000001b0: 7643 c33d 4e77 b13c 3ea2 b83b 4512 32be
000001c0: ab90 a0bc 5405 07bd 9014 ab3c d885 233d
000001d0: 43b2 32be 00d6 023b 2ad6 b93d 1080 c43c
000001e0: d793 bebd 5e1f 1ebe 00cd 26bc 6ec4 4f3d
000001f0: 6fb9 a5bd f77b 043e 24d6 29be edcf 0a3e
00000200: 1f2f 023b adad 31bc ffb2 70bd 959c 2a3d
00000210: 871f be3d 2333 63bd e345 19bc 1601 883d
00000220: 1004 e03d da44 ed3c 4206 573d 7dde 4cbd
00000230: 974a af3d 84d9 47bd 5670 ecbd c001 afbd
00000240: b496 453d 1d08 603d 5daf 0a3d 9b35 1fbe
00000250: 34f2 da3d fb03 903d e34c 9d3d ea68 c03c
00000260: 1349 e33d 49ae efbd 4a20 603b c7e4 f13c
00000270: 757a 733b cadd 833d 9d65 393e 6d26 e1bd
00000280: feda f13d 9ddc 113e 5e34 e73d c201 b43d
00000290: da1b a33d 7f7f 26be 3edd 12be d5d0 c8bd
000002a0: 58ad 06be e5e4 43bd a28f 4a3d a196 1ebe
000002b0: 707f 023c 4f7d 3fbe 2534 933d 5b8e f1bc
000002c0: 4f19 303d 983d 8b3d 3096 033d 331b 2ebe
000002d0: 783d 08bd fef9 953d 1843 ef3c 4569 9ebd
000002e0: 6630 19bd 064d a53c 74bf f7bd 73c3 003e
000002f0: 1873 423d 56d0 edbd 9839 edbc 2d86 a73c
00000300: 38db 253e 3630 2f3e e4b8 e8bd 9b3e 98ba
00000310: 8159 133e 7a88 14bd 9c00 a4bd 48fe e1bd
00000320: 2891 b6bd b895 cb3d eb91 22be c139 7fbd
00000330: 82c5 22be 387d ce3b 92d4 2dbe f6a4 233d
00000340: fc10 303d 8fb7 5d3e 2ab3 e53d 77b8 f43d
00000350: a764 c3bd 5b8c bfbd 1efd c23c b2ae 13bd
00000360: 3e84 103e 9ecf d93d 66ff 73bc 554f bf3d
00000370: 492a 0bbc 2bac f53a f4b6 55bd 6934 1d3e
00000380: 11b1 dbbb 07f2 e23d c66e 203d 0b34 cfbd
00000390: 06d1 f63c 93b4 c8bd 97b2 dc3d 8651 87bb
000003a0: e5b4 f43c c3e6 93bd e74e 4e3d fc43 d0bd
000003b0: 3721 493d 7e4b 013c 7e56 ecbd 7939 afbd
000003c0: b2c6 a23d 83cd f7bd 6044 3f3d cc17 c6bd
000003d0: 5ba1 83bc 3079 f83d 355d b73d 5eb9 4dbb
000003e0: 144b 09bd 9baf 53bd aaf3 88bd 35ac 68bd
000003f0: 17d1 17bd 4a9e f538 d292 4e3b 5cc3 a83d
-0.103573 -0.047534537 -0.11134682 -0.051300243 0.064006306 0.040964283 0.08948438 -0.00974057
0.034627315 -0.08416374 0.13444024 0.084271625 0.04006979 -0.14954698 0.072325245 0.08311369
-0.033619974 -0.066446334 0.10729067 -0.11873062 -0.024639552 0.030854734 0.10540503 0.08645052
0.04235619 0.05353847 0.040301394 -0.00874143 -0.057770908 -0.03129229 -0.02041208 -0.09485532
0.117192514 0.005085479 -0.004332569 0.07731485 -0.20119753 0.038237505 0.10894942 -0.09425298
0.10430894 0.011554696 0.013270654 0.09916144 0.07594888 -0.11270063 -0.016850151 -0.14182797
0.03230497 0.037847962 -0.054098006 0.030431246 0.046484668 0.059039913 -0.09523773 0.14447284
-0.10818646 -0.024158675 -0.058840986 0.18494155 0.11766542 -0.003715332 0.050015483 0.24127948
-0.054406233 0.002488175 0.1492192 -0.14758386 0.09655325 0.060515802 -0.016658606 0.13988857
-0.13676786 0.03249184 -0.17861979 0.123624206 -0.1425825 0.111290194 0.14815797 -0.08072268
0.14892392 0.08524072 0.06970356 0.06782548 -0.187195 -0.17593957 0.060521215 -0.06165826
0.070568055 -0.1540733 -0.01382793 -0.19514725 0.15081978 -0.11034494 -0.11283364 0.05584141
-0.034170687 0.1335437 0.0498949 -0.071226485 0.112376496 0.057957277 -0.16613643 -0.16219695
-0.14453427 0.10090835 -0.08196339 -0.071530305 0.095343515 0.021663334 0.005634575 -0.17389782
-0.019600233 -0.032964066 0.020883828 0.039922565 -0.17450814 0.001996398 0.09074052 0.023986846
-0.09305542 -0.15441653 -0.010180712 0.05072444 -0.08092009 0.12937914 -0.16585594 0.1355588
0.0019864512 -0.01084463 -0.058764454 0.041653235 0.09283357 -0.05546869 -0.009355041 0.06640832
0.10938275 0.028963495 0.052496202 -0.05001687 0.08559149 -0.048791423 -0.11544864 -0.08545256
0.048239425 0.054695237 0.033858646 -0.15547793 0.10690728 0.07032009 0.076806806 0.023487527
0.11097922 -0.11703164 0.0034198933 0.029528035 0.0037151848 0.06438787 0.18105169 -0.10993657
0.118093476 0.14244314 0.11289285 0.08789398 0.07964297 -0.16259573 -0.1434221 -0.098054565
-0.13152063 -0.047825713 0.049453385 -0.15487148 0.007964954 -0.18700145 0.0718768 -0.029486826
0.042992886 0.067988575 0.03212565 -0.17002563 -0.033261746 0.07323073 0.029206797 -0.07734922
-0.037399672 0.02017833 -0.12097064 0.12574558 0.047473043 -0.116120026 -0.028958127 0.020449722
0.16196907 0.17108235 -0.1136339 -0.0011615338 0.14389612 -0.036262967 -0.08007929 -0.110348284
-0.08914405 0.09940666 -0.15875976 -0.062310938 -0.15895656 0.0063015483 -0.1697562 0.03995224
0.042984948 0.21652053 0.112158135 0.119492464 -0.09540682 -0.093529426 0.023802336 -0.036055274
0.14112946 0.10635303 -0.014892435 0.09341303 -0.008493968 0.0018743327 -0.05217643 0.15352024
-0.0067044576 0.11081319 0.03916814 -0.10117348 0.030128967 -0.09800067 0.10776251 -0.0041295914
0.029871413 -0.07221749 0.050368216 -0.10169217 0.04910394 0.007891534 -0.115399346 -0.08555884
0.079480544 -0.12099745 0.046696067 -0.09672508 -0.016068151 0.1213249 0.08953325 -0.0031391005
-0.033518866 -0.051681142 -0.066871 -0.056804854 -0.037064638 0.00011711994 0.0031520617 0.08240387

encoder.fc2.bias f4 [16]
00000000: cf9e 6a3e aeff 203d 3fbc 1dbe a0dd a7bd
00000010: 2e38 a3bd 79bb d4bd da60 8f3d 6069 9c3e
00000020: 23b2 883b 13e9 a73b 7281 d43c f711 243e
00000030: 028b 03be be14 2fbd 8718 bebd 9af0 babc
0.22912143 0.039306335 -0.15403841 -0.081965685 -0.079697 -0.1038732 0.07000895 0.30549145
0.004171626 0.00512422 0.02594063 0.16022478 -0.12845996 -0.04274439 -0.09282022 -0.022819806

encoder.fc31.weight f4 [3, 16]
00000000: eaaf e8bb 5ac8 6eba 4f9c 4e3d 14a6 d33c
00000010: 6f6e 2b3b d93c 723d b862 38bb 8538 f8ba
00000020: 98be 37be cdaa d93d 3606 7a3d 08f2 ac3a
00000030: bbeb 88ba d6b8 10ba 5bda 4c3e 5d16 bd3d
00000040: a3ec 103b 56da cfb9 7df3 2bbd 28f5 0cbe
00000050: b297 dc38 e0d6 2f3e 43e7 213a 1332 27bb
00000060: 7d3a 363e b999 92bd 8124 e6bd c736 10b9
00000070: b9a5 e238 f764 0eba 55f4 babd bcb6 693c
00000080: 1ed6 f7bd 8c81 0dbd 9e72 563e 5be8 cf3d
00000090: 3e51 d93d 8cd0 e6bd f4b9 69bd 66a7 04be
000000a0: 2c74 f8bd 28c1 063c 2cc6 313e 285f 0ebd
000000b0: 112f 7fbc 43ef b93b 2cf0 2f3e 71e2 babd
-0.0071010487 -0.0009108834 0.050442036 0.025836028 0.0026158353 0.05914006 -0.0028135013 -0.0018937743
-0.179438 0.10628281 0.06104108 0.001319469 -0.001044623 -0.0005520707 0.20005171 0.09232781
0.0022113703 -0.0003964479 -0.041980255 -0.13765395 0.00010518673 0.17171812 0.0006176123 -0.0025512024
0.17795749 -0.071582265 -0.11237431 -0.00013753316 0.00010807388 -0.0005431915 -0.09128634 0.014264759
-0.121013865 -0.034547374 0.2094216 0.1015174 0.10611199 -0.11270246 -0.057062104 -0.12954482
-0.12131533 0.008224763 0.17360753 -0.034758717 -0.015575186 0.005674274 0.17181462 -0.091252215

encoder.fc31.bias f4 [3]
00000000: f9ed 2b3b 0835 d939 4ee0 c53d
0.0026234372 0.00041428977 0.09661923

encoder.fc32.weight f4 [3, 16]
00000000: b2e0 01bd 863a 3039 641b 873d ad53 5fbe
00000010: 3067 9e3b 2fcd 603e 80f3 bbbb 71dd d43c
00000020: b1e2 49bd 45fd 1b3e a03f 013d 13ea 093c
00000030: 18f0 11bb 7474 1c3b 5f40 a9bc 1684 0ebd
00000040: 0ff6 7dbd e060 99ba e778 843d 5318 283e
00000050: 9671 983c 0664 463d 405e 64bc b2c0 ea3c
00000060: d0c8 85bd abd9 79be b9cd ab3d 63fe 253c
00000070: 2075 a1bb 2e16 a33b 49b2 79be f242 df3b
00000080: dad8 c1bd 8cf7 893b 712e 2d3d c3bc e63d
00000090: 30b0 4a3c 8ccb 593e 8432 74bc be65 d73d
000000a0: f853 d0bd d2ab f83c db9f 5c3b d321 e73c
000000b0: 51bf b3bb b82a 833c d92f 343e 4c50 053d
-0.031708427 0.0001680647 0.06597021 -0.21809264 0.0048340783 0.21953271 -0.0057358146 0.025984498
-0.049288455 0.15233333 0.03155482 0.008417624 -0.0022268351 0.0023873122 -0.020660577 -0.034793936
-0.062002238 -0.0011701845 0.06468373 0.16415529 0.01860885 0.048435234 -0.013938487 0.028656337
-0.065324426 -0.2439944 0.08388848 0.010131451 -0.0049272925 0.0049770093 -0.24384417 0.0068134004
-0.09465189 0.004210418 0.042280618 0.11266472 0.012371108 0.21269053 -0.014904622 0.10517453
-0.10172266 0.030355368 0.0033664617 0.02821437 -0.005485453 0.01601158 0.17596377 0.03254728

encoder.fc32.bias f4 [3]
00000000: 02d3 26bb 473a 9a3b 2c45 a0bc
-0.002545536 0.004706654 -0.019564234

fc1.weight f4 [32, 3]
00000000: 7dd5 ab3e 7f94 013e 7cec d3be 1e6a 8a3e
00000010: ad1b 873d e786 d33e 742d 6c3e ddb3 15bd
00000020: c33b ad3c f9df 71bd a950 83be bf0d a7be
00000030: 0cb0 163c 8c2e d8be c3be bd3e cf4f 8abe
00000040: 93ca 943e 880c 4abe f054 793e 2576 82be
00000050: 5356 ccbe f198 10bf 7e43 8dbe f22f bcbc
00000060: 26a0 f43e b8f1 5d3d e21d 003f f2be 833d
00000070: 90c8 14be b353 2c3e e5f0 37be 38f2 a3be
00000080: affc 1b3e a89d 50bd 3393 d23d 9058 6c3e
00000090: 7056 ba3c edab c33e 296d 09bf 8f01 f43e
000000a0: 4e1d 64be 1e61 a7be ed83 acbe 156a 0f3f
000000b0: 6544 dc3e eae9 19bd 085f f4bd b138 bebe
000000c0: 8b99 f1be 4ae1 393c e84e 9f3e 1a5b 1a3e
000000d0: 3cfa 533e 48e5 98bd 2b8c 50be 0353 f03d
000000e0: b913 6cbe 74f3 963d 3f65 b4be b361 b5bd
000000f0: dd25 0a3f 1005 b2be 790d de3e d761 123f
00000100: 11c1 45bd 0eba c4be 161b b0be 8e7d cc3e
00000110: 0c45 1f3d 3e5b dabe 88b6 003f 60c3 043f
00000120: c9da bd3e cfd2 13bf 10de e73d bc3c a2be
00000130: 8fd5 983e 4683 043f eed8 0ebf 2a80 aabe
00000140: 823f 0abf 66d7 113f 432a bcbe 2122 b83e
00000150: 14a8 1a3d f00b d0be e03d fd3d d726 9e3e
00000160: fd80 08bf 4738 483e dfd4 99be 1633 0cbf
00000170: a5c7 28bd 6564 cbbe 17cb c43e 6eef b33d
0.33561316 0.12654303 -0.4139136 0.27034086 0.065970756 0.4131386 0.23064214 -0.036548484
0.02114666 -0.059051488 -0.25647476 -0.32627675 0.009197246 -0.42223012 0.37059602 -0.27014014
0.29060802 -0.19731343 0.24348807 -0.25480762 -0.3990961 -0.5648337 -0.27590555 -0.02297208
0.47778434 0.0541856 0.500456 0.06432904 -0.14529634 0.16828804 -0.17962988 -0.32020736
0.1523311 -0.050931603 0.10281982 0.23080659 0.022746295 0.38217106 -0.5368219 0.4765744
-0.22276804 -0.32691282 -0.336944 0.56021243 0.4302093 -0.037576593 -0.11932188 -0.37152627
-0.47187456 0.011345217 0.31114888 0.15073815 0.20700926 -0.07465607 -0.2036597 0.11734583
-0.23054399 0.07370654 -0.35233495 -0.08856525 0.53964025 -0.34769487 0.43369654 0.5718054
-0.048279826 -0.38423198 -0.34395665 0.3993954 0.038884208 -0.42647737 0.5027852 0.5186062
0.37080982 -0.57743543 0.11321652 -0.31686962 0.29850432 0.5176281 -0.5579976 -0.33300906
-0.54003155 0.56969297 -0.36750993 0.35963538 0.037757948 -0.40634108 0.12365317 0.30889007
-0.5332182 0.19552718 -0.3004522 -0.5476545 -0.04120602 -0.39725032 0.38436195 0.08785902

fc1.bias f4 [32]
00000000: eba3 d53e 151c ac3e 21e3 4fbe eddb 2f3e
00000010: 4aa7 bebe c27e d5bd b66a fcbe f818 56be
00000020: dbe7 96bd b2c6 013f afbd dabe 92ed ad3e
00000030: 6743 dfbe a8ad d4be 3353 56be 654d 883b
00000040: f2d2 5abe e9d7 a53e dad2 aebd 09b0 df3e
00000050: 9d57 c83e 379d 8a3e 8b40 aa3d a4ba fcbd
00000060: 7306 abbe d9cb f93e 8be8 cebe 3f03 1c3e
00000070: e577 cdbd 5e6d f2be 4a49 873e 6e94 acbe
0.41726622 0.33615175 -0.20301487 0.17173739 -0.37237006 -0.10424568 -0.49300164 -0.20907962
-0.07368442 0.5069381 -0.42722842 0.33970314 -0.4360611 -0.4153874 -0.20930175 0.004159617
-0.21369532 0.3239129 -0.085363105 0.43688992 0.39129344 0.2707307 0.08313092 -0.123402864
-0.33403358 0.48788336 -0.4041179 0.15235613 -0.10032634 -0.47349066 0.26423103 -0.33706993

fc2.weight f4 [16, 32]
00000000: 4c34 a03d 1944 413d d3eb 25bd 6037 9c3d
00000010: 0d17 0dbd a2e2 f4bb 7a76 10bd 6cd3 093e
00000020: e7c4 9b3d d4ff 2d3e 05e2 23bb 00a5 91bd
00000030: fe0c 84bd 211f 2f3d 48ca fd3d fba0 593d
00000040: 3f82 d4bc 43af 223d f74e 90bc 3d26 cd3a
00000050: 68c0 a93d 63ce af3d 1bf5 36be 273c 84bd
00000060: f4d0 cfbd 5f31 2ebe 7369 32bd fab1 02be
00000070: 0a0e f7bd aabd 61bd 1da1 bd3d 6ef6 273c
00000080: fb7a 13be d4c1 20be 5212 0bbe addb bd3d
00000090: e8fc f3bb 3e31 2cbe 5caf 17be 7729 053d
000000a0: f106 7cbd d069 aa3b 495f 2b3d 2694 17bd
000000b0: e196 ab3b c768 103e 082e 74bd 0226 02be
000000c0: 27d6 cbbd 47ff 04be 293b f33d cd76 63bc
000000d0: 98ac 263e 95ef d03d 6230 c83d a7c6 9ebd
000000e0: af18 e53d 6f48 873c 7513 883d aae3 c33d
000000f0: 6ee9 11be 0793 afbd 44e1 ce3d f790 673d
00000100: 05de a6bd 1214 613d d3e5 24bd 9636 6abd
00000110: 4733 2ebe 5134 263e bd2b ad3d 2e22 a6bd
00000120: 7d61 12be 06c1 1cbd bbe4 1f3e 468c 28be
00000130: 5e50 dabd 8109 0d3e f23a 103e 8de3 ed3c
00000140: 10c3 b23d 7c22 503c 11df 073c a393 bb3d
00000150: 6c73 ecbd 42de 97bd 8330 8c3c d0f6 163e
00000160: b888 0d3d 4cdc af3c 7912 d2bd 3769 993d
00000170: 2c95 073e d3a7 aebc d91c 36be 1a1f c8bd
00000180: 1e10 193e e891 36bd 46b3 e3bd e824 d13d
00000190: 15be 0cbe 145c 14be efc1 1c3e 6728 973d
000001a0: deb8 1dbe 47cc 8c3d 68e9 f5bd a334 94bd
000001b0: fc60 e5bd f58b db3d 9c47 9b3d d2b8 acbd
000001c0: 81aa cf3d e77b 2ebe a849 103e e18f 02be
000001d0: 5cba 79bd d765 b7bc 3fda 8d3d ab61 a63d
000001e0: 251f 8cbd c6bf f3ba b73d f8bd e86c 863d
000001f0: ecd9 98bc d8c8 2c3e 307c 24bd 206b 29be
00000200: 0d45 8cbd e96f e4bd 16ee c3bd cac0 82bd
00000210: 9fe2 15be aa93 cebd e4be 56bc c18b 81bc
00000220: 308c ea3d 3103 833d 654d 253e 776e 113e
00000230: 686a 09be 448e dc3d f3cd c03d 3777 91bd
00000240: b7b7 ee3d f2e2 003e f72f 1a3e f102 193e
00000250: b42c debd d7af a73c 7b7f d7bd e008 043e
00000260: 07c2 25bc 22ab 723d f0d3 283e f3c1 343e
00000270: 5b72 073e 9138 15be 1915 26bc cf1a d73b
00000280: 1a78 9bba debb 823d d249 1ebe 215b 06be
00000290: 6261 ce3d f946 853d 5d76 4cbd 7bf6 ca3d
000002a0: 55d6 a63d 2622 cd3d b674 30bc bee1 a23d
000002b0: 157c 983d 380e f23d 31d1 17be a3e8 233e
000002c0: 66fb 913d 6efc 18be 6051 efbd ff0f e83d
000002d0: d194 d1bd 5bfc 203e 23f5 2a3e f247 873c
000002e0: 2be8 0c3e e927 ce3c f6fb 9bbd 54e3 f5bd
000002f0: 14bc f73d 31b1 b0bc 1f33 c4bd 9a85 0abe
00000300: 08ee 96bd a52f 17be 06ce 2abe 659d d6bb
00000310: b368 883d d552 a33c e0d4 a4bc 9473 bbbc
00000320: d6f4 de3c 020d 96bd c08c d43d a2c6 16be
00000330: 3848 34be 4247 c5bc ef43 a1bc 5cbe 1dbe
00000340: fd46 a5bc a012 8e3c 329e bbbd 386b 00be
00000350: 040f 1d3c c7fc cbbd ca65 f93c 2a6a 30be
00000360: 65e0 01be 40ff a0bd 2c9b cb3d 4f8f 313d
00000370: 4a68 5bbc 9fe0 ca3d d66e 053e f1df 9d3c
00000380: e1a3 0c3e 1cee d4bd c3e2 343e 48a7 c5bb
00000390: 53d2 253e 53ff 35be 9212 183e b900 043d
000003a0: facd 18bd 6561 86bc 633d a03c 214c 94bc
000003b0: 6bdb 22bd 5f12 07be d0c8 98bc d5ce 85bd
000003c0: 30c4 113e 45db be3d c51c d1bd 02e0 ba3d
000003d0: 90a0 21be 69e1 9dbd 6ee2 1a3e 512e 973d
000003e0: 5e94 d23d f7eb 943b f9d5 113e 5ebf 08be
000003f0: db22 c7bd 3a6a ddbd 0f70 3dbd f777 e03c
0.07822475 0.047184084 -0.040508103 0.076277494 -0.03444581 -0.007473306 -0.035269238 0.13459557
0.076059155 0.16992122 -0.0025006544 -0.071115494 -0.064477906 0.042754296 0.12392098 0.05313204
-0.025941012 0.039717924 -0.017615778 0.0015651655 0.08288652 0.08584287 -0.17866938 -0.06456786
-0.101472765 -0.17011021 -0.043557595 -0.12763205 -0.120632246 -0.05511252 0.092592455 0.0102516245
-0.14402382 -0.1569894 -0.13581207 0.092704155 -0.0074459203 -0.1681566 -0.14812988 0.032510247
-0.061530057 0.005200602 0.041838918 -0.03700652 0.005236492 0.1410247 -0.05961421 -0.12709811
-0.09952956 -0.12988006 0.11876518 -0.013883305 0.16276777 0.10201947 0.09774853 -0.07752734
0.11186349 0.016514031 0.06644336 0.09564908 -0.14249203 -0.08572965 0.1010156 0.056534734
-0.081478156 0.05495078 -0.04025824 -0.057180963 -0.17011748 0.16230895 0.08455608 -0.08111988
-0.14295001 -0.03827002 0.15614597 -0.1645976 -0.1065986 0.13773157 0.14084986 0.029039169
0.087286115 0.012703534 0.008292929 0.09159019 -0.115454525 -0.07415439 0.017112976 0.14742589
0.034554213 0.02146735 -0.1025743 0.07490771 0.13240498 -0.02132026 -0.17784442 -0.09771557
0.14947554 -0.04457274 -0.11118178 0.102121174 -0.13744386 -0.1448825 0.15308355 0.07380753
-0.15402552 0.068749 -0.12007409 -0.07236602 -0.11200139 0.10720054 0.07582018 -0.08433689
0.10139943 -0.17039452 0.14090598 -0.12750198 -0.06096874 -0.022387428 0.06926393 0.081240974
-0.06841878 -0.0018596582 -0.12121146 0.06563741 -0.0186586 0.16873491 -0.040157497 -0.16544771
-0.06849108 -0.11154158 -0.09566896 -0.06384428 -0.1463723 -0.100867584 -0.013107035 -0.01581371
0.1145252 0.06397093 0.16142805 0.14202295 -0.13419497 0.107693225 0.09414282 -0.071028166
0.116561346 0.12586573 0.1505736 0.14942528 -0.1084837 0.02046959 -0.10522362 0.1289401
-0.0101170605 0.059245236 0.16487098 0.17652111 0.13227217 -0.1457236 -0.010136866 0.006564475
-0.0011861355 0.06383489 -0.15457848 -0.131207 0.10077168 0.065076776 -0.049917568 0.09910294
0.08146349 0.10016279 -0.010770014 0.07953213 0.07445542 0.11819118 -0.14825894 0.16006713
0.071280286 -0.14940044 -0.11685443 0.11331176 -0.102334626 0.15721266 0.16695075 0.016513798
0.1376044 0.025165515 -0.07616417 -0.1200625 0.1209642 -0.021568866 -0.09580063 -0.13527527
-0.073696196 -0.14764269 -0.16680154 -0.0065495246 0.06660595 0.019936958 -0.020121038 -0.02288226
0.027216356 -0.073267 0.103784084 -0.1472421 -0.17605674 -0.02408183 -0.019685714 -0.15404648
-0.020175451 0.017342865 -0.09161033 -0.125409 0.0095861 -0.09960323 0.030444045 -0.17227998
-0.12683256 -0.07861185 0.09941706 0.04334956 -0.013391564 0.09906124 0.13030562 0.019271823
0.1373439 -0.10396978 0.17664628 -0.0060319044 0.16193514 -0.1777318 0.14850834 0.03222725
-0.03730581 -0.016403863 0.019560521 -0.018102707 -0.039760035 -0.13190602 -0.018650442 -0.06533591
0.14234996 0.09319166 -0.102105655 0.09124757 -0.15783906 -0.07709009 0.15125439 0.07381881
0.10282205 0.0045447308 0.1424178 -0.13354251 -0.09723445 -0.10811277 -0.046249446 0.027400954

fc2.bias f4 [16]
00000000: 1f3f 103e d078 4ebd 38f0 ac3c 075b 983c
00000010: 3cb1 2f3e 4a32 88bc 010d bfbd 43a4 203e
00000020: 38f7 0e3c ae3a 7bbc c930 19bd 3b7f a3bd
00000030: 03d5 f23d 13b7 78bc 2977 1abe 4846 d33c
0.14086579 -0.050408185 0.021110639 0.018598093 0.17157453 -0.016625542 -0.09328652 0.15687661
0.008725934 -0.015333815 -0.03740004 -0.07983252 0.11857035 -0.015180367 -0.15084518 0.025790349

fc3.weight f4 [6, 16]
00000000: 297a 08bc 16be 183c 35d0 183e 0924 583e
00000010: d04a c6bd 76e1 6abe 17f5 fabd 0dbd c53d
00000020: 44b1 953d 95d5 e53d fb37 5dbe d253 a2bd
00000030: 63ef 79be 8b1f 393e b30b 59bd dc54 b5bd
00000040: a952 8dbd ec4f 1abe 0f15 52bc 74a1 593e
00000050: 493c c8bd 7eeb 443e 840d 43bb 6374 46be
00000060: d5ea 693e 3400 1dbe 1080 12be 7214 043e
00000070: 60cf 263e f61b e53c cb86 293e 2638 0f3e
00000080: be54 6c3d 63cb bb3d 82d0 08be 143f 313a
00000090: 4b24 803e e753 fbbd 2ec1 753e 9304 763d
000000a0: b094 b8bc 7cc4 f8bd 7338 0cbe 6e95 913d
000000b0: 75be 2f3e f5c7 d4bd 9885 f73c 4cc0 333e
000000c0: 7440 6c3d 783c 0abe 0b07 413e e599 9139
000000d0: 595f 09bd 5093 5b3e f5d1 e2bd 0202 563e
000000e0: b8f1 4c3e 25c2 0a3e 3248 2fbe cf6e 25be
000000f0: ac09 96bd 17a1 51be ff42 29be 60b5 9fbd
00000100: 910b 003d 0b95 7f3e 8ec7 533e d0a1 823c
00000110: b76a 6b3e 8ad6 503d ce98 62be 9855 593e
00000120: 44bf 03bd 4d5f a53d 3502 2c3c d041 1e3e
00000130: 3267 233c 3d4b cdbd 4a4a 06be f036 703e
00000140: 5b4c 233d c370 daba 5af2 1e3e b207 733e
00000150: e216 0dbe 451c 683d c8b1 e73d 92ff 4b3d
00000160: 639c 41be 9072 aabd de70 6f3e 9878 393d
00000170: 58a8 28be fba9 7a3e 114b 023e 6056 c1bd
-0.0083299065 0.009322664 0.14923175 0.21107496 -0.09682238 -0.22937569 -0.122537784 0.09655199
0.07309201 0.11222378 -0.21603386 -0.07926144 -0.24407725 0.18078439 -0.052989673 -0.08854076
-0.06900532 -0.1506955 -0.012822404 0.21252996 -0.097771235 0.19230458 -0.0029762695 -0.19380336
0.22843488 -0.15332109 -0.14306664 0.12898424 0.16290045 0.027967434 0.16555326 0.13986263
0.057698004 0.09169652 -0.1336079 0.00067614135 0.2502769 -0.122718625 0.23999473 0.060062956
-0.022531837 -0.121468514 -0.13693409 0.071085796 0.17162497 -0.10389701 0.03021507 0.17553824
0.057678655 -0.1349963 0.18850343 0.00027771216 -0.033538196 0.21442914 -0.110752024 0.20899203
0.20014083 0.13550623 -0.17117384 -0.16155551 -0.073260635 -0.20471607 -0.16529463 -0.077982664
0.03126103 0.24959199 0.20681593 0.015946299 0.22989927 0.05098585 -0.22128603 0.21224058
-0.032164827 0.08074818 0.010498573 0.15454793 0.009973334 -0.10024116 -0.13114277 0.23458457
0.03986774 -0.0016665686 0.15522137 0.23733404 -0.1377826 0.056667585 0.11313206 0.049804278
-0.18907313 -0.08322632 0.23382899 0.045281023 -0.16470468 0.24478905 0.12723948 -0.09440303

fc3.bias f4 [6]
00000000: a9fb 333e 2ede 583d c822 8b3d 4fe0 043d
00000010: 319c 0c3d e78b 58be
0.1757647 0.052946262 0.06793743 0.03244048 0.034328643 -0.21147119
