model/model_ae_mlp_f6_c70_z1.pth (torch_old, 7662 bytes, 11 tensors)

encoder.fc1.weight f4 [32, 6]
00000000: dd42 36be fd5e 7cbd 7029 743e b8c0 ef3c
00000010: a18a 1c3f f8d1 113f 152a 0c3e 856a 333e
00000020: 58e0 92be b2a4 b5bd 8e0c cabe 2bec 733d
00000030: 5780 b03e 007c 2c3d ecfe aabe ab78 373e
00000040: 5d5d f03e 0fcd bc3e 6446 87be 1744 773e
00000050: f215 963e af3b da3e 3207 1fbe 3af7 523e
00000060: fb1e a63c 565f 833e 30e6 60be 6588 a43e
00000070: 5e05 1d3f 1764 493e 0a48 b4bd a731 b5be
00000080: b60f a4be 744a 283e 86bc 203e 3029 2e3f
00000090: 9b66 0dbf 21be a2be 32a4 c8be 3b2b eebd
000000a0: ca1a 0ebf 2e3f 803d e671 513e 6a34 963e
000000b0: 9a6d a83e 36b6 bebe f398 6cbe d2bc 643e
000000c0: c371 92bd 1c4f cc3c aed9 283c af3b 133e
000000d0: ceba 263f fe95 0b3f 081a 263e bce5 b2bb
000000e0: 2917 b43e 203a 55be 17df 9fbd 5e79 a8be
000000f0: 117f 2dbf 0be4 54bf 3bd0 69bd a6e8 fcbd
00000100: 3cee fcbc 03a5 57be f89f abbe 4737 a03e
00000110: 2b09 a93e 0dd5 9f3e 54e0 233f 75a2 28be
00000120: 80c4 02bf 91f3 a4be 3230 233e 7c8f 143f
00000130: 03af 203f a529 23be 2a98 b33e b76c 50be
00000140: 7414 92be b1c0 c6bd 5ad4 0d3f 474d c93e
00000150: 0253 65be 20d4 b73e 14f9 0c3e f47c f23d
00000160: 0d17 b33e f416 07bf cf27 8ebf dfbd 93bf
00000170: 779e 54be 9349 e9bd 53a0 9dbe 98d5 7ebd
00000180: 4bc0 26bf 54a2 b1bd ee3a 3fbd f82c fdbd
00000190: ee45 e0bd c0b5 68be 7b63 99be bda1 23be
000001a0: 75a0 17be 8427 2a3e 2812 fe3e c75d b83d
000001b0: 8279 20be 5bb9 08bd beb6 6e3e 3057 773d
000001c0: 2ad7 2abe 6320 9c3e 4892 013d 1547 d53b
000001d0: df03 8a3d a629 f3bd 4919 10bd b392 6abe
000001e0: dd62 1b3e fa0b ec3d 746e c93e ec3a b7bd
000001f0: 65cb 99bd 3a48 38bf e6cf 1dbe 8b27 85be
00000200: cf67 b9bd 9fa3 503e f6b5 b43e 1573 c03e
00000210: 799e 13bd 5c7f 95be 04b9 7a3e f07f c43e
00000220: a859 293f 1423 a23e b7b9 95be 6d6d a1be
00000230: 5bb2 9f3d d2ed 793e 6452 173f fe48 fb3d
00000240: d5e7 103d b0e6 ccbd a0fe bebe 2cc8 bfbe
00000250: 584b 24be 1bc9 933d fb55 8e3e d9d1 5fbe
00000260: 0b88 d03e d3e1 cf3d a29f a03e 5966 ee3e
00000270: ea46 e53d 90ea f7bd 96a1 a83e 5f81 32bd
00000280: 4acf 4a3e 2f5e 963e 200f e43c ee8a be3d
00000290: d886 35be 21fb 3f3e 25a3 0d3f 4574 ad3d
000002a0: d86a 55bc 9992 9bbe b0e8 e53e ccb6 393d
000002b0: a72f 02be 5bed 6fbe 65cf 9ebd 9b77 983e
000002c0: ac10 c9be 69ed 743e 83d8 5abe f9e6 6fbe
000002d0: b224 6b3e fdb4 93be d4ef 0fbe 33d8 c03e
000002e0: f139 a33e afc7 be3e 5529 8f3e 5cc8 5b3d
000002f0: 6f1b 21bd b72e 083e c0d0 91be 46ba 923e
-0.17798944 -0.061614025 0.23843932 0.0292667 0.6114903 0.5696101 0.13687928 0.17521103
-0.28686786 -0.08869304 -0.39462703 0.0595514 0.34472916 0.042110443 -0.33397615 0.17917125
0.4694623 0.36875197 -0.2642089 0.24147068 0.29313618 0.4262366 -0.15530089 0.20602122
0.020278445 0.25658673 -0.2196281 0.3213531 0.61336315 0.19667087 -0.08802803 -0.35389444
-0.32043236 0.16434652 0.15696916 0.680316 -0.5523469 -0.31785682 -0.3918777 -0.11629339
-0.55509627 0.062620506 0.20453605 0.29336864 0.3289612 -0.3724839 -0.2310522 0.22337654
-0.071506046 0.024940066 0.010305805 0.14378236 0.6512879 0.54525745 0.16220868 -0.0054595154
0.3517392 -0.20822954 -0.07806223 -0.32905096 -0.6777201 -0.83160466 -0.05708335 -0.12349062
-0.030875318 -0.2105904 -0.33520484 0.31292173 0.33014807 0.31217232 0.6401417 -0.16468222
-0.51081085 -0.32217076 0.15936354 0.5803144 0.62767047 -0.15933855 0.3507703 -0.20353971
-0.2853123 -0.09704722 0.5540215 0.3931677 -0.22394946 0.35904026 0.13766891 0.11840239
0.34978524 -0.527694 -1.1105899 -1.1542319 -0.20763575 -0.11390986 -0.3078638 -0.062215418
-0.65137166 -0.0867354 -0.04668706 -0.12362093 -0.10950838 -0.22725582 -0.2995871 -0.15979667
-0.14807303 0.16616637 0.49623227 0.090022616 -0.15671352 -0.033379894 0.23311898 0.060385883
-0.16683641 0.3049346 0.031633645 0.006508718 0.067390196 -0.11873178 -0.035180364 -0.22907524
0.15174432 0.11525722 0.39342082 -0.08946785 -0.075094976 -0.7198521 -0.15411338 -0.2600673
-0.09053003 0.20374916 0.35295075 0.375878 -0.036039803 -0.2919873 0.2448464 0.3837886
0.6615243 0.31667387 -0.29243252 -0.31528798 0.077976905 0.24407127 0.59110093 0.122697815
0.035377342 -0.10004938 -0.37303638 -0.37457407 -0.16044366 0.07216092 0.27799973 -0.21857394
0.40728793 0.101504944 0.3137179 0.4656246 0.111951664 -0.12105286 0.3293578 -0.04358041
0.19805637 0.2936873 0.027839243 0.093038425 -0.1772722 0.18748142 0.55327064 0.08469442
-0.013025962 -0.30385283 0.4490409 0.045340344 -0.1271349 -0.23430388 -0.07754401 0.29778752
-0.39270532 0.2391869 -0.21371655 -0.23427953 0.22963217 -0.2884902 -0.14056331 0.37664947
0.31880143 0.37261721 0.2796122 0.053657874 -0.039332803 0.1329907 -0.28479576 0.2865774

encoder.fc1.bias f4 [32]
00000000: a234 8bbe f316 993e 2946 01be 272b 49be
00000010: cfa3 103f f10a 583f 570d 583f bbc4 3f3f
00000020: 6d6e 723e b638 0c3f e517 793f dc19 723d
00000030: 1c96 173f 3598 25bc caf8 99bd 3a03 ca3e
00000040: 4491 e83e 920d 9abe 99ff 83be e43e ee3e
00000050: 9c46 543e ac87 61be 1648 3dbe 7c05 1b3f
00000060: 3381 493f a8e0 22bc a24e 73be 90a9 c53e
00000070: a14a c43e 7768 053f ee26 80be 721a 45be
-0.27188593 0.2990032 -0.1262442 -0.19645368 0.5649995 0.84391695 0.84395355 0.7490956
0.23674937 0.54774034 0.97302085 0.059106693 0.59213424 -0.01010709 -0.07518156 0.39455587
0.4542333 -0.30088478 -0.25780943 0.46532357 0.2073006 -0.22024411 -0.1848453 0.60555243
0.7871277 -0.009941258 -0.23760465 0.38605928 0.38338187 0.52112526 -0.250297 -0.1924837

encoder.fc2.weight f4 [16, 32]
00000000: ab7b 543e 95b3 53be 21f7 783d 593f a23d
00000010: 1672 ec3d 05b6 2f3d 9f4f 18bf 99ae bdbe
00000020: c49e 8c3e 45cd 78be 8bee e5bd 64a4 143e
00000030: 7528 293d a5fa f93c 47da 01be a682 e7be
00000040: cb4a 8fbe 9bd5 8b3e c273 80be 40d2 43be
00000050: 65ec 52be 4bbb 9c3e f7ba 3a3e a2a7 5a3e
00000060: 2bd2 54be 975a 58bd 6e44 4d3e c233 913e
00000070: 63af 94be 46d7 78be f4ba a83e 537a 44be
00000080: 144d 273e 9172 19be 941a 313e 3d91 b0bd
00000090: 7c2e 0d3e 3fe1 fa3c 79bf ac3d 7e43 973d
000000a0: b987 efbd b16c 12be 919b d2bc d197 f6bc
000000b0: 626e 08be e70f 3cbd 0f83 2d3d 446b fbbd
000000c0: 204f 02be a08c 7c3c 4f8a 31bc 595d eb3d
000000d0: cc6d 14be edc2 1c3e b81a 17be 0ff8 47bd
000000e0: 0cf8 0fbd b906 c5bd ac3e 9e3d f0ea e6bd
000000f0: f351 6c3d 08ef 9e3d 60a7 8cbd 9e1c ca3d
00000100: 0c46 50be 6a7c 8e3e ded9 f93d c3c5 3fbe
00000110: 5088 50be d588 963d 37d6 c83e debe e13c
00000120: 533d a7bd af93 12bd 3a3c 443f f264 b3bd
00000130: 0c64 81bf 3405 113d ebde 47bc 60d0 fd3e
00000140: 0ba5 0c3f 3dab 20be cfba 10be a124 e43d
00000150: a4f5 683d aab7 dfbf b5e2 adbd 2ee7 62bf
00000160: 3ff9 ac3e a7a3 1d3c ae94 cbbe b288 17bd
00000170: 67e5 2d3e 5cba 083e 4a31 043d 3fb1 82bc
00000180: 761f a13e 8aec 29bf b939 533d 5446 273e
00000190: d6e0 583e 9f10 7f3e 1235 e4be d293 04bf
000001a0: ab96 6e3e 9c6f 09bf ec09 95bd ad4e a83e
000001b0: c2fe d83d 3f6d 9e3e ab00 05be 799d cabe
000001c0: 39b3 92be 1266 523e 3ea9 5abe 194e abbe
000001d0: 156c 58be 7bed 9c3e 85a9 bd3d ec33 2dbd
000001e0: 7b21 00be 091b 4e3e 3337 ea3e b11f bd3c
000001f0: 5237 0cbf a31b 69be d9dc 8b3e fb5d e2be
00000200: f68c 143e 5035 533a c63e da3c 070d 803d
00000210: 506d 243e 0f6d af3d 2aad 38bf 3462 063e
00000220: 3222 ab3d ff51 5abc d3e3 2fbe b48f 4bbd
00000230: 22dc 113e 695d 0e3e 3767 183e b0be 33bf
00000240: adfb 92be 15bf 5a3e c851 05be 2f18 453e
00000250: 3634 123e 7db4 b63d f007 633e 1e19 69bd
00000260: d200 07be 38ba 023e 1808 2a3e 17e5 4b3e
00000270: 7fea 65bc f170 50be 9926 2f3e ebb7 16bd
00000280: 6138 5e3d e230 d0be 1c21 813d f44d de3d
00000290: f5f1 c33d b12e 713e ac32 04bf a37b bbbe
000002a0: 6ee5 533e 8b98 dcbc c693 ee3b 7ae2 5c3e
000002b0: 3cc4 4a3e 1ec5 393e 57d6 41be 4d2c e0be
000002c0: 6dd2 84be 9c84 623e 4f6c b2bb bd4f d5bd
000002d0: 03d3 82be d2b0 7e3e a83f 003e 13c4 653e
000002e0: 1bff d6be fbca f2bd b6da 3b3e 1a98 423e
000002f0: 7e4c acbe 5b66 b3be cb83 0a3d e150 a3be
00000300: 741d b9bd 9ba4 78ba b0ab 223c f4c7 7fbd
00000310: c985 c93d 7a81 0a3e 1d92 613f 9198 083e
00000320: 063f a83d 06c1 123e 66c6 0e3f 3797 07be
00000330: 8ffe 703e 7154 3bbd 6f26 293e 7bda 673f
00000340: 1d88 f83e ff16 8dbe 6653 123e 9506 713e
00000350: 77b3 65bd c705 e03a f4b2 d3bd 2925 8cbd
00000360: cdf6 103f e346 d8bd ac04 033e b01b 463e
00000370: 42be b9bd 3dbf 263e dfe6 b43c 410f ed3d
00000380: b0e9 473e 9cbe 8ebe d96a 523e d9d9 13be
00000390: 4794 04bd b3e5 54bc 7ec6 e7be 49a3 03bf
000003a0: fe1c 633e ead6 bcbe 5135 63be d252 8b3e
000003b0: 320b 173e 96c0 aa3e 080b eebd c58b b1be
000003c0: 696f a4be dddb 243e 77d3 043d 0537 a8be
000003d0: 5f60 8cbe ccc0 a43e a700 0f3e c118 293e
000003e0: 0f7f 54be 434f 183e 2cdc da3d 89b5 953e
000003f0: 6497 e2be 6958 8cbe 9cf0 b63e abbd e2be
0.207503 -0.20673974 0.060782555 0.07922239 0.11545198 0.042898197 -0.5949649 -0.3704727
0.2746488 -0.24297054 -0.11227139 0.14515835 0.04129835 0.030515024 -0.12680922 -0.45216864
-0.2798675 0.27311406 -0.25088316 -0.19123173 -0.2059799 0.30611643 0.18235384 0.2135301
-0.20783298 -0.05282077 0.20045635 0.283598 -0.2904006 -0.2430087 0.32955134 -0.19187288
0.16337997 -0.1498511 0.17295295 -0.08621452 0.13787264 0.030624984 0.08434958 0.0738592
-0.11695809 -0.14299275 -0.025708945 -0.030101689 -0.13323358 -0.045913603 0.042361315 -0.12276319
-0.12725496 0.015414387 -0.010836198 0.11492414 -0.14495009 0.15308733 -0.14756286 -0.04882055
-0.035148665 -0.09620423 0.077267975 -0.112752795 0.05769534 0.07760435 -0.06867862 0.098687395
-0.20339221 0.27829295 0.12199758 -0.18727784 -0.20364499 0.073503174 0.39225933 0.027556833
-0.081659935 -0.035785373 0.766544 -0.08759488 -1.0108657 0.035405353 -0.012199144 0.4957304
0.54939336 -0.15690322 -0.14133762 0.11139799 0.056874886 -1.7477925 -0.084905066 -0.88634
0.3378391 0.009621537 -0.3976187 -0.036995597 0.16982041 0.1335234 0.03227357 -0.015953658
0.31469315 -0.66376555 0.05156872 0.16335422 0.21179518 0.24908684 -0.4457174 -0.51788056
0.23299663 -0.5368593 -0.07277283 0.32872525 0.10595466 0.30942723 -0.12988536 -0.39573267
-0.2865236 0.20546749 -0.21353623 -0.3345802 -0.2113498 0.30649933 0.09260849 -0.042285845
-0.12512772 0.201275 0.4574524 0.0230864 -0.5477191 -0.22764449 0.2731693 -0.44212326
0.14506897 0.00080569554 0.02664126 0.06252485 0.16057324 0.08565723 -0.7213923 0.13123399
0.083561316 -0.013325213 -0.17176752 -0.049697593 0.1424413 0.1390282 0.14883123 -0.7021284
-0.28707638 0.21361955 -0.13019478 0.19247507 0.1427773 0.08921144 0.22170997 -0.05690872
-0.13183907 0.1276635 0.1660465 0.1991161 -0.014032959 -0.20355584 0.17104568 -0.03679649
0.054252986 -0.40662295 0.06305143 0.10854712 0.09567634 0.23552968 -0.5163982 -0.36617765
0.20692989 -0.026928207 0.0072807996 0.21570769 0.1980142 0.181416 -0.1892942 -0.437838
-0.25941792 0.22120899 -0.0054450403 -0.104155995 -0.25551614 0.24872139 0.12524283 0.22438078
-0.41991505 -0.11855122 0.1834515 0.19003335 -0.3365211 -0.3503903 0.033817094 -0.31897643
-0.09038821 -0.00094849773 0.009928629 -0.06244655 0.098399706 0.13525954 0.88113576 0.1333945
0.08215146 0.14331445 0.5577148 -0.13241278 0.23534606 -0.045734826 0.16518568 0.9056775
0.48541346 -0.27556607 0.14289626 0.23537667 -0.056079354 0.0017091566 -0.10336867 -0.06843025
0.5662659 -0.105603956 0.12794751 0.193465 -0.09069492 0.16283889 0.022082744 0.11575175
0.19522738 -0.27879798 0.20548572 -0.14438571 -0.03236797 -0.012994218 -0.45268625 -0.5142103
0.22179028 -0.36882716 -0.22188307 0.27211624 0.14750364 0.33350056 -0.11623198 -0.34676948
-0.3211625 0.16099496 0.03242823 -0.32854477 -0.27417275 0.32178342 0.13965093 0.16513349
-0.20751594 0.14873986 0.10686526 0.29240063 -0.44256127 -0.27411202 0.35730445 -0.4428533

encoder.fc2.bias f4 [16]
00000000: b1f9 f6bc ae74 08be e244 61bd b4cd 18be
00000010: fe72 7c3c 1ed8 65be 7db1 833e 99b2 933d
00000020: 1dec 13be a880 a5bd b8a8 14be d201 f7bd
00000030: 9a8e c23c 6f4c d23e 0e0a 733d 38e8 8e3e
-0.030148359 -0.1332576 -0.054997332 -0.1492222 0.015408276 -0.22445723 0.2572135 0.07211799
-0.14445539 -0.0808118 -0.14517486 -0.12060894 0.023749638 0.4107394 0.05933576 0.27911544

encoder.fc3.weight f4 [1, 16]
00000000: 9ae9 ee3e 2996 d43d 37bc 173f f0a9 c03e
00000010: 5398 c23e b0a9 ad3e 3c03 89be e087 c93e
00000020: f4b3 c93e ad0a c73e 401f debb a82c ba3e
00000030: 59ad 6fbe 4095 54bf 17d9 a13e 80ab 12bf
0.466626 0.10380203 0.5927157 0.37629652 0.3800684 0.33918524 -0.2676028 0.39361477
0.39395106 0.38875332 -0.0067786276 0.36362195 -0.2340597 -0.8304024 0.3161094 -0.5729294

fc4.weight f4 [32, 1]
00000000: 00e8 5eba c996 783f bc5c 75bc 094a 7abf
00000010: 2b0d 7e3c 5c29 2fbe bd4f 5f3f e747 e8be
00000020: 41a5 1cbe 0d59 4abf c481 3abf 016d 423e
00000030: 6bb1 2a3f bfb3 213f 3a85 c0be 7b7c 72bf
00000040: c0ce a73e 4a38 9b3d 4526 2e3f 244f 5bbe
00000050: 9f0c 50bf 355b 66bf de83 3cbf 5447 f5be
00000060: 3d11 383f 9666 0bbf 4d2f 8f3d 4356 5b3f
00000070: 0499 663e cb17 c43d be4a 413f ffa1 3b3f
-0.00085031986 0.9710508 -0.014975723 -0.9776922 0.015506069 -0.17105621 0.87231046 -0.45367357
-0.15297414 -0.7904213 -0.72854257 0.18986894 0.6667697 0.63164896 -0.37601644 -0.9472119
0.32774925 0.07579096 0.68027145 -0.21416909 -0.8126926 -0.8998292 -0.73638713 -0.47905982
0.71901304 -0.5445341 0.06991444 0.856785 0.22519308 0.09574851 0.7550467 0.7329406

fc4.bias f4 [32]
00000000: f62b 24bf 2268 6cbf afcb 5f3f e80a af3e
00000010: aeb2 6e3f ec60 573f d919 da3e 530a 333e
00000020: b2ee 093f 18af 5d3f 353f dbbe edb5 ab3e
00000030: e1fb 63be a502 113f 25b6 7f3f 0444 823e
00000040: 67c0 773e 4d4c 5cbe f7ab ffbe 0ee5 6e3f
00000050: b5df 6b3e 26ef 31bf f281 0cbf 006e 1ebf
00000060: 06fa a7bd e95c ef3d b4ad 463f ec04 00bf
00000070: f787 11be 4aaf f5bd 121d 67bf 9a5b 663f
-0.6412958 -0.92346394 0.8742017 0.34188008 0.93241394 0.84132266 0.42597845 0.17484407
0.53879845 0.86595297 -0.4282166 0.33537236 -0.22264053 0.5664466 0.99887305 0.25442517
0.2419449 -0.21513481 -0.49935886 0.9331826 0.23034556 -0.69505537 -0.5488578 -0.61886597
-0.08201985 0.11687643 0.776088 -0.5000751 -0.14212023 -0.11996324 -0.9027873 0.8998352

fc5.weight f4 [16, 32]
00000000: f6bc a13d 3f6f 09be 03cd a73c b48e 083e
00000010: 6273 f3bd 3ed4 e0bd 3813 0d3d 314d a0bd
00000020: 33c4 b23d 5042 dabd 3917 273e e006 723d
00000030: c75f 033e 7a29 5fbd 8afb 5b3d 9221 51be
00000040: 82cb 25be 2039 9a3c 7f0e 003e 6cf5 18be
00000050: 5502 e03d 4e2d 063e 2ade 043e 4d17 53bc
00000060: f03f 1bbe 56aa 46be acfc bc3d 1c1a 33bd
00000070: 364e 96bd ff69 87bd 00d6 26be 48d3 0bbe
00000080: b4ac 1d3d 2e49 9bbd 4d55 213e 8f49 93b8
00000090: 8691 263e de04 1e3d 0dda cfbd e470 093d
000000a0: 18be 9cbd 3c67 03be 302c fe3d 654f 87bd
000000b0: c1c3 7ebd 74c5 c5bd 44d8 28bc 5b1c 263e
000000c0: 55a8 6739 2158 32be 64b2 be3d 0665 4b3d
000000d0: 967a 13be ffde 863d 8181 233e 3a69 223d
000000e0: 7e9e 003e 175f 483d de16 23be 5d69 46bd
000000f0: 2551 1c3d d4c2 a63c 1ac9 6cbd 22a6 e93d
00000100: 978c 103e 4025 c13c fd76 e0bb 3c88 af3c
00000110: 8803 d23d 6ab6 1e3e 2cc0 2339 142f bdb9
00000120: 9116 f83d dcf4 653d c7f6 9a3d d315 c73d
00000130: 7ab7 75bc 2dd7 96bc 286f 153e d80e 8c3d
00000140: a6e8 2cbc b411 2a3e 76f7 13be a156 e3bc
00000150: e971 063e 2f89 34bd 510f ea39 a2bc 1fbe
00000160: b0b2 183e 824b 82bd 0a81 a33d e6ab c2bd
00000170: 4693 c7ba a32a f7bd b3cf 39be eeb7 9b3c
00000180: 686d 443d fbd6 10be 9616 35be 2446 00be
00000190: 91ec 083e b81f dd3c 8e2d 0ebe 492b 96bc
000001a0: 3b0a 0d3e 680d 1d3e 4ca5 8dbd ef59 2a3e
000001b0: afb0 6c3d 9962 283e 518b 1ebe 1a30 2f3d
000001c0: 48f0 44bd 6dfc 233e 0345 35bd 5251 2b3e
000001d0: 5975 1cbe 305c f6bd a469 953d e0b1 e8bb
000001e0: 6cd3 033d e6d0 0cbe 066a 1bbe 2c0f fabd
000001f0: c955 9cbc 496e 8d3d 3419 cb3d 3933 fb3d
00000200: 5bce a4bd b695 fc3b d4a8 703d 1026 cb3c
00000210: e766 15be c055 123c 7689 853d 001b 193d
00000220: 20e2 edbb 5d97 1fbe 009e c53a 6d4d 35be
00000230: 5735 813d 14f1 1fbe 805c 953b 80d0 263d
00000240: 2851 babd ed0d eb3c aa6f c23b 7afd ad3d
00000250: d6d9 8c3d faed e3bd cdc2 30be b8ac 3cbd
00000260: 5ffc a63c e4fe 4ebd 7a02 403d 675e bf3c
00000270: 2d3c ab3b fd2b d33c 66cb ca3d 6f1a 9cbd
00000280: 4c4a 13bd f93b 2cbe 185f 12be 3f46 c03d
00000290: 4cf9 54bd 23c0 403d c1fa a5bd aefb 18be
000002a0: 6baf e03b dc29 c73b 6d04 be3d 07a6 11be
000002b0: a866 473d 67b3 2ebe 7743 23be 8721 933c
000002c0: e04f 883d 0895 a6bc b41d 273d 0a14 cabd
000002d0: 8a74 2ebe e710 e8ba c1e4 163e b2af cc3d
000002e0: 5aa0 9bbd 3b56 d53d a681 e5bd 945a 09be
000002f0: b9ef 1e3e 4a85 fb3d 0010 6bbd 94b4 dfbd
00000300: fef6 07be 53c0 043e 969a 43be 0b22 e03d
00000310: 8ddc 46bd 2c38 433d 6e51 04be 947c 06be
00000320: e1fb f53d 4594 8d3d baf0 f2bd 895a b5bc
00000330: 3824 c7bd c3f0 0fbd 262b 3d3d f3b3 73bd
00000340: 4857 eb3c 5d5c fdbd 2bc0 133e 15be f4bd
00000350: b759 74bd f599 093e 2cbd cabb 3f4c 15be
00000360: 7ed4 043e 926c 963d 1a4f e5bc ca53 983d
00000370: 01a0 2c3c 0c76 2a3e 93b2 223e 3d82 31be
00000380: 6ea5 30be 3802 0d3d 2520 7dbc 802b 2dbe
00000390: 7759 28be e1b6 d43c 6d30 3dbe f37d cbbd
000003a0: af11 27be a0a2 fd3c cbe4 bdbd d364 e9bd
000003b0: 65b9 7b3d 42df 3b3a 1784 1d3e 3b2e 2ebe
000003c0: 4530 b83d 162a ac3c e137 593c 0b49 4ebd
000003d0: e639 1abe 9f9f 143e bad0 cf3d 2551 86bd
000003e0: 586c d83b 0d2a e1bd 75e7 273e 9a52 a83d
000003f0: 3493 23b9 9383 54bb 1217 0ebe dd74 fc3d
0.078973696 -0.13421343 0.0204835 0.13335687 -0.11887242 -0.10977982 0.034442157 -0.07827223
0.08728828 -0.10657179 0.16317452 0.059088588 0.12829505 -0.054482915 0.053706683 -0.20422962
-0.16190913 0.018826067 0.1250553 -0.14937371 0.10937945 0.1310322 0.12975374 -0.012883973
-0.15161109 -0.19400916 0.09227881 -0.04372607 -0.07339136 -0.06612014 -0.16292572 -0.13654816
0.03849478 -0.07582317 0.15755196 -7.0232076e-05 0.1626645 0.03857886 -0.10149012 0.033554927
-0.07653445 -0.1283235 0.12410772 -0.0660694 -0.062198404 -0.09656802 -0.010305468 0.16221754
0.00022092585 -0.17416431 0.09311369 0.04965689 -0.14402232 0.06585502 0.1596737 0.039651133
0.1256046 0.04891881 -0.15926692 -0.048440326 0.038163323 0.020356573 -0.057808973 0.114086404
0.14116131 0.023577332 -0.006850122 0.021427266 0.1025458 0.15499273 0.00015616481 -0.00036083965
0.12113679 0.05614172 0.075666 0.097209595 -0.0149973575 -0.01841315 0.14593184 0.06838769
-0.010553515 0.16608316 -0.14449868 -0.027751269 0.13129391 -0.04407614 0.0004464337 -0.15599301
0.14911914 -0.06362058 0.079835966 -0.09505443 -0.0015226386 -0.12068679 -0.18145637 0.019008603
0.0479559 -0.14144509 -0.17684397 -0.12526757 0.13371493 0.026992664 -0.13884565 -0.018331187
0.13773434 0.15337145 -0.069162935 0.1663587 0.057785686 0.16443862 -0.15482832 0.042770483
-0.048080713 0.16014262 -0.044255268 0.1673024 -0.1527914 -0.12029302 0.0729554 -0.0071012825
0.03218405 -0.13751563 -0.15177163 -0.12209925 -0.019083874 0.06905801 0.099169165 0.12265629
-0.08047172 0.0077082766 0.058754757 0.024798423 -0.14590035 0.008931577 0.06520359 0.037379265
-0.007259622 -0.15585084 0.0015076995 -0.17705317 0.06309002 -0.15619308 0.004558146 0.040726185
-0.090975106 0.028693164 0.0059337215 0.084956124 0.068774864 -0.11129375 -0.1726181 -0.046063155
0.020384012 -0.05053605 0.04687736 0.023360444 0.0052256794 0.025777811 0.099020764 -0.07622229
-0.035959527 -0.16819753 -0.14294088 0.093883984 -0.05199556 0.047058236 -0.08104468 -0.14939758
0.006856849 0.006077988 0.09278188 -0.1422349 0.048681885 -0.17060624 -0.15943705 0.017960323
0.0665586 -0.020334736 0.04079981 -0.098671034 -0.17036644 -0.0017705233 0.147357 0.09994449
-0.07598944 0.10416838 -0.11206369 -0.13413459 0.15521134 0.12281282 -0.057388306 -0.109231144
-0.13277814 0.12963991 -0.19101939 0.10943993 -0.048550177 0.04766099 -0.12921688 -0.1313346
0.12010933 0.06913046 -0.11862321 -0.022137897 -0.09723705 -0.035141718 0.046183728 -0.059497785
0.028728142 -0.123711325 0.14428775 -0.11950318 -0.05965587 0.13437636 -0.006187102 -0.14579867
0.12971684 0.07344927 -0.02799182 0.074378565 0.010536195 0.16646594 0.15888433 -0.17334838
-0.17250606 0.034425944 -0.015449558 -0.16911125 -0.16440378 0.02596611 -0.18475504 -0.09936132
-0.1631534 0.030961335 -0.092721544 -0.11396184 0.061456103 0.0007166752 0.1538242 -0.17009823
0.08993582 0.021016162 0.0132579515 -0.050362628 -0.15061149 0.14514016 0.10147233 -0.06558446
0.0066047125 -0.10994349 0.16396888 0.0821888 -0.00015599729 -0.0032427057 -0.13875988 0.123269774

fc5.bias f4 [16]
00000000: d8a6 39be e249 84bd b2ff 493e 42e3 bfbd
00000010: 7a6a 14be a9e9 b9bd fbd6 47bd e7a9 0abe
00000020: ce57 2e3e b5c9 be3d 0235 4c3d 69e2 eebd
00000030: 63b1 09be e5e9 26be 1cd5 b93d c2a4 2a3e
-0.18130052 -0.064594045 0.19726446 -0.09369518 -0.14493743 -0.0907777 -0.048789006 -0.13541375
0.17025682 0.09315816 0.04985524 -0.11664278 -0.13446574 -0.16300161 0.090738505 0.16664413

fc6.weight f4 [6, 16]
00000000: bfb6 71be 98aa 1a3e ba26 f33b f4d8 0d3d
00000010: 78b6 b7bd 7fce 91be 2504 4d3e 6d3d 5a3d
00000020: 4b70 e63c 22dd 6d3c 9802 f93c 4719 283c
00000030: 2505 18be 1e1a 013e 33ea 5ebd 406c 7c3e
00000040: 8185 3b3e f563 88be cdbe 5a3e dbff 0d3e
00000050: fab9 233e baa9 0a3e 76a7 1e3e 119d 913d
00000060: c4f8 a2bd 7ec0 e93b e58a ddbd 5370 90be
00000070: 7fe6 5ebd 86d9 2c3e 6548 cabd 9fa0 893e
00000080: d81a ae3d 7004 bcbc 235d 0fbe a9ab e1ba
00000090: 785b 9e3d 0050 c83c f208 49be 3702 6e3e
000000a0: f9cc 283e c84b 3cbe 2554 36be 58b6 b43d
000000b0: 717a a7bd c0f0 2d3c 9f44 aa3c fa1d d6bc
000000c0: e7a2 743e ce52 263e 060e b2bd fd3e f7bd
000000d0: 68c0 ef3c c947 483d 8e4d 433e 4286 633e
000000e0: c22f fa3d 7995 213e a0ce 3abe c1b7 743e
000000f0: 41a9 2cbe d647 203e 0804 44be 9774 ac3d
00000100: f312 073d 0f7a 7abe f303 34be 4551 20be
00000110: a0e5 3f3c dea8 65bd 7020 74be 7681 033e
00000120: 361a 0f3e e46f b4bd 34c1 86be 0cb3 713e
00000130: c3b7 933d 207f 4cbc 6cc9 0dbe 2049 2d3e
00000140: 704c 6a3e 889e 103e 52c7 60be 9810 5e3d
00000150: 7e5d 1dbe 7edd 413e e4ce 65be 1811 37be
00000160: 0033 463c 6477 813d e81d 0e3e b610 693e
00000170: 2407 97bd 52d5 7dbe 5e1c 7dbe 26c9 7abe
-0.23604868 0.15104139 0.007420388 0.03463073 -0.0897035 -0.28477857 0.20021112 0.053281236
0.028129717 0.014518054 0.030396745 0.010259933 -0.14845712 0.12607619 -0.05442257 0.24650669
0.18312646 -0.2663876 0.21361847 0.13867132 0.15988913 0.13541308 0.15493569 0.07110036
-0.079576045 0.0071335426 -0.10817508 -0.28210697 -0.054419037 0.16879854 -0.098770894 0.26880357
0.08501214 -0.022951335 -0.14000373 -0.0017217296 0.0773229 0.02445221 -0.19632319 0.23243032
0.16484441 -0.18388283 -0.17805536 0.08823842 -0.08177651 0.010616481 0.020784674 -0.02613734
0.23890267 0.16242525 -0.08694081 -0.12072561 0.029266551 0.048896585 0.19072554 0.22219184
0.1221614 0.15779676 -0.18242884 0.23898222 -0.1686144 0.15652403 -0.19142163 0.08420675
0.032977056 -0.24460624 -0.17579632 -0.15656002 0.011712462 -0.056069247 -0.23840499 0.12842354
0.13974842 -0.08810404 -0.26319277 0.23603457 0.07212784 -0.012481481 -0.13846368 0.16922426
0.22880721 0.14122975 -0.21951035 0.054215044 -0.15367696 0.18932149 -0.22442204 -0.17877614
0.01209712 0.063216 0.13878596 0.22760281 -0.07374409 -0.24788406 -0.24717852 -0.24490795

fc6.bias f4 [6]
00000000: 634d ebbd e025 2d3e 9526 d0bd 3d03 4abd
00000010: 4172 9a3d 58d6 e53d
-0.1148937 0.1690898 -0.10163609 -0.049319495 0.075413235 0.112225235
