model/model_vae_jsd_app40_f6_c70_z3.pth (torch_old, 8596 bytes, 14 tensors)

fc1.weight f4 [32, 6]
000000 b3 29 ce 3e 44 79 68 be 35 ae 80 be d5 e5 0b 3e
       0.4026619 -0.22702509 -0.2513291 0.13661893
000010 5b a4 e2 3b c5 68 37 be 23 d8 43 3e 42 ed c7 bd
       0.0069165654 -0.1791106 0.19125418 -0.0976205
000020 a3 1b a3 bd 6a 45 79 3e c1 04 78 bd a6 4e 68 3e
       -0.07964256 0.24342886 -0.06055141 0.22686252
000030 41 5a 83 3e 2d 31 8b 3e a5 1e 6b be 44 85 97 3e
       0.25654796 0.27185956 -0.22960909 0.2959386
000040 66 6c 54 be 7c 4a 6b bd d0 c5 42 3e 64 31 0e be
       -0.20744476 -0.05744408 0.19020772 -0.13886029
000050 36 f5 00 be 35 51 a4 3c f1 86 86 be af 06 8c 3e
       -0.1259354 0.020058254 -0.26274827 0.2734885
000060 17 b2 10 bd 47 b1 82 3d 3f 06 5f bc aa 8b b5 be
       -0.03532609 0.06381469 -0.013612329 -0.35458118
000070 01 f6 14 3e 4b 5f 6c 3d 5f bd 0b be 69 42 63 be
       0.14546968 0.057708066 -0.13646458 -0.22193302
000080 ee e4 d4 bd 66 50 0c 3e d8 2d cb 3d cb d8 5f bd
       -0.103952274 0.13702545 0.099208534 -0.05465011
000090 96 91 bf 3e b4 91 ce be f9 1b cd 3d c6 71 a9 be
       0.3741576 -0.40345538 0.10015101 -0.33094615
0000a0 23 d6 03 bd 56 b1 cb 3e df f6 32 3e 09 38 88 3e
       -0.03218664 0.39783734 0.17476986 0.2660525
0000b0 b5 5a 80 3e 93 47 03 bd f5 ce 7c 3e d5 8a 5c be
       0.25069204 -0.03205068 0.24688323 -0.21537335
0000c0 f2 d3 09 be e6 3f 60 be a4 f4 0f bc 27 2e 0c 3d
       -0.13459757 -0.21899375 -0.008786354 0.0342237
0000d0 32 e5 65 3e 26 5c f8 bd 3f 9a 17 be a9 2c 1b 3e
       0.22450712 -0.12126951 -0.14804934 0.15153755
0000e0 86 a8 ad bd 53 6c 1a be 05 64 c8 bd a9 7c 43 bc
       -0.08479409 -0.15080385 -0.09784702 -0.011931577
0000f0 9b e8 4a 3e 1d 2b 7c be 2f 1b 53 be fb b2 20 3d
       0.19815294 -0.24625821 -0.20615838 0.03923319
000100 3f be 88 3e e0 6b bd be 7b 9e 3c be 01 bf b3 3e
       0.26707646 -0.36996365 -0.1841983 0.35106662
000110 44 0a 7e 3e d2 42 56 3d 5f f0 5e bd 49 2c 9c bb
       0.24808604 0.05230982 -0.054428454 -0.0047660214
000120 5f ce e0 be 18 b2 9c 3d b3 22 5d 3e f8 15 f4 3d
       -0.4390745 0.07651156 0.21595268 0.11918253
000130 2d cf 79 be f7 dc 90 be aa 4b a1 bd 94 6a 9b 3e
       -0.24395438 -0.28293583 -0.0787576 0.3035475
000140 af 9f 97 be 1f 29 93 3d 72 43 8e bd 41 e1 09 be
       -0.29614016 0.071855776 -0.06946458 -0.13464834
000150 1c 41 87 be 33 63 4b 3e ec 62 a7 3e 9f 30 48 bd
       -0.26416862 0.1986206 0.3269266 -0.048874494
000160 41 77 ea bd a0 8d d1 3d 3c fc d8 3d 22 42 8d bd
       -0.11448527 0.10232091 0.10594985 -0.068973795
000170 d7 f0 5f 3e 80 f0 3f 3e 91 76 19 3e 21 48 94 3e
       0.21869217 0.18744087 0.14986636 0.2896128
000180 76 53 04 3e 91 9f 8b 3e d0 53 e0 3d 6d c2 60 3e
       0.12922463 0.27270177 0.10953486 0.21949168
000190 2d 07 c7 be 17 69 52 be 0e a2 22 be 27 10 8b 3e
       -0.38872662 -0.20547901 -0.15882131 0.2716076
0001a0 19 76 0a bd 79 8b 49 3e 47 2b 07 be a8 2a a8 3e
       -0.033804033 0.19682111 -0.13200103 0.32845044
0001b0 10 fc 76 be 45 63 93 3c 6e 49 bc 3e c9 76 c0 bd
       -0.24119592 0.017991671 0.36774772 -0.093976565
0001c0 1c 78 c9 3d fb e7 a8 3e 3d 18 c9 3c 13 5a 5c 3a
       0.09837362 0.32989487 0.02454769 0.0008405756
0001d0 0b 4c 67 bd d8 a8 44 bd 5f e5 88 bd b0 eb 47 be
       -0.056469005 -0.048012584 -0.06684374 -0.19523501
0001e0 aa 0c d3 bc e9 a1 36 bc e2 26 d5 bd 70 a0 9c 3d
       -0.025762875 -0.011147001 -0.10407807 0.076477885
0001f0 24 5c b9 3e ed cf d0 be f0 bd f2 3d c3 3f 02 be
       0.3620311 -0.40783635 0.11852634 -0.12719636
000200 7c 39 55 be 70 1a 7e be 49 c2 4e bb 54 52 28 be
       -0.2082271 -0.24814773 -0.0031548908 -0.16437656
000210 ee e9 1d be 5a 4f 16 be d4 e2 81 3c 97 ba 5b be
       -0.15421268 -0.14678708 0.01585523 -0.21457897
000220 be f8 b2 3e c5 c0 36 be fa 62 4a bd 7a 3a 1f be
       0.349554 -0.17846973 -0.049410798 -0.15549651
000230 7a d8 ed 3d a8 f3 d1 3e 36 68 ab be fe f5 c2 be
       0.11613555 0.41006207 -0.33477944 -0.38078302
000240 8a f2 e6 be 07 73 3a 3e b2 8b 2f 3e 0d 85 8c 3e
       -0.45106918 0.18207942 0.17143133 0.2744526
000250 7b fa 1a bb 4f 99 0c 3e 6e b2 51 3e fa a8 56 be
       -0.0023647833 0.13730358 0.20478222 -0.20962897
000260 7a 62 94 be 84 27 89 be a9 18 d9 3d d2 30 e6 3e
       -0.28981382 -0.2678796 0.10600407 0.44959122
000270 fe da 12 be cf d6 82 be f5 1f 7e 3e f4 e9 97 3e
       -0.14341351 -0.2555451 0.24816878 0.2967068
000280 96 16 9a be 28 cc 97 be db 4a e4 3d 4e 2d a0 be
       -0.30095357 -0.29647946 0.1114709 -0.31284565
000290 9e 24 58 be 9e dc 9a be 5c f4 85 be a3 39 8f bc
       -0.21107718 -0.30246443 -0.26162994 -0.017483538
0002a0 3a 95 d3 3c 3d 1e 06 3e 6f dc 98 bd 74 d6 a8 3e
       0.025827993 0.13097472 -0.07463919 0.32976115
0002b0 8f 53 ad be 9d 55 5e 3e ad 3a 15 be 7d 21 24 3e
       -0.33852813 0.21712346 -0.14573164 0.160284
0002c0 40 61 a3 3d b4 07 a6 3b 3e b9 da 3d 04 67 83 3e
       0.07977533 0.0050668363 0.106798634 0.25664532
0002d0 cf 55 9f 3e 6f 3b a7 be 47 a5 b4 3e 64 7e 07 3d
       0.31120154 -0.32662532 0.35282347 0.03307952
0002e0 06 5c 13 be 97 ba a4 be fa a6 0b 3d 2f 89 ac 3e
       -0.14390573 -0.32173607 0.034094788 0.33698413
0002f0 f7 5a 1e be 65 e1 88 3e 16 92 73 3d 35 61 f2 3d
       -0.15464388 0.26734462 0.05946549 0.11834947

fc1.bias f4 [32]
000000 0d e8 22 be b7 31 c1 3e 8a 09 d6 bd 3b 8e 6f be
       -0.15908833 0.37733242 -0.10451038 -0.233941
000010 03 93 de 3b b7 50 6d be 4b 47 97 be d4 45 9d 3e
       0.0067924275 -0.23175322 -0.2954658 0.30717337
000020 12 92 8a bd 73 ca 1b bc 93 f8 91 be 48 cc bf 3d
       -0.06766142 -0.009508717 -0.2850996 0.093651354
000030 86 8b 5e bd 60 63 98 be 9b 47 bc 3d 40 30 8f be
       -0.05433228 -0.29763317 0.09193345 -0.279665
000040 a4 f3 a6 be 1b 68 d5 3e c3 ac 3a be 64 f6 94 3e
       -0.32607758 0.4168099 -0.18229966 0.2909423
000050 e0 b7 06 3e b3 4c db 3d 84 db bd 3e 5a 8c 26 be
       0.1315608 0.107079886 0.3708154 -0.16264477
000060 6c cc 0f bd 90 f1 4b 3e 08 5e 93 3e f2 59 c6 be
       -0.03510706 0.19916368 0.28782678 -0.38740498
000070 3e 48 c2 be 93 06 92 bd 59 f3 99 be ba b7 9c be
       -0.3794574 -0.0713016 -0.30068472 -0.30608922

fc2.weight f4 [16, 32]
000000 3a 56 c1 3d ef 42 87 bc 37 55 12 bd 01 1c 7e bd
       0.094402745 -0.016511409 -0.0357258 -0.062038425
000010 91 f1 b9 bd 01 51 8e 3d 5c d9 0d 3e a4 63 a4 3d
       -0.09079278 0.06949044 0.13852447 0.080268174
000020 26 9d 1d bb 4e 63 27 bd d8 5b 02 3c 13 7a 88 3d
       -0.0024049967 -0.04086619 0.007956468 0.06663909
000030 3b 17 bf bd 6f 96 b5 3d fa 5c 9b 3d 1f 02 0a 3e
       -0.09330603 0.088665836 0.07586093 0.13477372
000040 06 a2 b3 bd 59 89 dd bc 08 25 15 3e 7e 7c 05 3e
       -0.08771138 -0.027043032 0.14564908 0.13035771
000050 af f8 19 bd 29 7e 32 3c b5 33 c7 3d f2 44 51 3d
       -0.03759068 0.010894337 0.09726659 0.051091142
000060 f9 ba 23 bd d3 bf 18 be fb db f0 3d 67 04 a1 bb
       -0.039973233 -0.14916925 0.11760708 -0.004913855
000070 23 0c ce 3c 2e 89 b6 3d 4f 3a c6 3d 17 d6 e8 3d
       0.025152272 0.08912884 0.0967909 0.113689594
000080 70 12 ca bc cd f4 f3 3d 33 a5 38 be 69 7b 8d bd
       -0.024666995 0.119119264 -0.18031769 -0.06908304
000090 37 77 3c be 97 32 65 bc 13 bd da 3d 9f cf 44 3d
       -0.18404852 -0.013989112 0.10680594 0.048049565
0000a0 ad 08 bf bd 32 64 24 3c 02 a2 09 3e ee 59 30 bd
       -0.09327827 0.010033654 0.13440707 -0.043054514
0000b0 85 ba 36 3e af 18 99 3d 73 2f 94 bd 4a 14 ca 3c
       0.17844589 0.07475411 -0.07235613 0.024667878
0000c0 ad 28 f0 3c f8 2d 99 3d 76 8a 28 bd 1a 30 6e 3c
       0.02931627 0.07479471 -0.04114767 0.0145378355
0000d0 c4 7e 02 3e 01 07 f1 3c 62 71 d7 bc 13 61 62 bd
       0.1274367 0.029422285 -0.026299182 -0.05526836
0000e0 fd 0f 17 bb 74 c6 f0 bd fb 64 5a bd 4a a9 98 bb
       -0.0023050301 -0.11756602 -0.05331896 -0.0046588527
0000f0 c1 d8 80 3b 92 b5 2e be df 0b b5 3d ce 65 53 3d
       0.003932089 -0.17061451 0.08840155 0.05161076
000100 c1 fd 7b 3d d5 02 11 3e 59 fc 03 3d de d4 a6 bd
       0.061521295 0.14161237 0.03222308 -0.0814607
000110 73 76 5b bd 35 19 59 3c d5 ca f3 bd 53 74 71 3d
       -0.05357976 0.013250639 -0.119039215 0.058948826
000120 f5 64 4b 3d 9e 78 2d 3d 1a 2e c0 3d 20 dd 8e bd
       0.049656827 0.042351358 0.09383793 -0.0697577
000130 ab db ec 3d e4 90 11 3e 26 a0 04 3d 9f 20 7c bd
       0.11565336 0.14215428 0.032379292 -0.061554547
000140 dd d8 2a 3d 0a cb 88 3d 31 38 36 3d e3 37 b0 3d
       0.041710723 0.06679352 0.044487182 0.086044095
000150 28 75 13 bd 2c 69 f3 3d e6 57 df 3d 0b e5 19 3e
       -0.0360004 0.11885294 0.10905437 0.15028779
000160 fa cf 56 3d c2 a6 90 3c 8a a1 18 3e de 4f a4 bd
       0.052444436 0.017657641 0.14905372 -0.08023046
000170 97 27 82 bd 17 dd 97 bd 82 e1 52 3d 9c b7 1b be
       -0.063552074 -0.074152164 0.051484592 -0.1520676
000180 2c 15 84 bd 20 d9 9d 3c 84 4d b3 bd 7a bc 57 3d
       -0.06449351 0.019268572 -0.08755019 0.05266998
000190 8e 5e 45 3c 06 47 a1 3d 04 0a b0 bd 05 83 02 3e
       0.012046469 0.07874875 -0.0859566 0.12745292
0001a0 7f b6 c8 3d 9c 0b f4 bd e5 5e 9d 39 68 36 0f be
       0.09800433 -0.11916277 0.00030016075 -0.13985598
0001b0 4e 4d 06 bb 99 54 68 3d 37 01 35 bc 10 cd 00 be
       -0.0020492855 0.056721304 -0.011047653 -0.12578225
0001c0 c6 60 d6 bc 64 15 0c 3e 9b ec 1d 3c ad 2e 11 3e
       -0.026169192 0.13680035 0.009638931 0.14177962
0001d0 54 ef 0f bd c7 56 af 3d 98 2d 91 3d 14 d7 7e bb
       -0.03514035 0.08561473 0.070887744 -0.003888552
0001e0 82 48 ad 3d 8b 98 01 be 12 93 ec 3d 88 11 5d 3d
       0.084610954 -0.12655847 0.11551489 0.053971797
0001f0 1d 18 c8 bd 72 ed 4e 3c 23 4a 7a 3d de 8c 06 3e
       -0.09770224 0.012629854 0.06110586 0.13139674
000200 e1 92 1b 3e e8 18 b1 3d 8f 24 86 bd 86 cf 2a be
       0.15192749 0.086473286 -0.06549942 -0.16680726
000210 05 28 98 3d d2 9a 9d bd 35 6a 33 bd 75 ba 23 3e
       0.07429508 -0.07695545 -0.04380246 0.15989096
000220 20 05 02 3e 24 e2 08 3d fd 04 8a 3d bd 2a 2d be
       0.12697268 0.03341879 0.06739233 -0.16910835
000230 f4 6d 56 bd b4 af 8b bd 83 52 0f bd 23 af 90 bc
       -0.052350953 -0.06820622 -0.0349908 -0.017661637
000240 41 77 44 3d d1 a3 1c 3e cf 05 f7 bb 28 a3 96 3d
       0.047965292 0.15296866 -0.0075385342 0.07355338
000250 ac 23 1e be 3d 3e e2 3b 84 25 21 3e 6a 4a a1 3d
       -0.15443295 0.006904392 0.15736967 0.078755215
000260 54 4d 99 3d 86 04 8c bd 58 cf 8d 3d 76 c5 2a bc
       0.07485452 -0.068368 0.06924313 -0.010423055
000270 19 ba 96 3c 2f bb f9 3d c7 64 9e 3c 9d a3 e8 bd
       0.018399285 0.121939056 0.019335164 -0.11359332
000280 f6 ee d8 bd 7a 25 0e 3c 86 8a c3 3d e8 2f c3 bd
       -0.10592453 0.008675927 0.095479056 -0.09530622
000290 be de d5 bd aa 1b df bd 05 52 98 bc b7 70 2f 3d
       -0.10442875 -0.108939484 -0.018593797 0.042832103
0002a0 18 df 31 bd f3 5a a2 3d 09 77 95 bd e2 b8 b6 3d
       -0.04342565 0.079275034 -0.07298095 0.08921982
0002b0 83 1e e1 bd b2 ab 87 3d f0 0d 2d 3e 65 41 fe bd
       -0.10992148 0.06624545 0.16899848 -0.12414817
0002c0 c8 5d fa bc f5 d2 a2 3c 75 a2 03 3e a3 d6 c2 3d
       -0.030562297 0.019875983 0.12854941 0.09513595
0002d0 f1 6b 39 bc f3 d8 f2 3d c1 cf 0c 3d c4 3c 05 3e
       -0.011317239 0.11857786 0.034377817 0.13011461
0002e0 5c 88 98 bc 61 f8 4f 3e 04 be 05 bd 3f 9d 49 bd
       -0.018619709 0.20309593 -0.032651916 -0.049222227
0002f0 b5 82 1a 3c 16 9b c4 3c 88 6f 21 be da 71 cf bd
       0.009430577 0.023999732 -0.15765202 -0.10129137
000300 da 85 d6 3d f8 9f cd bd 4c 78 a6 3c 44 8c ba 3d
       0.10474749 -0.10040277 0.020321034 0.09108785
000310 3b 75 f8 bb 5b 0a ed bd 75 67 02 3e e2 39 8e bc
       -0.0075823343 -0.11574241 0.12734778 -0.017361585
000320 24 86 73 bc 43 ec 63 3d f4 36 35 3b 03 85 0e bc
       -0.014863525 0.05564524 0.0027651163 -0.008698705
000330 1d 7b 74 bc 35 9b 9c 3d ab 2b 30 bd 2d 29 8b 3d
       -0.014921931 0.07646791 -0.043010395 0.06794963
000340 24 d3 9f 3d 9f c9 cc bd f6 0f 4a 3e cc 46 0d ba
       0.07803944 -0.09999394 0.19732651 -0.00053892727
000350 a5 d5 6a 3d be d4 20 be 6c fd 8c bc bc 16 0b 3e
       0.057332654 -0.15706155 -0.017210685 0.13582891
000360 a6 37 02 3c 82 35 d1 bd ae 0c c0 3d 46 53 37 3d
       0.007947838 -0.10215284 0.093774185 0.04475715
000370 d4 1b 81 bd 5d 38 33 3e 23 70 25 3d 56 90 c6 3d
       -0.06304136 0.1750197 0.040390145 0.09695499
000380 87 8c 23 bd 98 b8 ff 3d a9 a0 d8 bc f9 8b b2 bc
       -0.03992894 0.1248638 -0.026443796 -0.02179526
000390 f8 cc 08 be 59 30 42 3d 52 0a 71 3d 60 59 98 3d
       -0.1335944 0.04740939 0.058847733 0.07438922
0003a0 1c 52 a4 bd 14 bd bf bd 0d 94 11 3d 51 56 b9 bd
       -0.080234736 -0.09362236 0.035541583 -0.09049667
0003b0 86 c6 7f 3c c4 84 ce bc c4 24 f5 bc f0 4d f9 3d
       0.0156112965 -0.025209792 -0.029924758 0.121730685
0003c0 a7 07 3d bd e6 cf ff bd 11 b5 9a 3c d8 1b 9c 3d
       -0.046149876 -0.12490825 0.018885167 0.07622498
0003d0 37 65 6c 3d e9 e9 04 bb 7e ce e0 3c 3c 6e 73 3d
       0.057713713 -0.0020281023 0.027442213 0.0594313
0003e0 68 75 de bd 6d 8e e4 bc ae b1 84 3d bc 52 cd bd
       -0.10862237 -0.027899945 0.06479202 -0.10025546
0003f0 dd 83 a7 3d 05 89 09 be 80 be b4 3d 9d 02 cc ba
       0.08179448 -0.13431175 0.088253975 -0.0015564744

fc2.bias f4 [16]
000000 0c e1 8c 3c a7 0b 39 3e 24 50 4b 3e e4 cb 71 3d
       0.017197154 0.18070851 0.1985479 0.059032336
000010 04 97 16 3d b7 1d 22 be 80 3a e0 3d 3b b6 01 3e
       0.036765113 -0.15831648 0.10948658 0.12667172
000020 21 0f 1c 3e e5 31 12 3e 2a 08 60 bc 59 2c 37 bd
       0.15240146 0.14276846 -0.013673821 -0.044720028
000030 7b 25 ad 3d 72 46 8e bc 55 0e a8 3d 26 f5 74 bd
       0.084544145 -0.017367575 0.082058586 -0.059804104

fc31.weight f4 [3, 16]
000000 7e cc 3b be 9c 49 1a 3d 1a e4 82 3d 97 10 0d 3e
       -0.18339726 0.037667856 0.06391163 0.1377586
000010 10 90 9e 3d 02 f3 0c 3e 84 7c 15 bd cd 61 1b 3e
       0.077423215 0.13764575 -0.0364957 0.15174027
000020 4a c6 00 bd 36 2e ad 3c 52 13 22 be d7 fa 67 be
       -0.031439103 0.0211402 -0.15827683 -0.22654282
000030 26 eb 35 3e e3 04 77 bd 43 97 81 bd 69 5d 93 3d
       0.17765483 -0.060307395 -0.06327679 0.07195551
000040 f4 05 b3 3d 9a 60 94 3d b4 48 06 bd 36 bc 56 3d
       0.0874137 0.07244988 -0.03278418 0.052425586
000050 d0 1b 1f 3e 17 ad 26 3e 60 99 30 bc ec 6b 59 3c
       0.15537953 0.16276966 -0.010778755 0.0132703595
000060 da 8e 75 bc 6a 3c 4d 3c 7e 66 1d bc e1 70 3b be
       -0.014987672 0.012526611 -0.009606956 -0.18304779
000070 cd bb 3d be da d3 09 bd 98 74 c2 3a a5 f9 0d be
       -0.18528672 -0.033649303 0.0014835773 -0.13864763
000080 dc 74 0b be f7 11 22 bd 5c 20 b4 3d 3d 29 6c 3d
       -0.13618797 -0.039567914 0.087952346 0.057656515
000090 8e 52 0f be 3f 7e 4c bd 88 86 3a 3d 9d be 93 3d
       -0.13996336 -0.049925085 0.045538455 0.07214091
0000a0 d6 5a a9 3c e9 4a ef 3d f7 31 ae bd a9 e8 09 be
       0.020673197 0.1168421 -0.08505624 -0.13467659
0000b0 72 f6 36 3e 95 ba 17 3d 3f 97 c5 3c 5d 49 37 3d
       0.17867449 0.037043173 0.024119971 0.0447477

fc31.bias f4 [3]
000000 17 1e e2 bd 32 47 0d bd 8c 0f 2c bd
       -0.110408954 -0.034491725 -0.042007014

fc32.weight f4 [3, 16]
000000 68 43 d4 3d 08 4d 0e be 43 00 54 3e bf c1 ff bc
       0.10364419 -0.13896573 0.20703225 -0.031220315
000010 17 1b 9e 3b 2e ae b2 3b e8 25 08 be d9 7e cf 3d
       0.0048250067 0.0054528927 -0.1329571 0.10131616
000020 c5 5a cc 3b 3a 54 49 3e 3b 7e 22 3d de 57 fe 3d
       0.0062364065 0.19661036 0.039671164 0.12419103
000030 0d 19 b7 bd 22 77 60 bd 13 54 eb 3d 12 a2 b1 bc
       -0.08940325 -0.054801114 0.11490645 -0.021683726
000040 f2 4d a6 3d f8 29 63 bc 3e 23 9f 3d ed 61 07 be
       0.08120336 -0.013864987 0.07770394 -0.1322095
000050 39 44 25 3e 76 4d 2d be 18 5f d0 3d 5f a7 41 3d
       0.16139306 -0.1692408 0.10174388 0.04727876
000060 a4 a5 43 3c 0c 0d 2a 3e ba b0 21 bd d6 95 bb 3d
       0.011941347 0.1660654 -0.03947518 0.09159438
000070 c6 bc 4e be 73 3a e3 bd 65 65 bc bd 8e 97 06 be
       -0.20189199 -0.11095133 -0.09199027 -0.13143751
000080 49 d7 3d 3c 88 5c d3 3d a1 f4 90 3e f4 7a 38 bd
       0.0115869725 0.10320383 0.28311637 -0.045039132
000090 05 78 15 bd d4 59 57 be 2c b5 09 be 08 f2 1f bd
       -0.036491413 -0.2103036 -0.13448018 -0.03904918
0000a0 9f 16 16 3e 46 a7 cf 3d 63 f8 a2 bd aa 06 c3 bc
       0.14657067 0.10139327 -0.07957532 -0.023806889
0000b0 eb a7 16 3e a6 81 07 bd 15 73 aa 3c b6 9c 21 bd
       0.14712493 -0.033082627 0.020806829 -0.03945609

fc32.bias f4 [3]
000000 7e 2a 97 bd 3d 7f 06 bd 20 d7 22 be
       -0.073811516 -0.032836188 -0.15902376

fc4.weight f4 [16, 3]
000000 47 2e fa be 01 d8 a7 3d 30 7b 1c 3f 71 79 9e 3e
       -0.48863432 0.08195496 0.6112547 0.30952027
000010 51 cd d8 3e cd 16 c0 3e f8 9e 2b bd 85 a2 37 3f
       0.42344144 0.37517396 -0.04189965 0.7173236
000020 2d e8 da bc d1 0c 14 3f d0 38 8d bd ae 27 89 be
       -0.026722038 0.57832056 -0.06895602 -0.26788086
000030 f4 1f 1f 3f 2f 56 a3 be 24 6a e1 3e ca 09 16 bf
       0.6215813 -0.3190169 0.4402629 -0.58608687
000040 63 44 00 3f a6 57 8b bd ee 31 40 3f f7 ed 29 3f
       0.5010435 -0.06803827 0.75076187 0.6637873
000050 d8 b8 c6 bd 52 f2 b0 be 95 b3 ee be 0f 80 f2 3b
       -0.09703225 -0.34559876 -0.46621385 0.0074005197
000060 28 e2 2a bf b3 68 b1 be 73 11 21 bf 40 4a dc 3e
       -0.6675134 -0.34650192 -0.6291725 0.43025398
000070 94 b3 91 bd 93 63 2d bf 90 4c 3f 3f 45 4d 16 bf
       -0.0711433 -0.67730063 0.747262 -0.58711654
000080 b2 09 0e 3f 7f bf 83 bd 06 72 c9 be 3a 0c 15 3e
       0.55483544 -0.06433009 -0.39344805 0.14555445
000090 83 97 3e 3e a8 20 59 3f 65 db 46 3e 2e 24 3d bf
       0.18612485 0.84815454 0.1941963 -0.7388333
0000a0 3a 80 44 3f 6d 17 94 be 7f 75 a5 be da 4f 2d bf
       0.7675816 -0.28924122 -0.32316205 -0.6769997
0000b0 02 27 68 bc ce 5c 9e bd 9f 29 11 3f 33 ec 03 3f
       -0.014169456 -0.07732545 0.56704134 0.51532286

fc4.bias f4 [16]
000000 55 83 97 be a6 be c8 3e 7e 43 de 3e bf 0f 49 3e
       -0.29592386 0.39207953 0.43410867 0.19634913
000010 db 0e 16 3f d4 c8 37 3f 67 a7 1b 3f 37 74 28 3f
       0.5861642 0.71790814 0.6080231 0.6580233
000020 73 28 c4 bd 73 cc ab 3d b2 c6 27 be 83 a1 34 3f
       -0.095780276 0.08388605 -0.1638439 0.7055895
000030 5e 21 f7 3c cd 71 65 be 17 e1 17 3f 9f da 8a be
       0.030167278 -0.22406693 0.59327835 -0.2711992

fc5.weight f4 [32, 16]
000000 e0 e2 eb bd 62 a5 1a be f0 20 91 3d 20 d8 9b bd
       -0.11517882 -0.15102151 0.070863605 -0.07609582
000010 3c 66 98 bd d4 d6 ce 3d 3a 96 65 be b0 90 c4 bd
       -0.07441375 0.10099569 -0.22420588 -0.095979095
000020 e8 64 27 be 20 87 6f 3d 64 2f d6 bd 1e 64 02 be
       -0.16347086 0.058478475 -0.10458258 -0.12733504
000030 5c 96 aa bd dc 52 10 be 2e 33 45 be 44 69 5e 3e
       -0.0832946 -0.14094108 -0.19257805 0.21719843
000040 8f 56 f6 3d 87 53 1e 3e cc b9 cc 3e 76 e1 2b 3e
       0.120282285 0.1546155 0.39985502 0.16785225
000050 66 7b fb 3e c8 6a c9 3e b6 31 90 3e 35 13 01 3f
       0.49117583 0.3933928 0.28162926 0.5041993
000060 d1 e1 d7 3e fb 25 23 3d 42 3e 11 3e e2 eb d2 3e
       0.42164472 0.039831143 0.14183906 0.4119559
000070 09 97 80 3e 70 81 c8 3e ab da df 3e 46 10 6a 3e
       0.2511523 0.39161253 0.43721518 0.2285777
000080 42 67 5a 3e 71 8f 78 bd 97 c8 79 bd 60 9f 32 bc
       0.21328452 -0.06068367 -0.060982313 -0.010902256
000090 9b 75 ac 3d fe 8a 18 3e 10 77 4e 3d 5c 4e 39 be
       0.08420869 0.14896771 0.050406516 -0.18096298
0000a0 98 b5 52 be 8e 05 79 be 7c 69 3e be 86 bf f0 bc
       -0.20577085 -0.24318525 -0.18594927 -0.0293882
0000b0 e6 c4 66 be 48 74 c0 bd c6 4d 15 3b 5b 93 9a bd
       -0.22536048 -0.09397179 0.0022781952 -0.07547637
0000c0 12 7f c6 3d aa a2 99 3e e8 5b a4 3e 14 6f 01 3f
       0.096922055 0.30006915 0.3210137 0.50560117
0000d0 4b 25 92 3e 76 02 97 3e 4b 13 00 3f 96 1e 0d 3e
       0.28544077 0.29494065 0.5002944 0.13781199
0000e0 df 82 9d 3c b9 e3 f3 3e a2 2f d6 3e 58 89 d7 3e
       0.019227443 0.47634676 0.41833216 0.42096972
0000f0 5b 76 08 3d 42 f8 04 3e 5e e5 0a 3f c0 5e 91 3e
       0.033315998 0.12985328 0.54256237 0.283926
000100 e4 25 8c 3e c1 96 b0 3d c0 4d 71 3e e7 75 a3 3e
       0.27372658 0.08622504 0.23564816 0.3192589
000110 3a d9 38 3e ad 97 5f 3e 72 5f df 3d 34 cb e2 3e
       0.18051615 0.21835203 0.109068766 0.44295657
000120 6e 63 7b 3e d6 62 31 3d ac a2 f1 3e b7 19 60 3e
       0.24549648 0.043307148 0.4719442 0.2188481
000130 f1 0c c9 3e d7 de 8b 3e 90 bc 8b 3d 8a 43 12 3e
       0.39267686 0.2731845 0.06823075 0.14283577
000140 db bd 81 3d ac 38 8e 3e 2a ee 4f 3e e1 2c e8 3d
       0.0633504 0.27777612 0.20305696 0.11336685
000150 84 18 74 3e 0b fb ae 3e 18 d8 b3 3d 8a 60 79 3e
       0.23837477 0.34175906 0.08781451 0.24353233
000160 c9 b4 92 3e 92 75 8d 3d ac 30 61 3e c5 12 15 3f
       0.28653553 0.069071904 0.21991223 0.58231765
000170 19 d1 ae 3e 71 5b e1 3e 4f 78 49 3e 45 d8 7a 3e
       0.34143904 0.44015077 0.196748 0.24496563
000180 76 08 3d 3e bf 8e 7c 3d b0 8a 31 3d b1 ec ea 3e
       0.18460259 0.06165957 0.043345153 0.45883706
000190 a4 3e af 3e 76 10 f4 3e 85 50 a8 3e d5 08 d2 3e
       0.34227479 0.4766881 0.32873932 0.41022363
0001a0 6d d6 f4 3e f5 ed 27 3d 52 44 96 3e c2 0f 49 3e
       0.47819844 0.040998418 0.29349 0.19634917
0001b0 5c a3 aa 3e d1 a9 b8 3e fa 2d b6 3e e5 1a a2 3d
       0.33327758 0.3606706 0.35581952 0.07915286
0001c0 3a fe 44 3e fe b5 5b bd f0 ac 92 3e e3 4b 51 3e
       0.19237605 -0.05364036 0.28647566 0.20439105
0001d0 a5 f2 97 3e 0d 01 4c 3d 9b 4a 5f 3e 22 aa 9c bd
       0.2967731 0.04980569 0.21805803 -0.07649638
0001e0 89 e5 98 3e ca df bd 3d bc 79 bb 3e e5 a9 a4 3e
       0.2986262 0.092712 0.36616313 0.3216087
0001f0 98 09 a0 3e 67 3e b9 bd 9b da 4b 3e ac fb a2 3e
       0.3125732 -0.090451054 0.1990761 0.31832635
000200 9a 9a cf 3e 56 34 ae 3e 42 69 57 3e 4b 5a a0 3e
       0.4054764 0.34024304 0.21036246 0.31318888
000210 5f 23 1e 3e c5 37 44 3e 4e ad d5 3e ae 28 81 3e
       0.1544318 0.191619 0.41733783 0.2522635
000220 07 c5 d2 3d c5 9e c7 3d a0 e7 05 3f ad f1 3a 3e
       0.10291486 0.0974708 0.52306557 0.18256254
000230 c3 d9 8e 3e 3a c9 c8 3e ca 89 d9 3e 59 b0 f9 3e
       0.27900514 0.39216024 0.42487937 0.48767355
000240 58 a3 cc 3e 61 60 5e 3e ce 59 aa 3e 82 e3 17 3e
       0.3996837 0.21716453 0.3327164 0.14832881
000250 00 3a d2 3d d8 86 a5 3e c1 e6 65 3d 95 13 dd 3e
       0.10264969 0.3232944 0.056128267 0.43179002
000260 42 ef ac 3e 55 8e b3 3d f5 5c c5 3d 50 74 18 3f
       0.3377629 0.08767382 0.09636871 0.5955248
000270 94 ed 91 3e 85 5b c1 3e a1 d9 fe 3e bb 95 c3 3e
       0.2850157 0.37765136 0.49775413 0.38200173
000280 2e 66 c5 3e 33 61 97 3e 7e 9b af 3e 0c 8f 42 3e
       0.3855452 0.29566345 0.3429832 0.1899988
000290 54 f5 b0 3e e0 1c 10 3d b4 99 b9 3e dd 62 e1 3e
       0.3456217 0.035183787 0.3625008 0.4402074
0002a0 b2 97 5e 3e 18 e6 30 3e 66 13 9a 3e 8d a5 e4 3e
       0.21737555 0.17275274 0.30092925 0.44657555
0002b0 a7 f9 5d 3e ba 1e 06 3e 4f ac a7 3d 59 7c 26 3e
       0.21677266 0.13097659 0.08187162 0.16258372
0002c0 f1 3e d6 3e da 4c 9f 3e da 21 39 3d c2 a4 a3 3e
       0.41844895 0.3111332 0.0451983 0.31961638
0002d0 1d 9e 06 3e 72 31 ef 3d 51 ef 36 3e f1 30 ce bc
       0.13146253 0.11679353 0.1786473 -0.025169821
0002e0 8e 61 72 3e 20 dd a6 3e 21 25 aa bc c6 e2 aa bc
       0.23670027 0.3259058 -0.020769658 -0.020860087
0002f0 3c cb ad 3e 8c a7 25 3e f5 a9 48 bd 84 80 06 3f
       0.33944118 0.16177195 -0.04899021 0.5253985
000300 73 7e b1 3e 8a 9a 4c 3e 72 c3 82 3c f0 e9 85 3e
       0.34666786 0.19980827 0.015962336 0.26155043
000310 b3 96 4f 3e 2d 8f ba 3e 5a 59 f9 3e 4d 1e 06 3f
       0.20272331 0.3643736 0.48700982 0.52389985
000320 48 83 c2 3e 41 1b 9b 3e bf fc 39 3e 46 6b 03 3f
       0.37990785 0.3029423 0.18162821 0.5133556
000330 43 5a f8 3e a5 6c b0 3e c1 e0 89 3e f0 8a a2 3e
       0.48506364 0.3445789 0.26929286 0.31746626
000340 48 cf 85 3c 77 d0 86 3e bb 79 b0 bd b4 c2 f5 bc
       0.016334191 0.2633092 -0.08616968 -0.030000068
000350 60 c0 12 be d2 54 fd bd 17 f0 85 bd 98 ca 3e 3e
       -0.14331198 -0.12369694 -0.06539934 0.18631971
000360 1a 65 66 3e 54 42 81 3e 8d 20 42 3e 86 f5 23 bb
       0.22499505 0.25245917 0.1895773 -0.002501817
000370 b9 60 18 3e f8 a1 b0 3e 38 cd 9a 3e b0 bc c8 bd
       0.14880647 0.34498572 0.30234694 -0.09801614
000380 67 fd ab 3d 81 d6 d4 3e 9c 21 c5 3c 55 c5 f5 3e
       0.08397942 0.41569903 0.024063878 0.48002115
000390 4f 81 a7 3d bc 14 f9 3d 6e 90 a1 3e ad 61 df 3e
       0.081789605 0.12162158 0.31555504 0.43629208
0003a0 c0 fd 44 3e c2 ed cf 3e 31 f4 2b 3e 9e 6e dd 3e
       0.19237423 0.40611082 0.1679237 0.43248457
0003b0 49 77 a1 3e f2 d7 24 3e 03 fd ac 3e 8d 6d d5 3e
       0.3153632 0.16098002 0.33786783 0.41685143
0003c0 39 27 49 3e de e1 a0 3e 25 20 b9 3e 0d d0 53 3d
       0.19643869 0.31422323 0.36157337 0.051712085
0003d0 79 ff 3e 3e 93 39 95 3e a0 64 a9 3b 1a 10 f6 3e
       0.18652143 0.29145488 0.005169466 0.4805916
0003e0 db 9f c6 3e 2b fb 37 3a 4c f3 24 3e 16 1a fc 3c
       0.38793835 0.0007018323 0.16108435 0.030774157
0003f0 ff b9 a5 3e 0b f8 42 3b 92 02 a7 3e 04 04 d1 3e
       0.32368466 0.0029749896 0.32619148 0.40823376

fc5.bias f4 [32]
000000 e2 f4 0e be b1 56 1a 3e 57 fe 50 be 8d 35 d7 3e
       -0.13960603 0.15072133 -0.20409523 0.42033044
000010 f9 cc 91 3e 04 1a fd 3e 49 64 fd 3e 59 81 db 3d
       0.28476694 0.4943391 0.49490574 0.107180305
000020 99 02 f9 3e f0 7c 6b 3e ca 4b aa 3e ba 4a a2 3e
       0.48634794 0.22996879 0.33260947 0.31697637
000030 7e 06 1c 3e 54 3c 99 3d d3 c6 dc 3e 4a c6 80 3d
       0.15236852 0.0748221 0.4312044 0.06287821
000040 93 18 03 3d aa 7a 3e 3e 9a bd 6e 3b 71 75 06 3f
       0.032005858 0.1860148 0.003642893 0.5252295
000050 1d 05 df 3e 25 0e 77 3e 62 e3 94 be 43 08 ba 3e
       0.4355859 0.2412649 -0.2907973 0.36334428
000060 34 11 84 3e 6e 44 04 3f 07 1c d8 3e 94 47 8f 3e
       0.25794375 0.51666915 0.42208883 0.27984297
000070 81 f2 8f 3d fd fa 62 3d b5 36 f4 3e 45 23 06 3f
       0.07028676 0.055415142 0.47697988 0.5239757

fc6.weight f4 [6, 32]
000000 b8 7b 84 bc 4f aa 94 be a6 18 27 3e c0 5f cd be
       -0.016172275 -0.29036185 0.16317996 -0.40112114
000010 1d d1 67 be 08 8e dc be 3a b7 92 be 4f 92 51 be
       -0.22638364 -0.4307711 -0.28655416 -0.20465969
000020 a7 56 cc be 4f 65 80 be f4 fa 1d be cd a9 02 be
       -0.3990986 -0.25077292 -0.15427762 -0.12760086
000030 b1 5f a9 be f8 a8 53 be 93 78 52 be 7b c7 97 be
       -0.3308082 -0.20669925 -0.20553808 -0.2964438
000040 22 10 6b be 2c b5 5e be cb 49 8f bd ee f0 c0 be
       -0.22955373 -0.21748799 -0.06996497 -0.37683815
000050 93 e5 76 be a5 f2 c3 bd 4a 65 c8 3d 6c 4e b1 be
       -0.24111013 -0.09567765 0.09784944 -0.34630144
000060 3e 00 93 be 7c df b8 be 92 3c 36 be 12 6f 69 be
       -0.28711122 -0.36108005 -0.17796543 -0.22796276
000070 a3 fb 05 be 49 2e 3f be d7 91 eb be b3 23 df be
       -0.13084273 -0.1867 -0.46009704 -0.43581924
000080 98 ad f6 bc da 01 6e be 6d f4 10 3e 79 30 ef bd
       -0.030112073 -0.23242894 0.14155741 -0.11679167
000090 3e f0 a4 be ba 8a 70 be 72 22 d3 be da ca ac be
       -0.3221454 -0.2349042 -0.41237217 -0.33748513
0000a0 28 37 53 be 56 a3 68 be 9e 86 14 be ba 25 98 be
       -0.20626509 -0.22718558 -0.14504477 -0.29716283
0000b0 20 6b 99 be 20 c1 6a bd f0 35 d8 be ac 69 4c be
       -0.29964542 -0.057313085 -0.4222865 -0.19962186
0000c0 97 8d 9c be 01 f5 c3 be 4e 8d 13 be 07 99 98 be
       -0.30576774 -0.3827286 -0.14409372 -0.2980425
0000d0 4b 4c aa be 9b 02 c3 bd 3f dc 57 bc 72 ac 94 be
       -0.33261332 -0.09521981 -0.013175069 -0.29037815
0000e0 2f 6c 23 be 0b 68 d1 be d9 b2 d2 be 43 58 8d be
       -0.15959238 -0.4089969 -0.41152075 -0.276064
0000f0 37 00 9b be ae c7 d8 be 52 8f c3 be c7 49 4f be
       -0.302736 -0.42339844 -0.38195282 -0.20242988
000100 b0 c5 72 3d 03 97 f3 be f7 82 19 3e c1 95 bd be
       0.05927056 -0.4757615 0.14991365 -0.37028316
000110 b6 63 12 bf 01 9b f7 be c3 0d 18 bf bf 27 b3 be
       -0.57183397 -0.48360446 -0.59396 -0.3499126
000120 e6 12 f3 be df af 14 bf 43 f2 07 bf 23 44 f6 be
       -0.47475356 -0.5808086 -0.5310404 -0.4809886
000130 8c 80 1e bf 01 9a 9a bd 82 0c 12 bf 0d 4f 09 bf
       -0.61914897 -0.07548905 -0.57050335 -0.53636247
000140 34 25 87 be 05 4c 04 bf d1 ff 9f be 1d dc cc be
       -0.2639557 -0.51678497 -0.3124986 -0.40011683
000150 a7 63 21 bf c3 5b 0f bf 58 88 a9 bd e1 4b cb be
       -0.6304268 -0.5599939 -0.08277959 -0.3970633
000160 39 f1 17 bf b4 11 2d bf 30 d9 00 bf 50 96 a2 be
       -0.5935245 -0.6760514 -0.503314 -0.31755304
000170 ed ec aa be 81 b2 0f bf ef 04 de be 5c 41 28 bf
       -0.33383885 -0.5613175 -0.4336314 -0.6572473
000180 c8 67 9b bc 9a e4 e7 be fe 34 f8 3d 71 03 ff be
       -0.018970385 -0.45291597 0.121194825 -0.49807313
000190 29 ec 27 bf be 21 f1 be 4a 2e 2d bf e7 55 98 be
       -0.65594727 -0.47096056 -0.67648757 -0.29753038
0001a0 58 60 f5 be 78 d5 f7 be 4d 5d ac be 34 e3 89 be
       -0.47925067 -0.4840505 -0.33664933 -0.26931155
0001b0 b7 49 32 bf a4 9c bc be 06 cf 06 bf 45 d6 a4 be
       -0.6964373 -0.36838257 -0.5265964 -0.32194725
0001c0 69 be 1c bf 89 a8 25 bf 3a 37 04 bf 2e fa 1f bf
       -0.6122804 -0.6471029 -0.5164677 -0.6249112
0001d0 95 4d 0e bf 9a 69 ca be 56 96 88 bd bc ce 1b bf
       -0.5558713 -0.39533693 -0.06669299 -0.60862327
0001e0 b7 c6 89 be ca ed 03 bf 68 d6 18 bf 41 04 90 be
       -0.2690942 -0.5153471 -0.5970216 -0.28128245
0001f0 87 e7 bb be 45 55 08 bf c3 f7 20 bf 5a 17 20 bf
       -0.3670008 -0.5325511 -0.62878054 -0.6253563
000200 58 f8 0d 3d 19 54 0f bf da f5 db bd 59 ec 2a bf
       0.034660667 -0.559877 -0.10740252 -0.6676689
000210 74 f5 27 bf b6 8b 21 bf 30 a9 32 bf 46 51 c2 be
       -0.65608907 -0.63103807 -0.6978941 -0.37952632
000220 25 7e fa be 14 a1 13 bf 4b ae c5 be 26 f6 84 be
       -0.48924366 -0.5766766 -0.38609537 -0.25969046
000230 9e 2a 34 bf 92 be 58 be 3c 96 40 bf c6 e7 98 be
       -0.7037753 -0.21166447 -0.7522924 -0.2986433
000240 7e cc 17 bf 66 a1 2f bf a3 20 2f bf a9 2c 13 bf
       -0.59296405 -0.6860565 -0.68409175 -0.5749002
000250 6e 8f 01 bf 0e 6b d5 be de 81 6e bd 09 13 02 bf
       -0.5060948 -0.4168324 -0.05822932 -0.50810295
000260 ed a1 a0 be f1 b2 00 bf dc 5f 27 bf e4 61 00 bf
       -0.3137354 -0.5027304 -0.65380645 -0.5014937
000270 9f ef 12 bf 50 fd 24 bf 39 cd 1a bf c0 3d e2 be
       -0.5739688 -0.64449024 -0.60469395 -0.44187737
000280 57 f2 04 3e e1 26 0b bf 61 3d 20 be 08 48 20 bf
       0.1298307 -0.543562 -0.15648414 -0.6260991
000290 4e f1 14 bf 45 ca 1d bf e7 10 d3 be 59 55 b2 be
       -0.581807 -0.61636764 -0.41223833 -0.3483074
0002a0 21 87 27 bf cf b4 20 bf c1 55 37 bf b0 46 ba be
       -0.65440565 -0.6277589 -0.71615225 -0.36382055
0002b0 b0 83 f0 be 25 4a 08 be a2 2a ea be 0e 4b 1d bf
       -0.4697547 -0.13309534 -0.4573565 -0.6144265
0002c0 14 0a fa be aa a8 e5 be 7c a6 1b bf 87 8e 14 bf
       -0.48835814 -0.44855243 -0.6080091 -0.5802998
0002d0 12 d4 db be be cf 0e bf f4 06 d5 3d 19 68 0e bf
       -0.42935234 -0.5578574 0.10401717 -0.5562759
0002e0 6d 9e b7 be ce e8 f0 be d1 a9 09 bf fe d5 bf be
       -0.35863057 -0.47052616 -0.53774744 -0.3746795
0002f0 35 ec 83 be c9 50 13 bf c1 06 d8 be 41 10 ce be
       -0.2576615 -0.57545143 -0.42192653 -0.40246776

fc6.bias f4 [6]
000000 56 1e 48 be 9e 53 a8 be 05 af 0a bf 21 c7 ed be
       -0.19542822 -0.32876295 -0.5417331 -0.46440986
000010 2a 5a 9d be 97 3e 1a bf
       -0.30732852 -0.60251755
