model/model_vae_mlp_f6_c200_z1.pth (torch_old, 12331 bytes, 20 tensors)

fc1.weight f4 [32, 6]
-0.08190687 0.022519384 0.11831306 -0.1997511 0.011327727 -0.27481836 0.3050046 0.31333435
0.033348322 0.0030797159 0.16738617 0.35043433 0.25810134 -0.18896517 0.0006456411 0.18456618
-0.007935378 0.10296001 0.06080736 0.114793345 -0.2100848 -0.041021843 -0.116355404 0.3439629
0.14685568 -0.053611502 -0.040151764 0.23298717 -0.23421673 -0.20575592 -0.16006775 0.29232708
0.21963991 0.23370495 -0.13333869 -0.15496194 -0.1855678 -0.039251138 0.25237587 0.017526228
-0.1853146 -0.17281683 -0.042653833 0.20505475 -0.13813427 0.24525331 -0.10943925 -0.33376226
-0.19417499 -0.16248088 0.012892067 -0.015584077 -0.1570367 0.069295675 -0.03856561 0.17116
0.20426582 0.12636088 0.19934309 0.17168294 0.16842915 0.075471416 0.0036192227 -0.2301881
0.29429933 0.36762473 -0.27736282 -0.27965432 0.2938984 -0.14461796 -0.19014357 0.17622931
-0.060341846 -0.121627875 0.28256193 -0.06768275 -0.1684556 -0.121247835 -0.06412566 -0.25803292
0.20514397 -0.2856974 0.24746716 -0.4481464 -0.08297027 0.048352446 0.04214891 0.33632585
0.34369567 0.18455261 -0.055594184 0.28010827 -0.36967763 -0.0512749 0.27750632 0.31579328
-0.12461198 -0.24996477 0.11323558 0.23123522 0.3190363 0.016901597 0.087178014 -0.1439302
-0.2714277 0.02750367 0.19793867 0.030000154 -0.050217204 0.039608125 -0.00705518 -0.033677436
-0.23282863 0.28337362 0.20753342 0.21452318 0.19090205 0.32599598 0.051732432 0.22604237
-0.25880826 0.1646775 -0.36707827 0.14167507 0.037367683 -0.0039605857 0.16822584 0.21260081
0.119675994 -0.15277795 -0.14412823 0.24104117 -0.23036689 0.004674589 -0.1415464 0.21011339
0.18983616 -0.14031549 0.102880605 -0.1648271 -0.3971565 0.05050029 0.24674928 -0.045786932
0.07556702 0.1403141 0.24094547 0.43365738 -0.06096593 -0.17050475 0.060366407 0.014771307
-0.045225266 -0.2105487 -0.2936054 0.22279203 -0.2719615 0.04660783 -0.22824542 -0.005266971
-0.018346015 -0.22646041 0.15757273 -0.36484462 0.29152212 -0.3525956 -0.06857234 -0.006486383
-0.27020815 0.32801962 -0.046205908 0.09616314 -0.016431494 -0.22736754 -0.026386367 -0.11344324
-0.071547255 -0.18059562 0.17363285 0.094269834 -0.27260384 0.2547354 0.10467609 -0.22337617
-0.19032766 -0.25328857 -0.30003166 -0.3594947 0.3979992 0.0036556043 0.14927204 0.22976269
00000000: cabe a7bd 927a b83c 1e4e f23d 8d8b 4cbe
00000010: ee97 393c feb4 8cbe 9029 9c3e 5c6d a03e
00000020: 4098 083d 0fd5 493b 4867 2b3e 216c b33e
00000030: dc25 843e 1680 41be 3e40 293a ebfe 3c3e
00000040: 6303 02bc b3dc d23d 2311 793d c618 eb3d
00000050: 7820 57be 8506 28bd be4b eebd e81b b03e
00000060: 5661 163e bc97 5bbd 2d76 24bd 3094 6e3e
00000070: 83d6 6fbe aeb1 52be cde8 23be e5ab 953e
00000080: 49e9 603e 5a50 6f3e f089 08be 58ae 1ebe
00000090: 7c05 3ebe cdc5 20bd 6937 813e 2a93 8f3c
000000a0: 1cc3 3dbe e5f6 30be c9b5 2ebd dff9 513e
000000b0: 1273 0dbe af23 7b3e af21 e0bd e3e2 aabe
000000c0: cfd5 46be 6361 26be 4039 533c 5b54 7fbc
000000d0: 3bce 20be e4ea 8d3d f9f6 1dbd 9144 2f3e
000000e0: 0f2b 513e bf64 013e 9820 4c3e a7cd 2f3e
000000f0: b178 2c3e c290 9a3d 7b30 6d3b 6eb6 6bbe
00000100: 67ae 963e 4f39 bc3e 8002 8ebe da2e 8fbe
00000110: da79 963e bb16 14be ffb4 42be 7575 343e
00000120: 0329 77bd 0918 f9bd f5ab 903e 419d 8abd
00000130: a07f 2cbe c950 f8bd 5054 83bd e41c 84be
00000140: 4311 523e ee46 92be 0868 7d3e 7273 e5be
00000150: 51ec a9bd 370d 463d 56a4 2c3d e732 ac3e
00000160: e1f8 af3e 5cfb 3c3e bab6 63bd 5a6a 8f3e
00000170: 6346 bdbe a105 52bd 4f15 8e3e a8af a13e
00000180: 9134 ffbd c4f6 7fbe 0ee8 e73d edc8 6c3e
00000190: ba58 a33e 3875 8a3c 638a b23d 7062 13be
000001a0: 92f8 8abe 604f e13c 6fb0 4a3e e2c2 f53c
000001b0: 8eb0 4dbd 213c 223d 242f e7bb 5af1 09bd
000001c0: a16a 6ebe 5916 913e a483 543e f7ab 5b3e
000001d0: d47b 433e f2e8 a63e 63e5 533d a777 673e
000001e0: 8482 84be 38a1 283e aff1 bbbe 4513 113e
000001f0: db0e 193d cdc7 81bb 6543 2c3e 07b4 593e
00000200: b018 f53d d371 1cbe 5a96 13be 7fd3 763e
00000210: 4ce5 6bbe 4b2d 993b 8af1 10be f727 573e
00000220: 6964 423e ddae 0fbe 11b3 d23d 6fc8 28be
00000230: 1958 cbbe 64d9 4e3d d8ab 7c3e 148b 3bbd
00000240: e2c2 9a3d 80ae 0f3e 69ba 763e 5708 de3e
00000250: 69b7 79bd cc98 2ebe c442 773d 5a03 723c
00000260: 213e 39bd 149a 57be 7253 96be 9823 643e
00000270: 8a3e 8bbe dae7 3e3d 2bb9 69be 8e96 acbb
00000280: 624a 96bc 3de5 67be bf5a 213e eacc babe
00000290: 6342 953e 6987 b4be a86f 8cbd b98b d4bb
000002a0: b958 8abe 30f2 a73e 6842 3dbd 2ef1 c43d
000002b0: 579b 86bc 09d3 68be 3928 d8bc ee54 e8bd
000002c0: 5e87 92bd 0fee 38be cfcc 313e 8b10 c13d
000002d0: bb92 8bbe ae6c 823e 6b60 d63d b9bc 64be
000002e0: 41e5 42be 0aaf 81be c09d 99be b00f b8be
000002f0: 8dc6 cb3e dd92 6f3b c5da 183e e946 6b3e

fc1.bias f4 [32]
0.017097492 -0.36381716 0.04591539 -0.08269112 -0.04388445 -0.31487474 0.37901425 -0.018346244
-0.11074346 -0.20968436 0.29232344 -0.41031876 -0.30843797 0.12524316 -0.10834145 -0.030872267
-0.42158622 0.4372453 -0.22183022 -0.11902647 -0.32015336 -0.46405408 -0.2982289 -0.3810256
-0.05659679 0.33901104 0.20251338 0.052464444 0.13401644 0.18509641 -0.07584582 -0.19957036
00000000: 0a10 8c3c 3e46 babe c711 3c3d f659 a9bd
00000010: 2ec0 33bd 4337 a1be 280e c23e dd4a 96bc
00000020: 78cd e2bd 7fb7 56be 6bab 953e 4d15 d2be
00000030: 95eb 9dbe be3f 003e 1fe2 ddbd d6e7 fcbc
00000040: 26da d7be 9ede df3e 7627 63be 26c4 f3bd
00000050: 24eb a3be 7f98 edbe 75b1 98be ca15 c3be
00000060: 09d2 67bd db92 ad3e ab5f 4f3e f5e4 563d
00000070: 9b3b 093e ea89 3d3e 0e55 9bbd 2c5c 4cbe

fc2.weight f4 [16, 32]
0.09743295 -0.1054182 0.055784475 -0.09965203 0.13540486 0.08494693 -0.076880865 0.068316065
-0.111359306 -0.1213893 0.028467523 0.008584201 -0.066800356 0.016075274 -0.022160767 0.022010187
-0.02820006 0.012798381 0.13215232 0.10360959 -0.16256729 -0.12731221 0.0034170195 0.15642722
0.10558733 0.0010671868 -0.15678965 0.12487107 -0.018814666 -0.031064255 -0.08275871 -0.09459943
0.0917889 -0.017607838 0.04361457 -0.1667345 0.1677895 0.028115 0.14365539 0.124770865
0.053579412 0.018741269 0.049411785 -0.06257435 0.12040025 -0.16461688 0.11213049 0.09876532
-0.1053372 -0.048792504 -0.024373395 -0.099702016 0.0005046845 -0.14116363 0.027677158 0.15902933
0.10921239 -0.109959945 0.066296026 -0.052465692 -0.0917391 -0.18059917 -0.101878665 -0.15878607
0.08763863 -0.12134579 -0.057424318 0.023191951 0.15681684 0.14884055 -0.10608652 0.1051092
0.14721607 0.09813479 0.010448839 -0.07516119 -0.06155465 -0.11388298 -0.15063049 -0.020842059
0.069943994 -0.055186935 -0.09023969 0.054960888 -0.112761766 -0.17021579 0.15747793 0.14842062
0.044278014 0.029233547 -0.17687364 -0.15136386 0.09504458 -0.034567658 -0.03480845 0.0034990546
0.008301017 -0.07376796 -0.06387985 0.13287461 -0.012171314 0.1147597 -0.011148014 0.0853032
0.07161378 -0.13385826 -0.17195027 0.1347187 -0.01196091 -0.01575082 -0.11996609 -0.04724485
-0.14447656 0.09737531 0.11107482 0.055429406 0.0415574 0.053495046 0.10391028 0.11555152
0.03666431 0.08444031 0.003374666 -0.051737636 0.15089996 -0.0023376716 -0.16093741 -0.0026325942
-0.030303493 -0.0045047207 -0.14161402 0.09108946 -0.08399293 -0.050562046 0.029815432 0.040575404
0.020653345 0.05249239 0.0049800007 -0.023659784 0.018724157 -0.06610743 0.054359343 -0.08231482
-0.07728215 0.062860765 -0.101388834 0.0652547 -0.045080036 0.009812155 -0.028546782 0.18640445
-0.012749629 -0.12860021 -0.007342852 -0.045727354 0.072344944 -0.048287798 -0.0072681373 -0.12094995
0.119122356 0.03509427 -0.021637814 -0.022618715 -0.0031553304 -0.13849793 0.04851089 0.057680424
0.031607207 0.13697796 -0.1859986 -0.022352614 -0.02287905 -0.09593142 -0.19140783 0.1475064
0.0055139665 -0.13828973 -0.07097998 0.10464717 0.05661877 -0.040569026 -0.1119121 0.12360591
-0.061074782 -0.08320451 -0.14957677 0.038002133 0.12915291 -0.124373354 -0.097080864 -0.028243829
-0.10393828 -0.13655128 0.16244224 0.20892365 -0.10039583 -0.023122864 -0.07264917 0.10175727
-0.1376117 -0.07213296 0.013539227 -0.09840613 -0.14244577 0.17531243 0.040131986 0.043361124
-0.024982288 0.08217954 -0.07132744 -0.124897145 -0.09894241 0.20029882 -0.07452608 -0.08718434
-0.018150577 0.042407036 -0.0041025644 -0.08784108 0.103540696 0.13084778 -0.039741274 0.12687024
-0.14977649 0.07838176 0.124594174 0.08536196 -0.07368062 -0.15984991 -0.13596058 -0.04567521
0.05514527 0.08340167 -0.22207405 0.053770903 0.13259694 0.045548696 0.02440577 -0.06972181
-0.086147435 -0.17768745 -0.11347203 0.04716724 0.10718961 -0.030127501 -0.14918402 -0.07843158
-0.003853178 0.057551876 0.12198635 -0.03211037 -0.10657143 0.104416184 -0.032980993 0.0045034876
00000000: ed8a c73d 7fe5 d7bd 437e 643d 5d16 ccbd
00000010: 92a7 0a3e a8f8 ad3d b773 9dbd 4be9 8b3d
00000020: 5910 e4bd f49a f8bd b934 e93c c0a4 0c3c
00000030: a0ce 88bd 4bb0 833c 7f8a b5bc b54e b43c
00000040: d003 e7bc 4db0 513c f052 073e 4431 d43d
00000050: 0a78 26be 225e 02be 13f0 5f3b 752e 203e
00000060: 2c3e d83d d9e0 8b3a 778d 20be 67bc ff3d
00000070: 3721 9abc 777a febc 667d a9bd 59bd c1bd
00000080: d2fb bb3d 503e 90bc 31a5 323d 73bc 2abe
00000090: 03d1 2b3e 6e51 e63c 661a 133e de87 ff3d
000000a0: 1676 5b3d 4a87 993c 0364 4a3d fb26 80bd
000000b0: 6894 f63d 5491 28be aca4 e53d 7945 ca3d
000000c0: 08bb d7bd a6da 47bd b7aa c7bc 9230 ccbd
000000d0: ce4c 043a 338d 10be 35bb e23c 96d8 223e
000000e0: bfaa df3d ae32 e1bd 36c6 873d 44e6 56bd
000000f0: b6e1 bbbd fdee 38be c3a5 d0bd d198 22be
00000100: e27b b33d 2484 f8bd c335 6bbd 0cfd bd3c
00000110: 9894 203e a869 183e e443 d9bd 7e43 d73d
00000120: cfbf 163e e5fa c83d 9b31 2b3c 1cee 99bd
00000130: bb20 7cbd 7b3b e9bd e13e 1abe f7bc aabc
00000140: cc3e 8f3d b20b 62bd 96cf b8bd ab1e 613d
00000150: a4ef e6bd 0c4d 2ebe e541 213e 93fb 173e
00000160: dd5c 353d 317b ef3c 5d1e 35be 21ff 1abe
00000170: bca6 c23d d196 0dbd 4e93 0ebd 6550 653b
00000180: fd00 083c a813 97bd 70d3 82bd 4810 083e
00000190: 316a 47bc 2207 eb3d 29a6 36bc 72b3 ae3d
000001a0: 3faa 923d 2412 09be bb13 30be b3f3 093e
000001b0: b1f7 43bc dd07 81bc c8b0 f5bd d183 41bd
000001c0: aaf1 13be b56c c73d 327b e33d f209 633d
000001d0: 1838 2a3d 9f1d 5b3d eace d43d 46a6 ec3d
000001e0: 512d 163d 0bef ac3d 8029 5d3b d8ea 53bd
000001f0: 8585 1a3e 9f33 19bb c7cc 24be 9a87 2cbb
00000200: 083f f8bc 569c 93bb 4403 11be 1c8d ba3d
00000210: 7c04 acbd 261a 4fbd 7e3f f43c 6532 263d
00000220: 3431 a93c 4302 573d 462f a33b 2ad2 c1bc
00000230: 6763 993c 5563 87bd e7a7 5e3d ac94 a8bd
00000240: 1b46 9ebd 25bd 803d f3a4 cfbd 42a4 853d
00000250: d8a5 38bd 29c3 203c f1da e9bc cfe0 3e3e
00000260: d2e3 50bc c6af 03be 4f9c f0bb 9b4c 3bbd
00000270: 9629 943d 6dc9 45bd 8e29 eebb 9bb4 f7bd
00000280: 6cf6 f33d 02bf 0f3d c941 b1bc e24a b9bc
00000290: a9c9 4ebb 67d2 0dbe 5bb3 463d 4f42 6c3d
000002a0: 8f76 013d f343 0c3e 6b76 3ebe d41c b7bc
000002b0: d86c bbbc b177 c4bd 6a00 44be eb0b 173e
000002c0: 81ae b43b d39b 0dbe f45d 91bd 4151 d63d
000002d0: 15e9 673d b52b 26bd 2c32 e5bd 1825 fd3d
000002e0: 8d29 7abd 2067 aabd a72a 19be 20a8 1b3d
000002f0: a940 043e 75b7 febd 55d2 c6bd 9a5f e7bc
00000300: 98dd d4bd 19d4 0bbe 4257 263e 15f0 553e
00000310: 549c cdbd 296c bdbc 17c9 94bd 1e66 d03d
00000320: 15ea 0cbe 72ba 93bd a2d3 5d3c 2789 c9bd
00000330: 4edd 11be 1a85 333e 7061 243d 6f9b 313d
00000340: a8a7 ccbc bf4d a83d 1f14 92bd 13ca ffbd
00000350: 51a2 cabd 221b 4d3e 21a1 98bd b48d b2bd
00000360: 85b0 94bc 00b3 2d3d ce6e 86bb 06e6 b3bd
00000370: 250d d43d f6fc 053e bfc7 22bd 46ea 013e
00000380: 025f 19be 9e86 a03d 3b2b ff3d 40d2 ae3d
00000390: dde5 96bd b2af 23be 4039 0bbe ee15 3bbd
000003a0: 02e0 613d 7fce aa3d 6167 63be e13e 5c3d
000003b0: 7ec7 073e 4591 3a3d 9cee c73c 4fca 8ebd
000003c0: 116e b0bd b3f3 35be 0664 e8bd 7032 413d
000003d0: 3a86 db3d f3cd f6bc b2c3 18be bca0 a0bd
000003e0: 9985 7cbb 84bb 6b3d fbd3 f93d 2a86 03bd
000003f0: 1f42 dabd 27d8 d53d 1417 07bd fe91 933b

fc2.bias f4 [16]
-0.24855238 -0.19347578 -0.18253231 -0.09832771 0.12645288 -0.08239474 -0.06663895 -0.11306542
0.053054225 0.17043981 -0.18687496 0.10974519 0.06258909 0.12895505 -0.010491831 0.115640216
00000000: 8484 7ebe 841e 46be c0e9 3abe 0a60 c9bd
00000010: dd7c 013e 93be a8bd 007a 88bd d88e e7bd
00000020: 634f 593d c687 2e3e 265c 3fbe 16c2 e03d
00000030: b52e 803d cb0c 043e eee5 2bbc c7d4 ec3d

fc31.weight f4 [3, 16]
0.1790217 0.18244097 0.16996971 -0.09967225 -0.07472381 -0.052896503 0.00635357 -0.025469197
0.086914286 -0.049191933 0.20698112 0.04255152 0.085205555 0.055653833 -0.06347329 -0.007030474
-0.1068372 -0.08402509 -0.14452809 -0.19066335 0.025032125 0.15418613 0.05581624 -0.0797141
-0.011242249 0.07192368 -0.17035346 0.19040951 -0.1914387 0.04585644 -0.1321913 0.008157981
0.04581648 0.2314315 -0.05966984 -0.09080141 -0.0608688 0.0040447647 -0.00931668 0.06459769
-0.087529026 0.06392517 0.1928395 -0.103569865 -0.0037833152 -0.030700745 -0.20667487 0.10176839
00000000: 7751 373e ced1 3a3e 8a0c 2e3e f720 ccbd
00000010: cc08 99bd 01aa 58bd 9c31 d03b c7a4 d0bc
00000020: 1e00 b23d 7b7d 49bd dcf2 533e 814a 2e3d
00000030: 4080 ae3d 46f5 633d 49fe 81bd e45f e6bb
00000040: 76cd dabd 5915 acbd 2cff 13be 413d 43be
00000050: 2c10 cd3c f8e2 1d3e 929f 643d 2541 a3bd
00000060: 6931 38bc b94c 933d 2371 2ebe b6fa 423e
00000070: 8208 44be f6d3 3b3d 285d 07be 0da9 053c
00000080: 10aa 3b3d 61fc 6c3e 5d68 74bd 17f6 b9bd
00000090: 9051 79bd f289 843b fda4 18bc cb4b 843d
000000a0: 6b42 b3bd 33eb 823d b877 453e 701c d4bd
000000b0: 7ff1 77bb 2180 fbbc 94a2 53be f26b d03d

fc31.bias f4 [3]
-0.0018963424 -0.06797273 0.015847199
00000000: b18e f8ba 4935 8bbd fcd1 813c

fc32.weight f4 [3, 16]
0.13734156 0.1008518 -0.13309756 -0.15321544 -0.08985026 -0.007218828 0.01869131 0.016615601
-0.028490834 0.035063554 -0.038318332 -0.02159917 -0.17738375 0.018925704 -0.121537745 0.088729136
0.113532744 0.16761698 0.18021035 -0.063489676 -0.047342043 -0.15413302 0.0348493 -0.019634977
-0.04046859 0.04014378 -0.20083825 0.033865295 0.11121153 0.010740339 -0.18811814 0.0683227
0.08033417 -0.058463782 0.10537355 0.03531465 0.012225875 0.0066330465 -9.877301e-05 -0.018641846
-0.02017551 -0.009140661 0.21727668 -0.025229525 0.059684016 -0.03335934 0.2111212 0.005509476
00000000: 44a3 0c3e 638b ce3d ba4a 08be 82e4 1cbe
00000010: 6a03 b8bd eb8b ecbb 851e 993c 711d 883c
00000020: 9c65 e9bc cd9e 0f3d aff3 1cbd bef0 b0bc
00000030: 16a4 35be 140a 9b3c c8e8 f8bd 9fb7 b53d
00000040: db83 e83d c9a3 2b3e 1089 383e e006 82bd
00000050: bbe9 41bd 0cd5 1dbe 24be 0e3d 88d9 a0bc
00000060: 64c2 25bd ce6d 243d 8ba8 4dbe 56b6 0a3d
00000070: dfc2 e33d 3ff8 2f3c 0ba2 40be c6ec 8b3d
00000080: 3e86 a43d b877 6fbd 16ce d73d 18a6 103d
00000090: 094f 483c 075a d93b 5b24 cfb8 c9b6 98bc
000000a0: 1c47 a5bc b6c2 15bc c77d 5e3e 26ae cebc
000000b0: 3a77 743d cea3 08bd 2830 583e d688 b43b

fc32.bias f4 [3]
-0.0016914207 -0.016355505 0.0118171545
00000000: a9b2 ddba fbfb 85bc bd9c 413c

fc4.weight f4 [16, 3]
0.7251613 -0.48221028 0.30898786 -0.29521137 -0.5375651 -0.30124402 0.17480743 -0.49605083
0.19539754 -0.36852115 -0.74429405 -0.18132079 0.50018585 -0.2049273 -0.007966682 0.24082331
0.55629563 -0.30302298 -0.14207242 0.44372183 -0.35784826 -0.69841504 0.26665527 -0.045694955
0.40155488 -0.07998983 -0.29548678 -0.7745859 0.31316808 -0.3919541 -0.69536924 0.5712474
0.5998122 -0.45529044 0.5808198 0.0097945295 0.108873956 -0.69832474 0.29249725 -0.32332772
0.061727222 -0.57992697 0.32831708 0.4307349 0.31005588 0.7605654 0.5466792 -0.06486859
00000000: 2ca4 393f 44e4 f6be a833 9e3e f225 97be
00000010: de9d 09bf a83c 9abe b800 333e 60fa fdbe
00000020: 4b16 483e ceae bcbe 0e8a 3ebf 28ac 39be
00000030: 2e0c 003f 76d8 51be b086 02bc 639a 763e
00000040: 6469 0e3f d425 9bbe 6f7b 11be 822f e33e
00000050: e337 b7be 54cb 32bf 0a87 883e a22a 3bbd
00000060: 9a98 cd3e b5d1 a3bd 0b4a 97be 434b 46bf
00000070: 9157 a03e 35ae c8be b803 32bf 453d 123f
00000080: 4b8d 193f d41b e9be 9bb0 143f 3c79 203c
00000090: 4ff9 de3d 69c5 32bf 33c2 953e 368b a5be
000000a0: afd5 7c3d 1876 14bf 2d19 a83e 4989 dc3e
000000b0: a5bf 9e3e 6ab4 423f 2bf3 0b3f d3d9 84bd

fc4.bias f4 [16]
0.73734665 -0.036062215 0.6486628 0.38453183 0.6143985 0.22962926 0.56075966 0.8096984
-0.13587593 -0.17494182 0.24154522 0.569556 0.5815105 0.5256869 0.864501 0.17019826
00000000: c0c2 3c3f f9b5 13bd c40e 263f 5be1 c43e
00000010: 3849 1d3f ef23 6b3e f28d 0f3f 6548 4f3f
00000020: 0f23 0bbe f323 33be a157 773e 6cce 113f
00000030: dfdd 143f 6b93 063f f04f 5d3f 7448 2e3e

fc5.weight f4 [32, 16]
0.25439805 0.25247884 0.13027371 0.045912527 0.20419927 0.23258916 0.40868 0.568061
0.060508512 -0.00025808724 0.15062627 0.35512617 0.31763303 0.31137234 0.19927625 0.49870422
0.04692903 0.16697076 -0.25442803 -0.09399383 -0.02720184 -0.082588196 -0.27550447 0.14504755
-0.17492068 -0.1676386 -0.17000583 0.14093763 -0.1035151 0.0024877535 0.16637087 0.041206967
0.35440934 0.2656543 0.4106202 0.14493482 0.40185428 0.330799 0.40210843 0.44276264
0.024746003 0.3593514 0.22545607 0.45771563 0.44652545 0.013071813 0.2502685 0.17983766
0.16880135 -0.010350374 -0.0017575613 0.3649774 0.26374802 -0.012261171 0.12116663 0.22937655
0.28829375 0.41179302 -0.007703506 0.4842865 0.0076727457 0.10433653 0.2537397 0.11277971
0.045327395 0.0029619634 -0.17491147 0.15530133 -0.20389503 0.19236174 0.16605455 0.010016201
-0.10493109 -0.110914625 -0.090732515 -0.005642687 -0.053911656 -0.17443344 -0.21961583 -0.023402117
0.39384753 0.30981183 0.5379671 0.35437334 0.26916972 0.081113175 0.13941939 0.4946611
-0.04304092 0.002826808 0.4918346 0.4295638 0.47271684 0.4152858 0.47194368 0.33022255
0.16630346 0.15615094 -0.14234069 -0.08655432 -0.055654645 -0.108426064 0.02662903 -0.08934522
-0.16021135 -0.10576898 -0.22753212 -0.13639253 -0.1661748 -0.2133984 -0.2182197 0.12607083
-0.27412003 0.1603227 -0.18030646 -0.11762732 -0.1125176 -0.19240525 0.17945495 -0.15624484
-0.017894484 -0.14620332 -0.056226257 0.02129061 0.17993526 -0.09133121 -0.17871805 0.1963851
0.47052804 0.27758 0.528256 0.49553406 0.13276997 0.036948413 0.12052916 0.58735603
0.22507565 0.40264758 0.4205707 0.20312211 0.5726845 0.4201895 0.46265268 0.54254204
-0.236786 0.20356654 -0.095075615 -0.0566503 -0.090731435 -0.23547095 -0.10659024 -0.14603803
-0.018544346 0.04365325 -0.21673658 0.09900257 0.12774622 -0.21402298 0.007863402 0.08569938
0.2963694 -0.11762685 0.31247002 0.18070032 0.3360268 0.07238782 0.037659924 -0.03869847
0.043676164 0.09666815 0.46889699 0.23191158 0.20406903 0.01961512 0.34901968 0.041448876
0.19410804 0.06669723 0.3858941 0.2674134 0.50602657 0.17023963 0.42504528 0.1960584
0.3056039 0.13385324 0.5100799 0.17068659 0.31117728 0.08624127 0.41476762 0.53445864
0.28589454 0.030756347 0.2041138 0.22400798 0.21822545 0.30724952 0.31184238 0.48709285
0.27367824 0.25411636 0.5243298 0.24784975 0.4337236 0.11697232 0.16874108 0.3909199
0.16403796 0.21436787 0.25118732 0.06564682 0.15580446 0.056976084 0.30746558 0.42336223
0.06257368 0.15131181 0.28071204 0.6003642 0.15550528 0.45819148 0.17992052 0.39676458
-0.015828785 -0.14789072 0.004685909 -0.07750688 -0.22157007 0.087254785 -0.09569044 0.16704217
0.22097829 -0.1964671 -0.103240564 0.074970715 -0.2151721 -0.05464812 0.03535493 -0.083742805
0.55302316 0.023553226 0.37280065 0.26901266 0.47327203 0.25302008 0.18574521 0.60025203
0.2971979 0.007773875 0.32357848 0.32768953 0.5172991 0.49374318 0.28896913 0.30102664
00000000: 7640 823e e844 813e 7966 053e c60e 3c3d
00000010: 9d19 513e da2b 6e3e 813e d13e 726c 113f
00000020: c6d7 773d e24f 87b9 c63d 1a3e 19d3 b53e
00000030: cca0 a23e 326c 9f3e 130f 4c3e 2956 ff3e
00000040: a838 403d 62fa 2a3e 6444 82be d67f c0bd
00000050: 65d6 debc 0024 a9bd ec0e 8dbe 5887 143e
00000060: 681e 33be 74a9 2bbe 0216 2ebe f451 103e
00000070: baff d3bd 9409 233b 205d 2a3e a3c8 283d
00000080: 2475 b53e d703 883e d03c d23e cb69 143e
00000090: d8bf cd3e 7d5e a93e 28e1 cd3e c9b1 e23e
000000a0: 21b8 ca3c e8fc b73e f5dd 663e b459 ea3e
000000b0: fc9e e43e 282b 563c 3123 803e 5d27 383e
000000c0: 43da 2c3e 9d94 29bc f95d e6ba 51de ba3e
000000d0: fb09 873e 14e3 48bc 3626 f83d b0e1 6a3e
000000e0: 3d9b 933e 89d6 d23e b16d fcbb 66f4 f73e
000000f0: a86b fb3b 64ae d53d 2cea 813e 0cf9 e63d
00000100: 38a9 393d 801d 423b fe1b 33be 5007 1f3e
00000110: dcc9 50be 7afa 443e 340a 2a3e fe1a 243c
00000120: 1ce6 d6bd 3527 e3bd f8d1 b9bd 4ae6 b8bb
00000130: 78d2 5cbd ae9e 32be f9e2 60be ccb5 bfbc
00000140: 62a6 c93e a89f 9e3e 36b8 093f 6c70 b53e
00000150: 9dd0 893e aa1e a63d f5c3 0e3e 3844 fd3e
00000160: ad4b 30bd f841 393b bfd1 fb3e c9ef db3e
00000170: f107 f23e 57a0 d43e 9aa2 f13e ee12 a93e
00000180: 744b 2a3e 08e6 1f3e c2c1 11be 6443 b1bd
00000190: 20f6 63bd 7c0e debd 2025 da3c a0fa b6bd
000001a0: 720e 24be 689d d8bd 2efe 68be 7caa 0bbe
000001b0: ba29 2abe 1c85 5abe fc74 5fbe b618 013e
000001c0: 7659 8cbe a22b 243e 42a2 38be 98e6 f0bd
000001d0: a16f e6bd e205 45be 0ac3 373e a6fe 1fbe
000001e0: 7497 92bc 53b6 15be 814d 66bd a569 ae3c
000001f0: f340 383e dc0b bbbd dd01 37be 2d19 493e
00000200: 0de9 f03e f71e 8e3e c93b 073f a4b6 fd3e
00000210: daf4 073e 3857 173d fed7 f63d f75c 163f
00000220: 3b7a 663e d327 ce3e 0b55 d73e 3eff 4f3e
00000230: 749b 123f 1423 d73e d0e0 ec3e 09e4 0a3f
00000240: 0778 72be bf73 503e 01b7 c2bd 250a 68bd
00000250: 67d1 b9bd 4c1f 71be fc4b dabd fe8a 15be
00000260: 50ea 97bc c0cd 323d 32f0 5dbe dcc1 ca3d
00000270: e8cf 023e d728 5bbe 80d5 003c 2883 af3d
00000280: bbbd 973e 59e6 f0bd 12fc 9f3e 8109 393e
00000290: b40b ac3e 1140 943d 4b41 1a3d 4982 1ebd
000002a0: c7e5 323d f3f9 c53d 4413 f03e 3b7a 6d3e
000002b0: 79f7 503e e3af a03c b5b2 b23e 4cc6 293d
000002c0: 42c4 463e 8f98 883d e993 c53e 69ea 883e
000002d0: f58a 013f 4c53 2e3e 899f d93e 89c3 483e
000002e0: 1d78 9c3e d310 093e 9994 023f 77c8 2e3e
000002f0: a152 9f3e 439f b03d 6c5c d43e 48d2 083f
00000300: c560 923e bcf4 fb3c 3503 513e 5962 653e
00000310: 7e76 5f3e cf4f 9d3e cea9 9f3e 3c64 f93e
00000320: 8e1f 8c3e 8a1b 823e 7a3a 063f 53cc 7d3e
00000330: 0511 de3e 2f8f ef3d 76ca 2c3e a726 c83e
00000340: 91f9 273e 4083 5b3e a09b 803e d771 863d
00000350: 348b 1f3e c15f 693d 216c 9d3e efc2 d83e
00000360: a126 803d 7cf1 1a3e 7db9 8f3e 78b1 193f
00000370: c73c 1f3e 1398 ea3e 163d 383e ba24 cb3e
00000380: 5eab 81bc aa70 17be 418c 993b edbb 9ebd
00000390: 44e3 62be a3b2 b23d 59f9 c3bd 1a0d 2b3e
000003a0: 2248 623e ac2e 49be ca6f d3bd 3f8a 993d
000003b0: 1356 5cbe b5d6 5fbd 55d0 103d 5981 abbd
000003c0: ed92 0d3f b2f2 c03c badf be3e 07bc 893e
000003d0: b650 f23e d98b 813e fe33 3e3e 1eaa 193f
000003e0: 532a 983e fdbb fe3b 14ac a53e ecc6 a73e
000003f0: b76d 043f e8cb fc3e c3f3 933e 2a20 9a3e

fc5.bias f4 [32]
0.25777885 -0.21683693 0.2594398 0.0927955 -0.17226222 0.26630864 -0.19874728 0.058872048
0.5077917 0.07136469 0.36290845 0.53364 0.43706602 0.40282795 -0.14520034 0.19266318
0.0735307 0.15656073 0.36920515 0.2073391 0.5300176 0.57837784 0.026500545 0.37042165
0.452135 0.057888657 0.5403677 0.5695853 0.5727003 0.14343876 0.05289186 -0.18086135
00000000: 97fb 833e 800a 5ebe 4bd5 843e 910b be3d
00000010: 8265 30be 9b59 883e 6884 4bbe d123 713d
00000020: a3fe 013f a727 923d 23cf b93e a29c 083f
00000030: 1ec7 df3e 773f ce3e 66af 14be 7f49 453e
00000040: 4397 963d 7551 203e 7508 bd3e b350 543e
00000050: 3caf 073f 9210 143f ac17 d93c e8a7 bd3e
00000060: 3d7e e73e a81c 6d3d 8a55 0a3f 58d0 113f
00000070: 7d9c 123f 9ce1 123e 23a5 583d b833 39be

fc6.weight f4 [6, 32]
-0.38379762 0.002095104 -0.45596716 -0.250438 0.04679873 -0.2843518 -0.064360574 0.09215239
-0.3699835 -0.09989614 -0.17471808 -0.34740037 -0.43013188 -0.12564404 -0.1191194 -0.44953334
-0.48813298 -0.27607992 -0.26642695 -0.487417 -0.24375603 -0.16345483 -0.18277703 -0.34203523
-0.261737 -0.23471847 -0.46291092 -0.34071472 -0.30673367 -0.28429487 -0.155268 0.17132412
-0.2396418 0.019401232 -0.4991178 -0.12972653 0.06556404 -0.23132215 -0.12856746 -0.030164605
-0.15448482 0.116796724 -0.34495354 -0.23468034 -0.37494966 -0.3017189 -0.15696178 -0.27040026
-0.49389058 -0.35787567 -0.28355077 -0.46503925 -0.16271591 -0.35088998 0.036118835 -0.4427858
-0.3248692 -0.3922342 -0.47933415 -0.35318395 -0.36643195 -0.3918904 -0.26575342 0.045093045
-0.44375545 -0.027311772 -0.38614362 -0.33791313 -0.14317772 -0.33918872 0.0056138486 -0.023893282
-0.59279287 -0.13171773 -0.36021373 -0.51408666 -0.31974387 -0.4638986 -0.0050505297 -0.5135127
-0.41392434 -0.49948275 -0.16796535 -0.46197686 -0.3079975 -0.47470665 0.093329534 -0.27796516
-0.32139876 -0.22288318 -0.4498168 -0.5242278 -0.6162084 -0.3690922 -0.31289992 0.12232418
-0.58161175 -0.04465976 -0.48153242 -0.4053749 0.11932908 -0.49939996 -0.13276243 0.10212704
-0.42381737 0.15873483 -0.14456762 -0.60049844 -0.47038174 -0.3405482 0.07642339 -0.3839234
-0.3789006 -0.31350532 -0.19766791 -0.5420733 -0.48887366 -0.6003687 -0.10209626 -0.39223775
-0.43546882 -0.09847911 -0.2976046 -0.50135475 -0.5843127 -0.38910896 -0.1232348 0.022867471
-0.55590695 -0.0006066282 -0.62032914 -0.4586215 0.02604252 -0.36792892 -0.035078123 0.102226876
-0.5459546 0.15930738 -0.18757607 -0.5245116 -0.5789636 -0.27184635 0.044813782 -0.5134407
-0.3759158 -0.09463706 -0.020685753 -0.6141408 -0.44419044 -0.62443584 0.13178031 -0.60645044
-0.5380408 -0.06281593 -0.35176206 -0.45241717 -0.58690226 -0.6538508 -0.17966883 -0.11178973
-0.28612325 0.089300476 -0.3763347 -0.3988127 -0.16321611 -0.32889608 0.10368918 -0.06255776
-0.41460288 0.12226986 -0.25086737 -0.5195291 -0.60325396 -0.52861214 -0.0062367287 -0.4462244
-0.49473742 -0.24246936 -0.050025523 -0.5654783 -0.5080775 -0.42624456 -0.03894193 -0.5915286
-0.37800777 -0.078955516 -0.43299124 -0.49408993 -0.55286765 -0.58497363 -0.17286612 0.09267776
00000000: 1f81 c4be 034e 093b 8774 e9be 6939 80be
00000010: 06b0 3f3d 8f96 91be 7acf 83bd 64ba bc3d
00000020: 7a6e bdbe 5996 ccbd 4ce9 32be 76de b1be
00000030: 3f3a dcbe d5a8 00be dff4 f3bd 3c29 e6be
00000040: 91ec f9be 595a 8dbe 1d69 88be b98e f9be
00000050: 2e9b 79be b460 27be e729 3bbe 3e1f afbe
00000060: 6402 86be 0a5a 70be a902 edbe 2972 aebe
00000070: 320c 9dbe 198f 91be 93fe 1ebe 976f 2f3e
00000080: a964 75be 55ef 9e3c 5e8c ffbe 08d7 04be
00000090: 7046 863d b7df 6cbe 30a7 03be c31b f7bc
000000a0: 4531 1ebe 1f33 ef3d c09d b0be 0b50 70be
000000b0: 67f9 bfbe e67a 9abe 97ba 20be e771 8abe
000000c0: 3adf fcbe 7b3b b7be 912d 91be a019 eebe
000000d0: 009f 26be daa7 b3be 58f1 133d d2b4 e2be
000000e0: 4155 a6be ecd2 c8be 496b f5be 87d4 b4be
000000f0: f89c bbbe dca5 c8be d510 88be 7cb3 383d
00000100: ea33 e3be f0bc dfbc 9eb4 c5be f302 adbe
00000110: 2e9d 12be 25aa adbe 60f4 b73b d8bb c3bc
00000120: 46c1 17bf 03e1 06be ef6d b8be 2f9b 03bf
00000130: 78b5 a3be 1e84 edbe ea7e a5bb 9175 03bf
00000140: e4ed d3be 34bc ffbe 1cff 2bbe 3b88 ecbe
00000150: d9b1 9dbe c00c f3be 8e23 bf3d 7351 8ebe
00000160: 618e a4be 7d3b 64be 634e e6be cb33 06bf
00000170: d5bf 1dbf a7f9 bcbe 6b34 a0be 1a85 fa3d
00000180: 82e4 14bf 27ed 36bd 6b8b f6be 4d8d cfbe
00000190: ce62 f43d 5ab1 ffbe e0f2 07be fb27 d13d
000001a0: 97fe d8be 628b 223e 8909 14be 44ba 19bf
000001b0: e0d5 f0be 555c aebe de83 9c3d 9c91 c4be
000001c0: 42ff c1be c583 a0be 7569 4abe 51c5 0abf
000001d0: a64d fabe c3b1 19bf d817 d1bd 63d3 c8be
000001e0: c5f5 debe 6aaf c9bd a15f 98be c958 00bf
000001f0: 8495 15bf 4a39 c7be 8762 fcbd 9054 bb3c
00000200: eb4f 0ebf 2106 1fba e4cd 1ebf 70d0 eabe
00000210: 1f57 d53c 2e61 bcbe 14ae 0fbd 535c d13d
00000220: aec3 0bbf 7921 233e f113 40be 6446 06bf
00000230: f536 14bf 722f 8bbe a88e 373d da70 03bf
00000240: 0978 c0be 13d1 c1bd 2b75 a9bc 5538 1dbf
00000250: ee6c e3be 07db 1fbf 6bf1 063e 5640 1bbf
00000260: 0bbd 09bf a3a5 80bd 281a b4be 39a3 e7be
00000270: 3a3f 16bf c462 27bf 1bfb 37be 04f2 e4bd
00000280: bf7e 92be 2be3 b63d f1ae c0be 2e31 ccbe
00000290: 2022 27be 1165 a8be fe5a d43d 481e 80bd
000002a0: d446 d4be 9f68 fa3d b071 80be dcff 04bf
000002b0: da6e 1abf 2053 07bf 795d ccbb 8677 e4be
000002c0: 394e fdbe e349 78be 90e7 4cbd 30c3 10bf
000002d0: 5e11 02bf ba3c dabe 9381 1fbd 6b6e 17bf
000002e0: 3c8a c1be 6eb3 a1bd 07b1 ddbe 5bf9 fcbe
000002f0: bc88 0dbf d5c0 15bf d103 31be d6cd bd3d

fc6.bias f4 [6]
-0.2623776 -0.19603464 -0.4601642 -0.4495628 -0.30962983 -0.21287958
00000000: 5b56 86be 4ebd 48be a49a ebbe 182d e6be
00000010: cd87 9ebe 1bfd 59be

fc7.weight f4 [32, 3]
-0.031756077 0.06483528 0.07212589 0.36832407 0.3549143 -0.30717474 0.21026851 0.56715274
-0.62496156 -0.40899953 -0.45817277 -0.07659105 -0.5800468 0.27874088 0.46442235 -0.3521189
-0.35300893 0.13547494 -0.52605647 0.16167818 -0.09944749 0.47043777 0.15401024 -0.39545113
0.29997572 0.36759636 -0.21854931 -0.30903015 0.028875314 0.07982285 0.18750396 -0.0723866
-0.19760785 0.4086166 0.25087392 -0.27544504 0.37895286 0.09739612 0.25469795 -0.6131959
0.21035278 0.5350709 0.23073985 0.2719211 0.30267996 0.16992961 0.087937325 -0.20062123
-0.26170006 0.38553154 0.24166301 -0.109972835 -0.44749257 -0.37143198 0.006536895 0.2698964
0.25422272 -0.36770076 -0.30888978 0.2939298 -0.16185732 -0.37780464 0.13660532 -0.18016703
0.16045047 0.01519237 0.35108837 0.5566979 0.10811471 0.41623485 -0.090132594 0.20994473
0.2447512 -0.5127394 -0.18479319 -0.2985816 -0.050577797 -0.16195548 -0.12452815 -0.14578728
-0.26427323 0.40766308 -0.07546401 0.17488405 0.1081429 -0.10435798 -0.101852246 -0.20977364
-0.08684443 0.3085825 -0.15186813 -0.316962 -0.017613504 0.6283123 0.45294848 -0.246447
00000000: a912 02bd 5cc8 843d bdb6 933d f994 bc3e
00000010: 54b7 b53e 0246 9dbe a150 573e ec30 113f
00000020: 7bfd 1fbf 6368 d1be 9f95 eabe c5db 9cbd
00000030: f27d 14bf 20b7 8e3e c4c8 ed3e ee48 b4be
00000040: 96bd b4be f1b9 0a3e a3ab 06bf f78e 253e
00000050: 20ab cbbd 38dd f03e dcb4 1d3e 9278 cabe
00000060: 6b96 993e 9735 bc3e 64cb 5fbe 3339 9ebe
00000070: ec8b ec3c 2a7a a33d 0a01 403e 6d3f 94bd
00000080: b659 4abe 3236 d13e 8c72 803e 2207 8dbe
00000090: 1c06 c23e 9e77 c73d c567 823e 68fa 1cbf
000000a0: b866 573e 68fa 083f 1147 6c3e 3e39 8b3e
000000b0: def8 9a3e 0702 2e3e 7c18 b43d a76f 4dbe
000000c0: 8dfd 85be 6464 c53e 8276 773e 7039 e1bd
000000d0: bf1d e5be 552c bebe 7333 d63b dc2f 8a3e
000000e0: 7b29 823e 4643 bcbe cd26 9ebe f77d 963e
000000f0: edbd 25be 9c6f c1be 44e2 0b3e b57d 38be
00000100: 214d 243e 6be9 783c dbc1 b33e c183 0e3f
00000110: 3f6b dd3d bc1c d53e 7097 b8bd c0fb 563e
00000120: 0fa0 7a3e e442 03bf 6d3a 3dbe b0df 98be
00000130: aa2a 4fbd a8d7 25be 9d08 ffbd 4349 15be
00000140: d24e 87be 37b9 d03e e08c 9abd ce14 333e
00000150: 067a dd3d a3b9 d5bd e997 d0bd e7ce 56be
00000160: 7edb b1bd 87fe 9d3e 5283 1bbe d848 a2be
00000170: 324a 90bc 13d9 203f dde8 e73e 9a5c 7cbe

fc7.bias f4 [32]
-0.2456732 -0.017536907 -0.4122976 0.32511193 -0.29253483 0.10268071 -0.30095294 -0.15102716
0.013751963 -0.35373545 0.17322278 0.11522544 -0.38167292 -0.25361088 0.15877849 -0.2895288
0.39750934 -0.55190015 0.10304371 -0.010982387 -0.07228896 -0.054637946 -0.069383815 -0.52620727
-0.4396447 -0.45218945 -0.1941139 0.03134173 0.015196121 0.06614293 -0.59478146 0.16214341
00000000: c191 7bbe 8fa9 8fbc ac18 d3be 1275 a63e
00000010: 20c7 95be 444a d23d 8116 9abe dda6 1abe
00000020: ea4f 613c d01c b5be 5061 313e 51fb eb3d
00000030: a26a c3be 49d9 81be d496 223e 1e3d 94be
00000040: 5886 cb3e 5449 0dbf 9508 d33d 78ef 33bc
00000050: 3c0c 94bd 0acc 5fbd 1a19 8ebd 85b5 06bf
00000060: 1c19 e1be 6085 e7be cbc5 46be 3060 003d
00000070: 27f9 783c f275 873d 9943 18bf ec08 263e

fc8.weight f4 [16, 32]
-0.060433656 0.06485056 0.043572787 0.011136278 -0.10567613 0.03701672 0.113120854 -0.06787799
-0.08106176 0.09959992 0.029666321 0.009241331 -0.2290043 0.014623019 0.07783872 0.061812982
-0.11844105 -0.0048815543 0.12294862 -0.08127842 -0.18344669 -0.09103881 0.08509945 0.05357151
0.06664841 -0.0902811 -0.120859765 -0.017263968 0.06773193 0.059912752 0.057201233 -0.11055508
0.054493617 -0.06359904 -0.0072455243 0.060779873 -0.025890863 -0.0138746295 0.028622398 -0.045039408
0.08218985 0.10723167 0.05575194 0.12564704 -0.004165014 -0.0753489 0.048157476 0.0032560192
-0.057267457 0.046174407 -0.009866311 0.015306878 -0.10463011 0.17209177 -0.0063490206 -0.14227225
-0.1446965 -0.14350483 -0.110114604 0.08122849 0.07798676 0.11217509 0.05818138 -0.12231738
-0.0006678884 0.04696281 -0.0063322373 -0.038239095 -0.11574422 -0.08703155 0.092921324 0.013897303
-0.12272909 -0.11139632 -0.17736574 -0.04914425 -0.07595605 -0.014737222 -0.03967055 0.099590726
-0.18767269 -0.0635041 -0.044480156 0.03539556 -0.13511893 -0.0719061 0.13969623 0.06701756
-0.16906476 0.031541016 -0.027137818 0.1057742 -0.18697105 -0.2014226 0.14013778 -0.072723955
-0.13437617 0.024350034 -0.12163981 -0.10440156 0.14563121 0.071049854 -0.08987101 -0.09686337
-0.040266782 0.045182697 -0.03676826 -0.012321367 0.08603528 -0.13205606 0.0112549905 0.10076995
0.028524319 0.05305975 -0.06305618 -0.017121166 -0.039952394 -0.053848702 -0.17056614 -0.039592586
0.045843106 0.053952232 0.08878234 -0.1281271 -0.122326866 -0.099916786 -0.024074947 -0.09240567
-0.07642762 -0.18752146 -0.18248847 -0.10831139 0.08453573 -0.19038439 0.070864886 -0.19143999
-0.23699802 0.07743206 0.043517947 -0.039202925 0.14866073 0.013519862 -0.11894471 0.11720305
-0.074845135 0.013320925 -0.16982634 -0.13046078 0.009759176 0.039960667 -0.14284377 0.031181319
0.069258645 -0.034663267 -0.09117685 -0.030684661 -0.025992876 -0.14600354 0.13140586 -0.09816198
0.04294795 -0.03927557 -0.012206905 0.06783696 -0.087166324 -0.010692739 -0.09466514 -0.15947771
0.051553678 -0.10216503 0.07788782 0.03442402 0.018227164 -0.07599525 -0.14309953 -0.1522379
0.08265252 0.0065414542 0.07288401 -0.12075769 -0.04266449 0.11160225 -0.061744787 -0.055802286
-0.052948434 0.13243473 -0.06791148 0.06741056 0.11661598 0.19380136 -0.10254026 0.05706796
-0.10605377 -0.06241907 0.08496258 -0.13475454 0.07450295 0.15066546 -0.105565995 0.15976904
-0.07551726 -0.071282424 -0.11778826 -0.00019792249 0.13458975 -0.029255323 -0.14733809 0.06491997
-0.10955459 0.07124594 0.056102425 0.097795114 0.14008598 0.055755287 -0.04061559 -0.016474724
0.16817698 0.054090794 -0.15897225 0.06348377 -0.07885057 -0.12941897 -0.12274329 -0.11795657
-0.0619774 -0.051911242 0.1283091 0.049139634 -0.1382686 0.05603817 -0.047967017 -0.06710456
-0.00010960586 -0.018722657 0.07871535 -0.07937391 0.10722063 -0.1777645 0.08327373 0.119974025
-0.08987829 -0.06629926 0.01955035 0.15397581 -0.23562685 0.06936733 0.020257805 0.04419002
0.094089866 -0.056174934 0.023649374 -0.0005427788 -0.028252842 -0.15132234 -0.039703306 -0.14777067
00000000: 4889 77bd 5fd0 843d 6179 323d ef74 363c
00000010: ba6c d8bd d89e 173d e8ab e73d 9e03 8bbd
00000020: b503 a6bd 0bfb cb3d c906 f33c f468 173c
00000030: 1a80 6abe 6395 6f3c e869 9f3d 9c2f 7d3d
00000040: 3991 f2bd 72f5 9fbb 7ccc fb3d 4d75 a6bd
00000050: 73d9 3bbe 8e72 babd 9f48 ae3d cd6d 5b3d
00000060: f67e 883d 4ce5 b8bd 5385 f7bd 2a6d 8dbc
00000070: 0ab7 8a3d 1367 753d d74b 6a3d b46a e2bd
00000080: b334 5f3d 3740 82bd dd6b edbb 51f4 783d
00000090: 1319 d4bc 6a52 63bc 8579 ea3c 3e7b 38bd
000000a0: 2753 a83d 479c db3d 255c 643d 9ea9 003e
000000b0: ab7a 88bb 8650 9abd c640 453d f062 553b
000000c0: 4891 6abd 6021 3d3d 4fa6 21bc b3c9 7a3c
000000d0: 5048 d6bd d338 303e 720b d0bb d1af 11be
000000e0: 522b 14be eef2 12be c483 e1bd 1f5b a63d
000000f0: 86b7 9f3d 0ebc e53d 994f 6e3d 8981 fabd
00000100: 3b15 2fba 135c 403d a87e cfbb 99a0 1cbd
00000110: 4e0b edbd 993d b2bd 894d be3d 83b1 633c
00000120: 6459 fbbd c123 e4bd 5d9f 35be 7b4b 49bd
00000130: d88e 9bbd 6474 71bc 967d 22bd 39f6 cb3d
00000140: 452d 40be 700e 82bd d330 36bd effa 103d
00000150: 9e5c 0abe 8143 93bd 870c 0f3e 8140 893d
00000160: 501f 2dbe 2731 013d 2150 debc 25a0 d83d
00000170: 5775 3fbe ba41 4ebe 4780 0f3e 4cf0 94bd
00000180: e899 09be b979 c73c 4b1e f9bd 7cd0 d5bd
00000190: 5920 153e 9682 913d 4b0e b8bd 4d60 c6bd
000001a0: c8ee 24bd 7e11 393d 519a 16bd 8fdf 49bc
000001b0: 4433 b03d b439 07be da66 383c 7a60 ce3d
000001c0: d5ab e93c 2e55 593d 9923 81bd b041 8cbc
000001d0: 1fa5 23bd 7590 5cbd e4a8 2ebe d62b 22bd
000001e0: fbc5 3b3d 04fd 5c3d 84d3 b53d c033 03be
000001f0: 8286 fabd 2ca1 ccbd d338 c5bc 2f3f bdbd
00000200: 1686 9cbd a005 40be 42de 3abe 5dd2 ddbd
00000210: 1221 ad3d 20f4 42be 9c21 913d d808 44be
00000220: 9caf 72be b394 9e3d e03f 323d 3f93 20bd
00000230: 853a 183e 6982 5d3c 4999 f3bd 2708 f03d
00000240: 6848 99bd 0240 5a3c f5e6 2dbe 8397 05be
00000250: f3e4 1f3c ccad 233d a345 12be f76f ff3c
00000260: 7ad7 8d3d 12fb 0dbd eeba babd 665e fbbc
00000270: 03ef d4bc f481 15be 428f 063e 2609 c9bd
00000280: 31ea 2f3d 6cdf 20bd 78ff 47bc 1bee 8a3d
00000290: 4284 b2bd 9930 2fbc ccdf c1bd 204e 23be
000002a0: f329 533d e63b d1bd a683 9f3d 3400 0d3d
000002b0: 2251 953c 66a3 9bbd af88 12be 41e4 1bbe
000002c0: b945 a93d b259 d63b 3644 953d cf4f f7bd
000002d0: f6c0 2ebd b88f e43d 1ae8 7cbd f090 64bd
000002e0: 75e0 58bd f89c 073e 2d15 8bbd 8c0e 8a3d
000002f0: 5cd4 ee3d dd73 463e a100 d2bd 18c0 693d
00000300: b832 d9bd 24ab 7fbd dc00 ae3d 18fd 09be
00000310: 0195 983d 0c48 1a3e fc32 d8bd 7f9a 233e
00000320: cba8 9abd 85fc 91bd f93a f1bd 6a89 4fb9
00000330: e5d1 093e dca8 efbc ccdf 16be c3f4 843d
00000340: 285e e0bd 64e9 913d a8cb 653d ce48 c83d
00000350: b372 0f3e a85f 643d 885c 26bd 00f6 86bc
00000360: 9636 2c3e 4f8e 5d3d 9fc9 22be c703 823d
00000370: 687c a1bd 6886 04be d660 fbbd 3793 f1bd
00000380: 04dc 7dbd e2a0 54bd 7663 033e a446 493d
00000390: 4996 0dbe 4888 653d 1079 44bd 1e6e 89bd
000003a0: 33dc e5b8 4260 99bc 8335 a13d ca8e a2bd
000003b0: 7d96 db3d e607 36be 6b8b aa3d f1b4 f53d
000003c0: 1c12 b8bd e8c7 87bd 0e28 a03c d6ab 1d3e
000003d0: 2a48 71be 7510 8e3d b2f3 a53c 9800 353d
000003e0: 30b2 c03d b017 66bd 55bc c13c 4549 0eba
000003f0: 8172 e7bc 3ef4 1abe ef9f 22bd 3251 17be

fc8.bias f4 [16]
0.0020657794 -0.101792924 0.04844066 0.020584865 0.03391161 -0.13734578 -0.10171862 -0.13712479
-0.16009775 -0.1586432 0.04655715 -0.05110173 0.0021596216 0.21677026 -0.018252445 -0.054911584
00000000: 0762 073b cf78 d0bd b769 463d 97a1 a83c
00000010: e6e6 0a3d 5fa4 0cbe da51 d0bd 716a 0cbe
00000020: aaf0 23be 5d73 22be b6b2 3e3d 0c50 51bd
00000030: 7088 0d3b 06f9 5d3e 2786 95bc f8ea 60bd

fc9.weight f4 [6, 16]
-0.7332282 0.25638413 -0.15142192 -0.41509354 -0.22515923 -0.19495985 0.0045067244 -0.26981226
-0.067481 0.100082144 -0.69337034 -0.26501343 0.15127474 -0.090727225 0.35685256 0.07775098
0.054398537 -0.44868198 -0.08090624 0.2611966 -0.26489392 -0.1163889 0.15172157 -0.08546871
0.057316136 -0.048851807 -0.28737414 0.02677227 -0.9242613 -0.14667584 -0.7449321 -0.13573204
-0.3409212 -0.4330901 -0.24539357 0.0052219615 -0.23099187 -0.2137319 -0.18921961 -0.05847676
-0.24071206 -0.33512518 -0.32317743 0.08529975 -0.7969708 0.07148591 -0.7118944 -0.0653435
-0.50638604 -0.1454267 -0.009810969 -0.015923187 -0.1466104 0.13242823 0.15814482 -0.102347575
-0.29516563 -0.13737354 -0.8420909 -0.20824245 -0.36251333 0.08706301 -0.4747982 -0.08613444
0.0150317 -0.67879796 -0.1557058 -0.3110501 -0.096843794 -0.80677456 -0.036100402 -0.24814147
-0.23908004 -0.3413697 -0.18784824 -0.1734188 -0.35103002 0.35667765 -0.5790828 -0.19191727
-0.021086607 -0.27688336 -0.2778053 -0.18123358 0.049537335 -0.41367358 -0.028659862 -0.31740254
0.10806996 -0.12237424 0.36551136 -0.11381498 -0.063881576 0.029540196 -0.13541876 -0.08755721
00000000: d8b4 3bbf c844 833e 590e 1bbe 2487 d4be
00000010: 2490 66be 8ea3 47be 25ad 933b d524 8abe
00000020: 7b33 8abd def7 cc3d b880 31bf d7af 87be
00000030: c4e7 1a3e 32cf b9bd 61b5 b63e e83b 9f3d
00000040: 00d1 5e3d a5b9 e5be 2cb2 a5bd 90bb 853e
00000050: 2da0 87be 4e5d eebd e65c 1b3e 380a afbd
00000060: 53c4 6a3d d518 48bd b422 93be 8551 db3c
00000070: 639c 6cbf 3132 16be dfb3 3ebf 57fd 0abe
00000080: 398d aebe fcbd ddbe 7448 7bbe fd1c ab3b
00000090: 2289 6cbe 89dc 5abe c9c2 41be 5485 6fbd
000000a0: 397d 76be 8795 abbe 8377 a5be a3b1 ae3d
000000b0: 4706 4cbf 3467 923d b63e 36bf d0d2 85bd
000000c0: 84a2 01bf bdea 14be 30be 20bc 5871 82bc
000000d0: 0921 16be 449b 073e b7f0 213e 9b9b d1bd
000000e0: f31f 97be a6ab 0cbe 4593 57bf 823d 55be
000000f0: 599b b9be 174e b23d c018 f3be 4167 b0bd
00000100: 8547 763c b4c5 2dbf 5771 1fbe f541 9fbe
00000110: 0a56 c6bd c788 4ebf 04de 13bd cc18 7ebe
00000120: 66d1 74be 02c8 aebe 4a5b 40be b394 31be
00000130: 35ba b3be 749e b63e c53e 14bf f685 44be
00000140: d2bd acbc a8c3 8dbe 7f3c 8ebe 4c95 39be
00000150: a9e7 4a3d 06cd d3be 16c8 eabc 9682 a2be
00000160: c853 dd3d 589f fabd 4e24 bb3e d417 e9bd
00000170: 58d4 82bd 48fe f13c 37ab 0abe 3251 b3bd

fc9.bias f4 [6]
0.2098164 0.22126283 0.15794714 0.15245163 -0.021179726 0.14331296
00000000: 1cda 563e b992 623e e5bc 213e 481c 1c3e
00000010: 1b81 adbc a2c0 123e
