model/model_ae_mlp_f6_c70_z3.pth (torch_old, 8054 bytes, 12 tensors)

encoder.fc1.weight f4 [32, 6]
0	0xbe1d0e8e	-0.15337583
1	0xbefec50b	-0.49759707
2	0xbdd40b9c	-0.10353777
3	0x3f4822f5	0.7817834
4	0xbebd46c9	-0.36968067
5	0x3f05c63d	0.5225561
6	0xbf2325bb	-0.6372945
7	0xbf2f5275	-0.68485194
8	0xbf565e81	-0.8373795
9	0xbe3dd662	-0.18538812
10	0x3e8b6588	0.272259
11	0x3dc140c4	0.09436181
12	0xbe9c4661	-0.30522445
13	0x3e484d34	0.195607
14	0x3eedd595	0.46452013
15	0xbeaa6aa8	-0.33284497
16	0xbedf7d67	-0.43650362
17	0x3d2262f0	0.039645135
18	0x3ec68f29	0.38781098
19	0xbc91ba19	-0.017788934
20	0xbf599ef4	-0.8500817
21	0xbeb2f3a4	-0.34951508
22	0xbd50ee92	-0.05100877
23	0xbec629ae	-0.38703674
24	0xbe94e646	-0.29081935
25	0xbe87a66e	-0.26494163
26	0xbf1668d6	-0.58753717
27	0xbed8a0f3	-0.42310295
28	0xbe9cf64a	-0.30656654
29	0x3ea596d7	0.32341644
30	0x3ebe6289	0.3718455
31	0x3ee452a2	0.44594294
32	0xbe967791	-0.29388097
33	0xbea4c223	-0.32179365
34	0x3e811049	0.25207737
35	0x3e30b226	0.17255458
36	0x3f03ce6d	0.51486856
37	0x3f01153c	0.50423026
38	0x3e9eb582	0.30997854
39	0xbe2f48d6	-0.17117628
40	0xbf043469	-0.5164247
41	0xbebc737e	-0.36806864
42	0x3e89cf8f	0.26916167
43	0x3ed59890	0.41717958
44	0xbcc29c3e	-0.023756143
45	0x3e964897	0.29352257
46	0x3eb082e3	0.3447486
47	0x3de981b0	0.11401689
48	0x3f091da7	0.5356087
49	0x3bdb5571	0.006693535
50	0x3dd3df98	0.103453815
51	0xbe3b1246	-0.1826869
52	0xbdcde2a4	-0.10052994
53	0xbe13a060	-0.14416647
54	0xbdd0a33c	-0.101873845
55	0x3e293ece	0.16527864
56	0x3ee1e862	0.44122607
57	0xbdecbb52	-0.11559166
58	0x3f3d186d	0.73865396
59	0x3ee507b1	0.4473243
60	0xbe0a4b86	-0.13505372
61	0xbf5714db	-0.840162
62	0xbf02e61c	-0.5113237
63	0x3e358c8f	0.177294
64	0xbcb7dc37	-0.022443874
65	0xbe5990dd	-0.21246667
66	0x3efc3227	0.49257013
67	0x3f27baf0	0.6551962
68	0xbe5e4e30	-0.21709514
69	0xbe3df5db	-0.18550818
70	0x3c94b4c3	0.0181526
71	0x3dd1c9ca	0.10243566
72	0x3e53d093	0.20685034
73	0xbcd04b51	-0.025426539
74	0x3e90751d	0.2821435
75	0x3ece8c57	0.40341446
76	0x3eef13dd	0.46694842
77	0x3ec06f37	0.3758485
78	0x3ebad752	0.364924
79	0xbd6b5b25	-0.05745997
80	0x3e4d3a36	0.20041737
81	0x3e50e1c3	0.20398621
82	0x3ea73f01	0.32665256
83	0x3f03ac1e	0.51434505
84	0xbf8524bd	-1.0401837
85	0xbf8abc38	-1.083869
86	0xbf33ed23	-0.70283717
87	0x3eb606bc	0.35552013
88	0xbeeee559	-0.46659353
89	0xbeb80f3e	-0.3594913
90	0x3f137668	0.5760255
91	0x3eeb2b92	0.4593168
92	0xbede5ea8	-0.43431592
93	0xbccaadfd	-0.024741167
94	0xbf3b225a	-0.7309929
95	0x3da8111f	0.082063906
96	0xbeebd03c	-0.46057308
97	0xbef0494c	-0.4693092
98	0xbf1b742a	-0.6072413
99	0x3edf6ffe	0.4364013
100	0x3ee3f620	0.44523716
101	0x3de857bc	0.11344859
102	0xbe633f81	-0.22192194
103	0xbdfa3425	-0.12216977
104	0xbd9b871e	-0.07594131
105	0x3ea90a45	0.33015648
106	0xbf143b49	-0.5790296
107	0xbc7218d5	-0.014776428
108	0xbd805662	-0.06266476
109	0x3db812ba	0.08987947
110	0x3f108465	0.5645202
111	0xbdc10ba9	-0.09426052
112	0xbdba5470	-0.090981364
113	0x3dc2f56b	0.09519466
114	0x3edf3eb5	0.4360253
115	0x3e737dfb	0.23778526
116	0xbe5c6ced	-0.21525927
117	0x3e17a7cb	0.14810102
118	0x3f0f2b42	0.5592538
119	0x3e924420	0.285676
120	0xbde021d2	-0.10943951
121	0x3ec19661	0.37810043
122	0x3e66d4bb	0.22542088
123	0x3e7cf58e	0.24703047
124	0xbe4d209f	-0.20031975
125	0xbf0067b9	-0.5015827
126	0xbc1224e7	-0.008919931
127	0xbe5b63e1	-0.2142482
128	0xbe61f414	-0.22065765
129	0x3ed09d95	0.40745226
130	0x3e983d6f	0.2973437
131	0x3ec4bf09	0.38426998
132	0x3c998c30	0.018743604
133	0x3e93dba9	0.28878525
134	0x3d81fcf1	0.06347073
135	0x3f03b302	0.5144502
136	0x3e109536	0.1411942
137	0x3f2ed327	0.6829094
138	0x3e866ba4	0.26253998
139	0x3ebf6530	0.37381887
140	0xbf0a2ede	-0.53977764
141	0xb9b40bc3	-0.0003434104
142	0x3f12f2db	0.5740182
143	0x3eb71411	0.35757497
144	0xbd94946f	-0.07254874
145	0x3e713c59	0.23558177
146	0xbedd5a66	-0.4323303
147	0x3f20085f	0.62512773
148	0xbdada4c2	-0.08478691
149	0x3f286bb9	0.6578937
150	0x3e93c5dc	0.28861892
151	0x3ead8dee	0.33897346
152	0xbf87465e	-1.0568349
153	0x3dab4438	0.08362621
154	0xbeda599e	-0.42646497
155	0xbeedcc39	-0.46444872
156	0x3e945f7c	0.289791
157	0x3ed99226	0.42494315
158	0xbeb00d4d	-0.34385148
159	0xbeb38f31	-0.35070184
160	0x3e26d8d9	0.16293658
161	0xbdfde3ad	-0.12396941
162	0xbe2b66d3	-0.16738443
163	0x3e6b43f0	0.22975135
164	0xbece253b	-0.4026278
165	0x3ecdd42d	0.4020094
166	0x3eeda036	0.46411294
167	0x3ba5fb68	0.0050653704
168	0xbe31b45b	-0.17353956
169	0x3eb7436a	0.3579362
170	0xbf540409	-0.8281866
171	0xbeee8410	-0.4658513
172	0xbe5828d0	-0.21109319
173	0xbeeda1c4	-0.4641248
174	0x3d8ad37f	0.06778621
175	0xbe5d78d1	-0.21628119
176	0xbec066cd	-0.3757843
177	0x3f07ab9d	0.52996236
178	0x3e7ed28d	0.24885006
179	0x3e241cda	0.16026631
180	0x3eee6371	0.46560243
181	0x3ef13b6a	0.47115642
182	0xbe8b11c4	-0.27161992
183	0xbed51c5c	-0.416232
184	0x3c7685a8	0.015046515
185	0x3c7a78ea	0.015287617
186	0xbec2b651	-0.3802972
187	0xbdacca20	-0.0843699
188	0xbdf82280	-0.12115955
189	0x3de120e1	0.10992599
190	0x3eb6d855	0.35711923
191	0x3ecff90a	0.4061969

encoder.fc1.bias f4 [32]
0	0xbdbd6ad0	-0.092488885
1	0x3ee84565	0.45365444
2	0x3e90cb71	0.28280213
3	0x3da052d0	0.07828295
4	0x3f0f76af	0.5604047
5	0xbda853c6	-0.082191035
6	0x3d310346	0.043216012
7	0xbd361ce3	-0.044461142
8	0x3eac9547	0.3370764
9	0xbe0e1460	-0.1387496
10	0x3d427b7d	0.04748105
11	0x3e276a1e	0.16349074
12	0xbda1acd3	-0.07894292
13	0x3f121da3	0.5707647
14	0x3e27afac	0.16375607
15	0xbdac6d98	-0.08419341
16	0xbdae8dc1	-0.08523131
17	0x3f0e629d	0.5561922
18	0xbcec5485	-0.028848896
19	0xbda43771	-0.08018387
20	0xbef5b06c	-0.47986162
21	0x3f2287e3	0.63488597
22	0x3f135c83	0.57563037
23	0x3f236db0	0.63839245
24	0x3d9edc5a	0.077568725
25	0xbd0bf521	-0.03416932
26	0x3ed82c3b	0.42221245
27	0x3db2e876	0.08735745
28	0x3e85fa31	0.26167443
29	0x39aeaabe	0.0003331508
30	0x3ee6947b	0.45035157
31	0x3f4c189d	0.79725057

encoder.fc2.weight f4 [16, 32]
0	0x3efad3db	0.48989758
1	0x3e23b69c	0.15987629
2	0xbe149eab	-0.14513652
3	0xbf32698e	-0.69692314
4	0xbdcffea9	-0.101559944
5	0xbe29860b	-0.1655504
6	0xbf046964	-0.51723313
7	0x3dc60f77	0.096709184
8	0xbe61b6b7	-0.22042356
9	0x3e6a9d31	0.22911526
10	0x3c4d2aed	0.012522441
11	0xbeb9940e	-0.3624577
12	0xbcc48ebb	-0.02399384
13	0x3e147d81	0.14501001
14	0xbe42abef	-0.190109
15	0xbe31155f	-0.17293309
16	0x3ef638bf	0.4809017
17	0x3e0f5e17	0.14000736
18	0xbe8bc3bc	-0.2729777
19	0x3e0bfeb4	0.1367138
20	0xbeac1c87	-0.33615515
21	0x3ee0dddb	0.43919262
22	0x3e9d8103	0.3076249
23	0x3e2880cf	0.16455387
24	0x3ea289c9	0.31745747
25	0xbfec9219	-1.8482085
26	0xbe5769d3	-0.21036462
27	0x3e8ff5e0	0.28117275
28	0xbe425e13	-0.18981199
29	0x3e177d6a	0.14793935
30	0xbebfed48	-0.3748572
31	0x3eeca85f	0.46222207
32	0x3f221c0b	0.6332404
33	0x3e8bef9e	0.2733125
34	0xbd65827e	-0.05603265
35	0xbf51633c	-0.81792045
36	0x3dbe98a0	0.09306455
37	0xbe20dedf	-0.15710019
38	0xbea6cb95	-0.32577196
39	0x3d8de460	0.06928325
40	0xbe4a1102	-0.1973305
41	0x3d976cb7	0.073937826
42	0xbde434c3	-0.11142876
43	0xbdf5a164	-0.119936734
44	0x3d7bc02b	0.061462563
45	0x3d446145	0.047944326
46	0xbdad560b	-0.08463677
47	0xbeb4b778	-0.35296226
48	0x3ed43e9b	0.41454014
49	0x3e52cd05	0.20586021
50	0xbe855e91	-0.2604871
51	0x3db48374	0.08814135
52	0xbdbd3b43	-0.09239819
53	0x3ed3e579	0.4138601
54	0x3de52d4f	0.111902826
55	0x3e192f7f	0.14959525
56	0x3f154d07	0.5832066
57	0xc01d8b9a	-2.4616456
58	0xbeb047d4	-0.344298
59	0x3d4711da	0.04860101
60	0xbe1512aa	-0.14557901
61	0x3e2712f6	0.16315827
62	0xbe4abd6c	-0.19798821
63	0x3e970445	0.29495445
64	0x3e034414	0.12818938
65	0x3ec49fd0	0.38403177
66	0xbda17520	-0.07883668
67	0x3e3d8d86	0.18511018
68	0x3ed9bcd9	0.42526892
69	0xbda32491	-0.07965959
70	0xbdaa4818	-0.08314532
71	0xbda8302f	-0.08212315
72	0x3d207d0e	0.03918176
73	0xbe5f9acb	-0.21836393
74	0x3efb8585	0.49125305
75	0xbbf77f39	-0.007553008
76	0x3c938556	0.018007915
77	0xbdafe3f8	-0.085884035
78	0x3f3c7fa2	0.7363225
79	0x3dc12e32	0.09432639
80	0xbe3f0686	-0.18654832
81	0x3ecc1e38	0.39866805
82	0xbe232f56	-0.15936026
83	0x3e207608	0.15670025
84	0xbe3ed0c1	-0.18634321
85	0xbd509f00	-0.050932884
86	0x3e8351e3	0.25648412
87	0x3e1d84e0	0.15382719
88	0x3d1535d0	0.036428273
89	0x3da3a15f	0.079897635
90	0x3e370161	0.1787162
91	0xbd0fefba	-0.03514073
92	0x3ed5c044	0.4174825
93	0x3e083235	0.13300402
94	0xbbcbc5f6	-0.006218667
95	0xbe34a488	-0.17640889
96	0xbe99b8f8	-0.30023932
97	0x3e08fd90	0.13377976
98	0xbdde33ef	-0.10849749
99	0x3e523a4f	0.20530055
100	0x3eb30607	0.34965536
101	0x3dbce276	0.092228815
102	0x3d4336e1	0.04765976
103	0x3ce11e9c	0.027480416
104	0x3dad4553	0.08460488
105	0x3e02abb6	0.12760815
106	0x3e6a003d	0.22851653
107	0xbd3e02ca	-0.04638938
108	0xbd48cfb9	-0.049026225
109	0x3e185dc3	0.14879517
110	0x3f24f6b1	0.6443892
111	0xbc5327eb	-0.012887935
112	0x3d8ac186	0.06775193
113	0x3ea022ea	0.31276637
114	0x3db3b51e	0.0877478
115	0xbd6df36f	-0.058093484
116	0xbd403f37	-0.046935286
117	0x3daf1689	0.0854922
118	0x3d9b2bbd	0.07576702
119	0x3e846e96	0.2586562
120	0xbe8ca1dd	-0.27467242
121	0x3e12211c	0.14270443
122	0x3e0755cf	0.13216327
123	0xbe44f57f	-0.19234274
124	0x3e8e993c	0.27851284
125	0xbe19f8a6	-0.15036258
126	0x3e29bde4	0.16576344
127	0x3def592c	0.1168693
128	0xbeb4c4ee	-0.35306495
129	0x3d7f68ca	0.062355794
130	0xbead00ac	-0.33789575
131	0x3e60e9e2	0.21964219
132	0x3e5bbcb2	0.214587
133	0x3e8ddc16	0.27706975
134	0x3e422a5a	0.18961468
135	0x3e3a4d5d	0.18193574
136	0x3e2782ff	0.16358565
137	0xbd765cf7	-0.060147252
138	0x3e9f0d06	0.31064624
139	0x3e1a505d	0.15069719
140	0x3d072da1	0.0330025
141	0x3e04d1e4	0.12970692
142	0x3ef3adc9	0.47593525
143	0x3e8f38cf	0.2797303
144	0x3dcc93d9	0.09989137
145	0x3e87ae24	0.26500046
146	0xbdc18e73	-0.09450998
147	0x3d9afaa7	0.075673394
148	0x3d6fb852	0.05852539
149	0xbe1ff90f	-0.15622352
150	0x3d0068c2	0.031349905
151	0x3ea3ad50	0.31968164
152	0xbe3027db	-0.17202704
153	0x3ed371f6	0.41297883
154	0x3e83a2a5	0.25710025
155	0x3d80bc6c	0.062859386
156	0x3e9698cf	0.2941346
157	0x3d355805	0.044273395
158	0x3e19228a	0.14954582
159	0x3da9f864	0.0829933
160	0x3e09a435	0.13441546
161	0x3e0ecaa7	0.13944493
162	0x3dc8a2ff	0.09796714
163	0x3d8b1b6b	0.06792339
164	0x3eb40cd0	0.35166025
165	0xbc5605c2	-0.013062896
166	0xbae0b58c	-0.0017143949
167	0xbdfe7057	-0.12423771
168	0x3e3f16f7	0.18661104
169	0xbe13f8b9	-0.14450349
170	0x3e8566db	0.26055035
171	0x3db0ce79	0.086331315
172	0x3d4d640f	0.05014425
173	0x3d6f9ded	0.05850022
174	0x3f4bfeaa	0.7968546
175	0xbd782182	-0.06057883
176	0x3dc20134	0.09472886
177	0x3ea8e98a	0.32990676
178	0xbd9a70e4	-0.075410634
179	0x3db95b8e	0.09050666
180	0xbe468785	-0.19387634
181	0xbc6f83ad	-0.014618796
182	0x3e7576c7	0.23971091
183	0x3e2f37df	0.17111157
184	0xbdc5a4b4	-0.09650555
185	0x3e05409f	0.13012932
186	0x3de691df	0.112582915
187	0xbd8e8b84	-0.06960204
188	0x3ea91a1a	0.33027726
189	0xbe24c1f1	-0.16089608
190	0x3d16cee9	0.03681842
191	0x3e12d949	0.143407
192	0xbea2c012	-0.31787163
193	0x3e4fb6d7	0.20284592
194	0xbe898d30	-0.2686553
195	0x3eb80000	0.359375
196	0x3e664b4b	0.2248966
197	0x3e029726	0.12752971
198	0x3d505c26	0.05086913
199	0x3dd6c1e0	0.104861975
200	0x3e3120b2	0.17297629
201	0x3de96487	0.11396127
202	0x3e0df9d6	0.13864836
203	0x3ea17a66	0.31538695
204	0x3d0ba05d	0.03408848
205	0x3e6cb3be	0.23115441
206	0x3ee790a3	0.45227537
207	0x3eb557ee	0.35418648
208	0xbe826f5d	-0.25475588
209	0x3e003490	0.12520051
210	0xbe69c68a	-0.22829643
211	0x3eaca428	0.3371899
212	0xbda144ec	-0.07874474
213	0x3d82928d	0.063756086
214	0x3e496861	0.19668724
215	0x3d9f7005	0.07785038
216	0xbe23673d	-0.15957351
217	0x3ec33716	0.38127965
218	0x3e33c823	0.17556815
219	0x3e0d6f68	0.1381203
220	0x3ebbb281	0.36659625
221	0xbe93e2ee	-0.2888407
222	0x3e451c32	0.19249037
223	0xbd406274	-0.046968892
224	0x3d8ba91c	0.068193644
225	0x3d9135fa	0.07090373
226	0x3cacacca	0.021078486
227	0x3d82152f	0.06351697
228	0xbb9ec9d4	-0.004845837
229	0x3dad5c75	0.084649004
230	0x3db91d3b	0.090387784
231	0x3e4c06ac	0.1992442
232	0x3e16ec99	0.14738692
233	0x3e93ed2e	0.2889189
234	0xbe708ba0	-0.23490763
235	0xbe0aeadf	-0.13566159
236	0x3e76da37	0.2410668
237	0x3d01f378	0.03172633
238	0xbf3677ec	-0.71276736
239	0x3d677a0f	0.05651289
240	0x3e9e5f43	0.30932054
241	0xbe6e9553	-0.2329915
242	0x3e8ce058	0.2751491
243	0x3d43ff8a	0.047851123
244	0x3e59a447	0.21254073
245	0x3e3fa357	0.18714653
246	0x3dd8602c	0.10565218
247	0x3dd402e8	0.10352117
248	0x3df496ff	0.11942863
249	0x3e04dd19	0.12974967
250	0xbdea86e1	-0.11451507
251	0x3e899d77	0.2687795
252	0x3d8df827	0.06932097
253	0x3e9821b2	0.29713207
254	0x3c924875	0.017856816
255	0x3e9b8675	0.3037602

encoder.fc2.bias f4 [16]
0	0x3e3b0c3b	0.18266384
1	0x3b06db58	0.0020577516
2	0x3e701d46	0.23448667
3	0x3e786025	0.24255426
4	0x3e8c7d37	0.2743928
5	0x3d9ebe13	0.077510975
6	0x3e2b0264	0.1670013
7	0x3e88266e	0.2659182
8	0x3e172063	0.14758448
9	0xbddd982a	-0.108200386
10	0xbe65b47d	-0.22432132
11	0x3e05f069	0.1307999
12	0xbd406c33	-0.046978187
13	0xbe4e6e2d	-0.20159216
14	0xbcc8a5cc	-0.02449312
15	0xbeb5c217	-0.3549964

encoder.fc3.weight f4 [3, 16]
0	0xbd72e255	-0.05929788
1	0x3d8d3f1c	0.06896803
2	0x3f15459d	0.58309346
3	0x3e12602e	0.14294502
4	0xbccb8a3d	-0.02484619
5	0x3e99fc89	0.30075482
6	0x3c9c5290	0.019082338
7	0xbeaaa3e2	-0.33328158
8	0xbeb191e0	-0.34681606
9	0xbb2f2b3f	-0.0026728658
10	0xbed0924c	-0.40736616
11	0xbeb0b400	-0.3451233
12	0xbe8d00c8	-0.2753966
13	0xbdd343ca	-0.10315664
14	0x3f51bc5d	0.81928045
15	0xbe73e83f	-0.23819064
16	0x3ec89a3a	0.39180166
17	0x3ec82dbb	0.3909739
18	0xbe7e26f3	-0.24819545
19	0xbee0c171	-0.43897584
20	0xbf01aede	-0.5065745
21	0xbe6c517d	-0.2307796
22	0xbf149905	-0.5804599
23	0x3e9a571a	0.30144578
24	0xbe2a8b53	-0.1665471
25	0x3e7324fa	0.23744574
26	0x3ef98984	0.4873773
27	0xbe99e8d1	-0.30060437
28	0x3d858197	0.06518858
29	0xbe5255b2	-0.20540503
30	0xbf15c396	-0.58501565
31	0xbe335aac	-0.17515057
32	0xbf1e1b53	-0.61760443
33	0xbec63bdb	-0.3871754
34	0x3e1915d1	0.14949729
35	0x3e3cf2ab	0.18451945
36	0x3d1c708a	0.038193263
37	0xbdab5464	-0.083657056
38	0x3e486564	0.19569927
39	0x3d3f0908	0.046639472
40	0x3e9f7749	0.31145695
41	0xbe1ed5c4	-0.15511233
42	0xbf60d659	-0.8782707
43	0xbd92f6ee	-0.07176004
44	0xbeaa013f	-0.33204076
45	0x3e9f7c8f	0.31149718
46	0xbf065fe5	-0.52490073
47	0x3f3c6619	0.7359329

encoder.fc3.bias f4 [3]
0	0xbcdf8ce5	-0.027288863
1	0x3e4a54ba	0.19758883
2	0x3df59348	0.11990982

fc4.weight f4 [32, 3]
0	0xbf10ed50	-0.5661211
1	0xbed31df8	-0.41233802
2	0xbe8a6084	-0.2702676
3	0x3f09d828	0.53845453
4	0xbee659b1	-0.44990304
5	0xbdd32b01	-0.10310937
6	0x3e956786	0.29180545
7	0x3ebfd83a	0.37469655
8	0x3f0f4e3a	0.5597874
9	0xbe924161	-0.28565505
10	0x3e82aa9c	0.2552079
11	0x3e539e6c	0.20665902
12	0xbe015c79	-0.12632932
13	0x3e61290d	0.21988316
14	0x3f015f97	0.50536484
15	0x3f0a8875	0.54114467
16	0xbf0017b3	-0.5003616
17	0x3e0b79cb	0.13620679
18	0xbeb14486	-0.34622592
19	0x3edce97b	0.4314688
20	0x3eec913f	0.46204564
21	0xbf0815b4	-0.53158116
22	0xbf18c4ad	-0.59675103
23	0x3ec7d74c	0.39031446
24	0xbd91b777	-0.07115071
25	0xbf0c4e61	-0.54807097
26	0x3f0ae9fd	0.5426329
27	0x3ede9fef	0.43481395
28	0x3d2d8575	0.042363603
29	0xbf14e866	-0.5816711
30	0xbe6b4fcc	-0.22979659
31	0x3ea37624	0.31926072
32	0x3e898362	0.2685805
33	0xbe9b2922	-0.3030482
34	0x3d7d1b09	0.06179336
35	0x3eb8e886	0.361149
36	0x3e65e383	0.2245007
37	0x3ea5b752	0.32366425
38	0x3df921fe	0.121646866
39	0xbf009ca0	-0.5023899
40	0xbdce4fb9	-0.100738
41	0x3ea8189d	0.32831278
42	0x3d9b6722	0.075880304
43	0xbde72dc6	-0.112880275
44	0xbe96f92d	-0.2948698
45	0x3e7cd963	0.24692301
46	0xbe3ae3ee	-0.18251011
47	0xba8f0337	-0.0010910992
48	0x3eb5d439	0.35513476
49	0x3e9019b9	0.28144625
50	0xbef3e65c	-0.47636688
51	0xbed44dea	-0.41465694
52	0x3e647f2b	0.22314136
53	0x3e2c7667	0.16842042
54	0x3e5bf66f	0.21480726
55	0x3f093564	0.5359709
56	0xbed1a393	-0.4094511
57	0xbe21d041	-0.15802099
58	0xbed80c1e	-0.42196745
59	0x3ee38af5	0.44441953
60	0xbf10f6ab	-0.56626385
61	0xbe535203	-0.20636754
62	0x3e708e83	0.23491864
63	0x3e85b4b5	0.2611443
64	0xbe88fce8	-0.26755452
65	0x3cd2eded	0.025748217
66	0x3ed37cf1	0.4130626
67	0x3e6dd128	0.23224318
68	0xbefd49c3	-0.49470338
69	0x3f0dbac6	0.5536312
70	0x3eaa4fcc	0.33264005
71	0xbf0ad7ff	-0.54235834
72	0x3d0369c6	0.032083295
73	0x3eb08db6	0.34483117
74	0xbe8bdcbd	-0.27316847
75	0x3dab0963	0.083514
76	0x3d49caab	0.049265545
77	0xbf0c966e	-0.5491704
78	0x3f160e23	0.5861532
79	0x3e3b594e	0.18295786
80	0x3ede3274	0.43397868
81	0x3d046114	0.032319143
82	0x3e19d292	0.15021732
83	0x3eb20ae7	0.34773943
84	0x3becede4	0.007230507
85	0x3e26956b	0.16267936
86	0xbdc2c39b	-0.09509965
87	0x3e506c18	0.20353734
88	0x3ef39db8	0.47581267
89	0x3ee9dd58	0.45676684
90	0xbe10b812	-0.14132717
91	0x3d64db74	0.05587335
92	0xbe697413	-0.22798185
93	0x3e876dd0	0.26450968
94	0x3d879d96	0.06621854
95	0xbe11b246	-0.14228162

fc4.bias f4 [32]
0	0x3eda4e37	0.42637798
1	0xbe80ba18	-0.25141978
2	0x3c65a200	0.014015675
3	0x3ee57c8e	0.4482159
4	0xbefc3252	-0.4925714
5	0xbc202987	-0.009775526
6	0xbdc37b28	-0.095449746
7	0xbdfdd80c	-0.12394723
8	0xbeebe7bf	-0.46075246
9	0x3c4fc7a8	0.012681879
10	0x3efbe100	0.491951
11	0x3ed6426a	0.41847545
12	0xbef596d6	-0.4796664
13	0x3f13ab67	0.57683414
14	0xbd6a0882	-0.05713702
15	0xbe3079cc	-0.17233962
16	0xbde1468e	-0.10999785
17	0xbe023fec	-0.12719697
18	0x3ecfd046	0.40588588
19	0xbe8283fe	-0.25491327
20	0xbd715827	-0.05892196
21	0xbe8c0f9a	-0.27355653
22	0xbed46b1a	-0.41487962
23	0xbe4032ed	-0.18769427
24	0xbe815ec0	-0.252676
25	0xbef01b11	-0.4689565
26	0x3db81dfb	0.08990093
27	0x3eaa427b	0.33253846
28	0xbf07fe65	-0.5312255
29	0xbe3d9840	-0.1851511
30	0x3f119220	0.56863594
31	0x3e81a87c	0.25323856

fc5.weight f4 [16, 32]
0	0x3d1c9432	0.038227268
1	0x3d8d752b	0.06907114
2	0xbe063dfe	-0.13109586
3	0xbd6fe1a7	-0.05856481
4	0xbd6a81c3	-0.057252657
5	0x3debdf04	0.11517146
6	0xbd2fac60	-0.042889
7	0x3dffdfc6	0.12493853
8	0xbdd36485	-0.10321907
9	0xbd08d7e5	-0.033409018
10	0x3cea8d6f	0.028631894
11	0x3be20c8e	0.0068984693
12	0xbd393ce5	-0.04522409
13	0x3b5ad2dd	0.0033389844
14	0xbe260c76	-0.16215691
15	0x3c18aea9	0.009318986
16	0x3d80c093	0.062867306
17	0xbcb01b1c	-0.021497302
18	0xbdd65110	-0.1046468
19	0xbd7ce1c9	-0.061738763
20	0xbe2620c8	-0.16223443
21	0xbd6a3d90	-0.057187617
22	0xbdbbeaab	-0.09175619
23	0x3d48aa1d	0.048990358
24	0x3e0c898a	0.13724342
25	0xbd411272	-0.04713673
26	0x3e3c48df	0.18387173
27	0xbd4acf19	-0.04951391
28	0xbcc1f0ac	-0.023674332
29	0x3d717860	0.05895269
30	0x3e0550ce	0.13019106
31	0x3d801b5b	0.06255218
32	0x3dd8033c	0.10547492
33	0xbe18b242	-0.1491175
34	0xbe0d23ad	-0.1378314
35	0x3e01d3fa	0.12678519
36	0xbdca8635	-0.09888879
37	0x3e1afea3	0.15136199
38	0x3da52f96	0.08065717
39	0x3cb07b88	0.02154328
40	0x3d9cac16	0.0765001
41	0xbd8be901	-0.06831551
42	0xbd243e1e	-0.040098302
43	0x3e0603f7	0.1308745
44	0xbd2595c3	-0.040426027
45	0xbdb00568	-0.08594781
46	0x3dad774d	0.084700204
47	0xbce79a48	-0.02827181
48	0xbe21be37	-0.15795217
49	0x3b062012	0.0020465893
50	0x3dacea3f	0.084431164
51	0xbde0f12f	-0.10983502
52	0xbe065c07	-0.13121043
53	0xbe2cb3cc	-0.16865462
54	0x3d97d16e	0.074129924
55	0xbe06f078	-0.13177669
56	0xbddd2863	-0.10798719
57	0x3e1bc4d7	0.15211807
58	0xbd799ce8	-0.060940653
59	0xbddc08cf	-0.107438676
60	0x3dac1abe	0.08403538
61	0x3c793690	0.015210763
62	0xbc2c0c5b	-0.010500993
63	0xbe3103e6	-0.17286643
64	0xbe2bbe1b	-0.16771738
65	0x3d9b2ad7	0.075765304
66	0xbdccd6fc	-0.100019425
67	0xbdbf9fa6	-0.093566224
68	0xbdef9118	-0.11697596
69	0xbe3e2f05	-0.18572624
70	0x3d151330	0.03639525
71	0xbdf4e322	-0.11957385
72	0x3d4cfab7	0.050043788
73	0x3c0a7b9c	0.008452322
74	0x3d9916ff	0.07475089
75	0xbcc175c5	-0.023615727
76	0xbe025f9c	-0.12731785
77	0x3df31097	0.11868399
78	0xbdbd3103	-0.09237864
79	0xbe33f463	-0.17573695
80	0x3dd738dc	0.10508892
81	0xbdc73398	-0.097266376
82	0x3ca4c34b	0.020112654
83	0xbb7f9d98	-0.0039003845
84	0xbd0cf575	-0.034413774
85	0x3d84967f	0.06474017
86	0x3d927787	0.07151704
87	0xbddd390e	-0.10801898
88	0xbcfa4d3b	-0.030554404
89	0x3c06b6d7	0.008222303
90	0xbd15e43f	-0.036594626
91	0xbdc78b57	-0.09743374
92	0x3d97ed32	0.07418288
93	0xbdcc663e	-0.09980439
94	0x3dfc68e7	0.12324696
95	0x3e076763	0.13223033
96	0x3db62d50	0.088953614
97	0x3e1b868e	0.15188047
98	0xbbb62f00	-0.005559802
99	0xbda0a067	-0.07843094
100	0x3dd56cb5	0.10421125
101	0x3dace6d2	0.08442463
102	0x3d12ba4b	0.035822194
103	0x3dd7bbcc	0.10533866
104	0x3e125518	0.14290273
105	0xbe20d727	-0.15707074
106	0x3d0cb3e9	0.034351263
107	0xbe36499e	-0.1780152
108	0xbe1c4010	-0.15258813
109	0x3db30258	0.087406814
110	0x3d23ebe7	0.040019896
111	0x3e0d9039	0.13824548
112	0x3c3cd9c8	0.0115265325
113	0x3caa07d7	0.020755691
114	0xbdbd2f80	-0.092375755
115	0x3d0e3b91	0.034724776
116	0x3d448da3	0.047986638
117	0xbdf0cd9e	-0.11757968
118	0x3cc3c812	0.023899112
119	0xbe15463a	-0.1457757
120	0xbd52fcaf	-0.05151051
121	0xbe0e649d	-0.13905568
122	0x3da07968	0.078356564
123	0x3dd1b80b	0.102401815
124	0x3c9b6345	0.018968234
125	0x3c3cd0f0	0.011524424
126	0x3dd234e2	0.10263993
127	0x3d34c90a	0.04413704
128	0x3d821a05	0.06352619
129	0x3c98c560	0.018648803
130	0xbe0ad6a8	-0.13558447
131	0x3c5630cd	0.013073158
132	0x3dbf995c	0.09355423
133	0xbd99799c	-0.07493898
134	0xbe2ebcb8	-0.17064178
135	0x3d4bc472	0.04974789
136	0xbdefb6f4	-0.117048174
137	0xbdc65bfb	-0.09685513
138	0xbdaa11fc	-0.083042115
139	0x3cc734c5	0.024317155
140	0xbe125f6a	-0.1429421
141	0x3d20a040	0.039215326
142	0x3bf98d4c	0.007615721
143	0xbc15ef03	-0.009151223
144	0x3e148e23	0.14507346
145	0xbd85b886	-0.06529336
146	0xbdac2aa8	-0.084065735
147	0x3d8b8b3f	0.068136685
148	0x3df6c36c	0.120489925
149	0xbabb4758	-0.001428823
150	0xbc316c80	-0.010829091
151	0x3c1a2a90	0.009409562
152	0x3d928a4c	0.07155284
153	0xbdcf490b	-0.10121354
154	0x3df7e072	0.121033564
155	0x3ccd472a	0.025058348
156	0x3b9038e0	0.0044013113
157	0x3db92286	0.09039788
158	0xbdcb27b6	-0.09919684
159	0xbdb8b5ca	-0.090190485
160	0xbd821a35	-0.06352655
161	0x3ca68e8b	0.020331642
162	0xbe0e35ab	-0.1388766
163	0xbd2b31b2	-0.04179544
164	0x3c01113e	0.007877646
165	0x3de30f85	0.110869445
166	0xbd3cbdac	-0.046079323
167	0xbe3942ef	-0.1809194
168	0xbe1f18ad	-0.15536757
169	0x3d9aedfc	0.07564923
170	0xbde47a3a	-0.11156125
171	0x3dafd60d	0.08585749
172	0x3e21c268	0.15796816
173	0x3d87f2a5	0.06638078
174	0x3d49dbc0	0.049281836
175	0xbe276ecb	-0.16350858
176	0x3db8e0b2	0.09027232
177	0xbe0d1d33	-0.1378067
178	0x3e1096a6	0.14119968
179	0x3c56f642	0.013120236
180	0x3d11bdba	0.035581328
181	0x3ddf343f	0.10898637
182	0xbdb165d7	-0.086620025
183	0x3d3a5efc	0.04550074
184	0xbc7d4eb1	-0.015460656
185	0x3de21129	0.11038429
186	0x3dd11c9c	0.10210535
187	0x3dff882b	0.12477144
188	0x3d89eab3	0.067342184
189	0xbde41174	-0.111361414
190	0x3e014a5a	0.12626019
191	0xbd6e3eca	-0.05816535
192	0xbe2bc882	-0.16775706
193	0xbe105bc2	-0.14097503
194	0x3d7bc834	0.061470225
195	0xbd81c92c	-0.063371986
196	0x3e039627	0.12850247
197	0x3df9455e	0.12171434
198	0xbdc951f9	-0.09830088
199	0xbdc9b9e0	-0.09849906
200	0xbd974673	-0.07386484
201	0xbd3579c9	-0.044305597
202	0x3e2049e6	0.1565319
203	0x3e2cdd73	0.16881351
204	0xbe16a130	-0.14709926
205	0x3de8f366	0.113745496
206	0x3e15e1cf	0.1463692
207	0xbd963479	-0.07334227
208	0x3de67256	0.112522766
209	0xbdfc4038	-0.12316936
210	0xbdca68a4	-0.0988324
211	0x3db8b610	0.09019101
212	0xbe245a12	-0.16049984
213	0x3db0805f	0.08618235
214	0xbd60b465	-0.054859538
215	0xbdde35f7	-0.10850137
216	0xbd8d88ba	-0.06910844
217	0x3cac99c1	0.02106941
218	0x3d59c87b	0.05316971
219	0xbdc4b6c0	-0.09605169
220	0x3db5884e	0.08863889
221	0x3e00f203	0.1259232
222	0xbdab70c2	-0.08371116
223	0x3d52e0e6	0.05148401
224	0x3e4c0989	0.19925512
225	0xbe03621d	-0.12830396
226	0xbcdd4d18	-0.0270143
227	0xbb68fdfd	-0.003555178
228	0x3d772d18	0.06034574
229	0xbdfff327	-0.124975495
230	0x3dd2b3f9	0.10288233
231	0x3db47955	0.08812205
232	0x3e43103f	0.19049166
233	0xbe10d058	-0.14141977
234	0xbdfb874e	-0.12281667
235	0xbe3536c1	-0.17696668
236	0xbe063ec1	-0.13109876
237	0xbdab18a6	-0.08354311
238	0xbd51738c	-0.051135585
239	0xbdc3406e	-0.09533773
240	0x3e282002	0.1641846
241	0x3dd777d9	0.10520906
242	0x3d80a53e	0.062815174
243	0x3ceaceb0	0.02866301
244	0x3ca6b05c	0.020347767
245	0xbe29caea	-0.16581312
246	0x3e2917f5	0.16513045
247	0xbe13001e	-0.14355513
248	0xbd123930	-0.03569907
249	0xbcc26611	-0.02373031
250	0x3db5e4b9	0.08881516
251	0xbd48c1a5	-0.0490128
252	0xbc2a12f2	-0.0103804935
253	0xbce09fe8	-0.02742
254	0x3dde406b	0.108521305
255	0xbe1759ea	-0.14780393

fc5.bias f4 [16]
0	0x3d92aa2c	0.07161364
1	0xbe2a437f	-0.1662731
2	0x3d80603b	0.062683545
3	0xbd560e6b	-0.052259844
4	0xbe0cbd8f	-0.13744186
5	0x3e012e7e	0.12615392
6	0x3d4699ef	0.048486646
7	0xbc3e5241	-0.011616291
8	0xbdba2e7c	-0.090908974
9	0xbcc42e4a	-0.023947854
10	0xbd35dabf	-0.044398066
11	0x3dca261c	0.0987055
12	0xbde4dd63	-0.11175039
13	0x3b2f2857	0.0026726925
14	0x3db9402a	0.090454414
15	0xbdddcbcc	-0.10829887

fc6.weight f4 [6, 16]
0	0x3e5e4867	0.21707307
1	0x3e4d15ad	0.200278
2	0xbe1531df	-0.14569806
3	0x3e21c623	0.1579824
4	0xbd66d2c9	-0.056353364
5	0xbe9ec7f1	-0.31011918
6	0x3d2b1640	0.041769266
7	0xbcb5b478	-0.02218078
8	0x3d935486	0.07193856
9	0x3d41b77a	0.047294118
10	0x3e0f9650	0.14022183
11	0xbe3faa36	-0.18717274
12	0x3df685c1	0.1203723
13	0xbdc94b89	-0.0982886
14	0xbca981a0	-0.020691693
15	0xbe20b261	-0.15693046
16	0xbdf09158	-0.11746472
17	0xbe6aad26	-0.22917613
18	0x3e67d598	0.22640073
19	0xbe5681b2	-0.20947912
20	0xbe195b64	-0.14976269
21	0x3dd62380	0.1045599
22	0x3e6ee2fe	0.23328778
23	0xbdd03a2c	-0.101673454
24	0xbd09b958	-0.033624023
25	0xbdf93e54	-0.12170091
26	0xbe769764	-0.24081188
27	0xbe468804	-0.19387823
28	0x3c689200	0.014194965
29	0xbe395a02	-0.18100742
30	0xbdefc26c	-0.11707005
31	0xbe3f2e9e	-0.18670127
32	0xbe5e7437	-0.2172402
33	0xbe0d1619	-0.13777961
34	0x3ca96353	0.020677244
35	0xbc5f0d81	-0.013614059
36	0xbe42cdcf	-0.19023822
37	0x3e2eb857	0.17062508
38	0xbe3bf1bb	-0.18353932
39	0xbde04036	-0.10949747
40	0xbe70e9d1	-0.23526694
41	0x3aaef224	0.001334731
42	0x3cf220be	0.029556628
43	0xbe447064	-0.19183499
44	0x3e49b62a	0.19698396
45	0x3b9ae6a3	0.004727201
46	0xbcb60820	-0.022220671
47	0x3ded61b8	0.11590904
48	0x3e4c628f	0.19959472
49	0xbe3c5cf1	-0.1839483
50	0xbe2be034	-0.16784745
51	0xbdef6199	-0.11688537
52	0xbe6a85e7	-0.22902642
53	0x3acbe9db	0.0015557365
54	0x3d467078	0.048447102
55	0xbe771340	-0.24128437
56	0x3d2abce5	0.04168405
57	0xbe6e2c36	-0.23259053
58	0x3e688d4a	0.22710148
59	0xbc04e9df	-0.0081124
60	0xbe75129f	-0.23932885
61	0xbdced97e	-0.10100077
62	0xbde677ec	-0.11253342
63	0x3d62e5ad	0.055394817
64	0xbd09ba0f	-0.033624705
65	0x3e4ec36f	0.2019174
66	0xbddf2a98	-0.10896796
67	0x3c79ca25	0.015245949
68	0x3e6e3c7e	0.23265263
69	0x3e44802c	0.19189519
70	0x3e103380	0.14082146
71	0x3e2af02e	0.16693184
72	0x3c2a8722	0.010408195
73	0xbc96dbd2	-0.018415365
74	0x3d0821d0	0.03323537
75	0xbdf58db7	-0.119899206
76	0x3d5dd59c	0.054158792
77	0xbe6926a1	-0.22768642
78	0xbe0e9300	-0.13923264
79	0xbe35a3f9	-0.17738332
80	0x3d0f0d10	0.034924567
81	0x3e6dbc8b	0.23216455
82	0x3e2c4bf4	0.16825849
83	0x3e218ef1	0.15777184
84	0x3d23793c	0.03991054
85	0x3d85c018	0.065307796
86	0xbdbd7f54	-0.092528015
87	0xbe0653a0	-0.13117838
88	0xbcee5950	-0.029095322
89	0x3e062978	0.13101757
90	0xbe87d064	-0.26526177
91	0x3c66e386	0.014092332
92	0x3e59e89f	0.21280144
93	0xbc26a4be	-0.010171114
94	0x3dba33c8	0.09091908
95	0xbdbd9f53	-0.09258904

fc6.bias f4 [6]
0	0x3da14847	0.07875114
1	0xbe743388	-0.23847783
2	0xbd23aed2	-0.039961644
3	0xbdf89039	-0.12136883
4	0x3ea89bdd	0.32931414
5	0x3e28bf33	0.16479187
