model/model_mlp_f6_c70.pth (torch_old, 4429 bytes, 6 tensors)

fc1.weight f4 [32, 6]
0	0xbc6cab3f	-0.014445125
1	0xbebcc135	-0.36866155
2	0xbe9bb2ea	-0.30409938
3	0x3c8ef702	0.017451767
4	0xbe1f9249	-0.15583147
5	0xbe333c8f	-0.1750357
6	0xbd8190c1	-0.06326438
7	0xbe09fa2d	-0.1347434
8	0x3cc3cd4c	0.023901604
9	0x3cf7b7ca	0.030239005
10	0x3e9b74b3	0.30362472
11	0xbe3ee8c7	-0.18643485
12	0x3deceb77	0.11568349
13	0x3e00c2d7	0.12574326
14	0x3eb2f506	0.34952563
15	0x3e07ad37	0.1324967
16	0xbe5866ec	-0.21133012
17	0x3e63a1e9	0.22229733
18	0x3e6a4a2e	0.2287986
19	0xbdeb269c	-0.114819735
20	0x3e7a9b35	0.2447327
21	0xbcbe5d5e	-0.02323788
22	0x3e81439b	0.2524689
23	0xbe9245ef	-0.2856898
24	0xbe0588f2	-0.13040522
25	0x3e5258ec	0.20541734
26	0x3e521cb5	0.20518763
27	0xbdeac813	-0.114639424
28	0xbe37fb24	-0.17966896
29	0xbe53688a	-0.20645347
30	0x3ea22f6c	0.31676805
31	0xbd0782bb	-0.03308366
32	0x3e3daccb	0.18522947
33	0xbe95733d	-0.29189482
34	0x3df165d6	0.11787002
35	0xbec3860b	-0.38188204
36	0x3ec8b6cc	0.39201963
37	0x3ebd056f	0.36918208
38	0x3da54555	0.08069865
39	0xbd8d143e	-0.068886265
40	0xbe70c472	-0.23512438
41	0x3e555b62	0.20835641
42	0x3e4e5e95	0.20153268
43	0x3ed2216c	0.41041124
44	0xbe86edfd	-0.26353446
45	0x3e86203a	0.26196462
46	0xbecfea12	-0.4060827
47	0x3eb6bffe	0.35693353
48	0x3e686cc1	0.22697736
49	0xbe472967	-0.19449387
50	0x3e6800e3	0.22656588
51	0x3e30ebc0	0.17277431
52	0xbe14e439	-0.14540185
53	0xbcb6f8de	-0.022335466
54	0x3ed16037	0.4089372
55	0x3ec3fd24	0.38279068
56	0x3d5dd509	0.054158244
57	0x3e27fc34	0.16404802
58	0x3ca6c34b	0.020356795
59	0xbe372580	-0.17885399
60	0xbe917f5f	-0.2841749
61	0x3dc73320	0.09726548
62	0x3e918395	0.28420702
63	0xbe4aca60	-0.19803762
64	0xbe8466e5	-0.25859752
65	0x3ed2993b	0.4113253
66	0xbdbd8ec0	-0.09255743
67	0x3e97e278	0.2966497
68	0x3e307ea7	0.17235814
69	0xbe9f2a7b	-0.31087098
70	0x3e9523c4	0.2912885
71	0xbcd36ca8	-0.025808647
72	0x3ebb5c3f	0.36593816
73	0x3de2cde4	0.11074427
74	0x3e85633e	0.26052278
75	0xbe8c31ca	-0.27381736
76	0x3d3a94fd	0.045552243
77	0x3ed5bc3a	0.41745168
78	0xbecbd16c	-0.39808214
79	0x3d0c665a	0.034277298
80	0xbd271cf5	-0.0407991
81	0xbeb9e8ba	-0.3631037
82	0xbd861997	-0.065478496
83	0xbe703809	-0.23458876
84	0x3db21b8c	0.086966604
85	0x3eb22e68	0.3480103
86	0xbe9416c2	-0.28923613
87	0x3e230dd5	0.15923245
88	0xbe6b3300	-0.22968674
89	0x3e61f939	0.22067727
90	0x3ebf8754	0.37407935
91	0x3de6730d	0.11252413
92	0xbd88ec90	-0.06685746
93	0xbe4ac62d	-0.1980216
94	0x3e6c7675	0.23092063
95	0xbd325bba	-0.04354451
96	0xbeb11a36	-0.3459031
97	0x3e400dbe	0.18755242
98	0x3d69e53f	0.05710339
99	0xbe8b3a8b	-0.27193102
100	0xbd5d6951	-0.054055516
101	0xbe3a4883	-0.18191724
102	0x3cd98b54	0.026555695
103	0xbeb8372a	-0.35979587
104	0xbd2504de	-0.040287845
105	0x3d27e3a8	0.040988594
106	0xbc33eeb0	-0.0109822005
107	0xbec40d72	-0.38291508
108	0xbe4eaa8d	-0.20182247
109	0x3dbcfa97	0.09227484
110	0x3ea4883c	0.3213519
111	0xbebe5824	-0.3717662
112	0x3eb4d413	0.3531805
113	0xbe40c9e1	-0.1882701
114	0xbe748f22	-0.23882726
115	0xbec7e5d0	-0.3904252
116	0xbd1f5c75	-0.038906533
117	0x3e7f9e80	0.24962807
118	0xbe0496a4	-0.1294809
119	0xbcd75b98	-0.026288792
120	0x3ea616a8	0.3243916
121	0x3e6a184e	0.22860834
122	0x3d41510a	0.047196425
123	0xbe70e197	-0.23523556
124	0xbe832cde	-0.25620168
125	0x3e53bfbb	0.20678608
126	0xbd1d2e59	-0.03837428
127	0x3eb11134	0.34583437
128	0xbd2ad743	-0.041709196
129	0x3c80a625	0.015704224
130	0x3e79bb5c	0.24387878
131	0xbea83efc	-0.32860553
132	0x3eb95eb5	0.36205068
133	0x3e02b601	0.12764741
134	0xbc8bb97f	-0.017056225
135	0xbeabd521	-0.33561042
136	0x3e7754f6	0.24153504
137	0xbd893378	-0.0669927
138	0xbcbe7fd4	-0.023254313
139	0xbe80b0be	-0.25134844
140	0xbdf0d809	-0.117599554
141	0x3ecdb7dd	0.4017934
142	0x3d9e8261	0.077397116
143	0x3e51e51d	0.20497556
144	0x3e0727ff	0.13198851
145	0x3e9e10de	0.30872244
146	0xbe8becf7	-0.27329227
147	0x3d44d67d	0.048056114
148	0xbe28210a	-0.16418853
149	0x3dde1f92	0.10845865
150	0x3eba65b2	0.36405712
151	0x3dad4a48	0.08461434
152	0xbed2a4e4	-0.41141427
153	0xbd49412f	-0.04913443
154	0xbe5c2ec4	-0.21502215
155	0xbe9a9af3	-0.30196342
156	0xbcbc612d	-0.022995556
157	0x3c837000	0.016044617
158	0xbe865d1b	-0.2624291
159	0x3e4a3627	0.1974722
160	0x3c0ec283	0.008713367
161	0xbecc475e	-0.398982
162	0xbed29521	-0.411294
163	0x3e8dc8f8	0.2769239
164	0x3e9e8626	0.30961722
165	0x3ecbae93	0.39781627
166	0xbe70c85d	-0.23513933
167	0x3d956567	0.072947316
168	0xbe11123a	-0.14167109
169	0xbe1a21fe	-0.1505203
170	0xbe5eddce	-0.217643
171	0x3eb1e085	0.34741607
172	0xbd05a3c5	-0.032626886
173	0xbe92254a	-0.28544074
174	0x3e9a229a	0.30104524
175	0xbecefecf	-0.4042878
176	0xbebbe95b	-0.36701474
177	0x3de3c5e0	0.11121726
178	0xbd210fa4	-0.039321557
179	0x3e8e8376	0.27834672
180	0x3e4e8f8c	0.20171946
181	0x3dd1d187	0.10245042
182	0x3d866270	0.06561744
183	0x3ec35fe5	0.381591
184	0xbeb6e680	-0.35722733
185	0x3dd6e908	0.10493666
186	0xbe3e65d3	-0.1859353
187	0xbd685ffb	-0.05673216
188	0x3e059927	0.13046704
189	0x3eb5ed01	0.35532382
190	0xbd93448a	-0.07190807
191	0xbce15444	-0.027506001

fc1.bias f4 [32]
0	0x3e499827	0.19686948
1	0xbe6f6b97	-0.23380886
2	0x3db956fb	0.09049793
3	0xbe07fd27	-0.13280164
4	0xbc5b1ea4	-0.0133740045
5	0xbe50025b	-0.20313399
6	0x3e62bcb3	0.22142296
7	0xbd554c5b	-0.05207477
8	0xbe2f8fda	-0.17144719
9	0x3eaa8703	0.3330613
10	0x3eb4d097	0.3531539
11	0x3e1b9cd0	0.15196538
12	0x3eaa22de	0.33229727
13	0xbec26605	-0.3796846
14	0x3e90df14	0.28295195
15	0x3e92a2fb	0.2863997
16	0xbcfadce7	-0.030622913
17	0x3eb08be5	0.3448173
18	0xbe6572c2	-0.22407058
19	0x3e8014f4	0.25015986
20	0x3e1d1924	0.15341622
21	0xbec06d44	-0.37583363
22	0x3e5cf7c7	0.21578895
23	0x3d81cade	0.06337522
24	0x3e30f770	0.1728189
25	0xbe97cda7	-0.29649088
26	0xbd108f85	-0.03529312
27	0x3b087540	0.002082184
28	0xbd3dba78	-0.04632041
29	0x3d658604	0.05603601
30	0xbd983e47	-0.074337535
31	0x3e4b17ee	0.19833347

fc2.weight f4 [16, 32]
0	0x3d8dfeaf	0.06933343
1	0xbd86f189	-0.06589038
2	0xbd7c4a58	-0.061594337
3	0x3d852b9e	0.0650246
4	0x3df2316f	0.11825835
5	0x3d8147d7	0.063125305
6	0x3ca5ceba	0.020240176
7	0x3e122b96	0.14274439
8	0x3de733a3	0.11289146
9	0x3dc1d5c3	0.094646
10	0xbdcb9efb	-0.099424325
11	0xbd095e98	-0.033537477
12	0xbe18fdcf	-0.1494057
13	0xbdc0921a	-0.09402867
14	0x3e417560	0.18892431
15	0x3df3bb36	0.11900942
16	0xbb974a57	-0.0046170163
17	0xbdc4dbbf	-0.09612226
18	0x3d9c0ba7	0.0761941
19	0x3dea43f0	0.11438739
20	0x3e4190d4	0.18902904
21	0x3c8ba5c3	0.017046815
22	0xbd88f618	-0.06687564
23	0xbdeeac10	-0.11653912
24	0xbd325450	-0.043537438
25	0x3c24cea8	0.010059036
26	0xbd1aaa2f	-0.037759956
27	0x3e00f157	0.12592064
28	0x3d899f6f	0.06719863
29	0xbe0dd1c3	-0.13849549
30	0x3e05da5b	0.13071577
31	0xbd9abfa8	-0.07556087
32	0xbdb365f3	-0.0875968
33	0xbd5561cb	-0.052095216
34	0x3e201aec	0.1563527
35	0x3e34287a	0.17593566
36	0x3d7b0810	0.061286986
37	0xbde698fd	-0.11259649
38	0xbde39d7e	-0.111140236
39	0xbe0fa020	-0.14025927
40	0x3dceb515	0.100931324
41	0x3d6c7ba3	0.057735097
42	0x3da96521	0.08271242
43	0x3e3dcc00	0.18534851
44	0x3d8efaff	0.069814675
45	0xbd4aaa9c	-0.049479112
46	0x3e321b4b	0.17393224
47	0xbbe83de0	-0.007087454
48	0xbe31d1ca	-0.17365184
49	0xbcd5f6cd	-0.02611866
50	0xbdc0232a	-0.09381707
51	0xbe019eb6	-0.126582
52	0xbd05d64b	-0.03267507
53	0x3dbb03cf	0.09131586
54	0x3e180edb	0.14849417
55	0x3e07b33c	0.13251966
56	0x3de22ede	0.110440955
57	0xbe007bc0	-0.12547207
58	0x3d3d6c2a	0.04624573
59	0xbd5c7909	-0.053826366
60	0xbe18fc6c	-0.14940041
61	0xbe0a9b47	-0.13535796
62	0x3d7547b9	0.059882853
63	0x3c942060	0.018081844
64	0x3db28708	0.087171614
65	0xbe0dca1f	-0.13846634
66	0x3d0f9629	0.035055313
67	0xbc82ebed	-0.015981639
68	0xbe0d19bb	-0.13779347
69	0x3dc54b06	0.0963345
70	0xbdc8ad69	-0.097987
71	0xbd915347	-0.07095962
72	0x3e16166e	0.14656994
73	0xbd3dfc3f	-0.04638314
74	0xbd33fc31	-0.04394168
75	0xbdae3d0e	-0.08507739
76	0xbe1029e0	-0.14078474
77	0xbda35ae7	-0.079763226
78	0xbdaedbe8	-0.085380375
79	0xbe17706f	-0.14788984
80	0xbd5bc75a	-0.053656913
81	0x3e11523e	0.14191529
82	0xbc2fd16c	-0.010731082
83	0x3e20d4f5	0.15706237
84	0x3da17ae7	0.0788477
85	0x3e15ec69	0.14640965
86	0x3e1bcfdd	0.15216012
87	0xbcb27fb0	-0.021789402
88	0xbdacb9c1	-0.08433867
89	0x3d172d95	0.036908705
90	0x3d6833f9	0.05669019
91	0x3b999471	0.004686885
92	0x3c96b14c	0.018395089
93	0xbd8cf448	-0.068825305
94	0xbb399a59	-0.0028320758
95	0x3cb0132a	0.021493513
96	0xbe03c115	-0.12866624
97	0x3d8adeb8	0.067807615
98	0xbd8762d9	-0.066106506
99	0xbe0b49cb	-0.13602369
100	0x3d8b9974	0.06816378
101	0x3d11aec0	0.035567045
102	0x3c64c1b0	0.013962194
103	0xbda175d6	-0.078838035
104	0x3cd283f8	0.025697693
105	0x3ddde5fe	0.10834883
106	0xbdf3c262	-0.1190231
107	0x3df419b2	0.119189635
108	0xbde26b82	-0.11055662
109	0xbdfd270b	-0.123609625
110	0xbd84e022	-0.064880624
111	0xbdd139ef	-0.10216128
112	0x3d28a100	0.041169167
113	0x3e04fa41	0.1298609
114	0xbe0f5714	-0.13998061
115	0xbd6c84b0	-0.05774373
116	0xbd4a6abc	-0.049418196
117	0xbd4328f0	-0.047646463
118	0x3d92c056	0.071655914
119	0xbe2cea04	-0.16886145
120	0xbe1c99a8	-0.1529299
121	0xbd3533a8	-0.044238716
122	0xbe10a744	-0.14126307
123	0x3df63b7a	0.12023063
124	0xbd464c20	-0.048412442
125	0x3cc36af8	0.023854718
126	0x3d834198	0.064089954
127	0xbddb9092	-0.10720934
128	0x3d4c4860	0.04987371
129	0x3d8cce88	0.0687533
130	0x3d95a20a	0.07306297
131	0xbe008e2a	-0.12554231
132	0xbd91129b	-0.07083627
133	0x3d7db4ec	0.06194012
134	0xbe1a726b	-0.1508271
135	0xbdd29c69	-0.10283739
136	0x3db68f08	0.08914
137	0x3e1375b0	0.14400363
138	0xbe01c187	-0.12671481
139	0x3de6cf0f	0.11269962
140	0xbda3e1ef	-0.08002078
141	0xbe34f221	-0.1767049
142	0x3d6b776f	0.057486948
143	0xbe46d4c2	-0.19417098
144	0xbdf9d72b	-0.12199243
145	0xbda8fbe2	-0.08251168
146	0xbd46168f	-0.048361357
147	0xbde140a2	-0.10998656
148	0x3cb61d81	0.022230865
149	0xbd07ca58	-0.033151954
150	0xbd5ab24b	-0.05339269
151	0x3d5a5032	0.053299136
152	0x3e2f5ef3	0.17126064
153	0x3c40bc56	0.011763653
154	0x3d0864c5	0.033299226
155	0xbd566ea5	-0.052351613
156	0xbd6c5200	-0.05769539
157	0x3da198d2	0.07890476
158	0x3e27a510	0.1637156
159	0x3b6cb7b5	0.003612024
160	0xbe306619	-0.17226447
161	0xbd7f2e84	-0.06230022
162	0xbe30cf6b	-0.17266624
163	0x3b567347	0.003272252
164	0xbd222674	-0.039587453
165	0x3db42d06	0.0879765
166	0xbe19ecef	-0.15031789
167	0xbb2d0a78	-0.0026403945
168	0x3d673b28	0.0564529
169	0x3cb224a7	0.021745993
170	0x3d3ea078	0.046539754
171	0xbdf1667a	-0.11787124
172	0x3d9d7815	0.076889195
173	0xbe34e1a6	-0.17664203
174	0x3de6dffd	0.11273191
175	0xbd805765	-0.06266669
176	0xbdb74eb3	-0.089505576
177	0x3d8898f6	0.066698
178	0xbd1843ba	-0.037173964
179	0x3c4a33b1	0.012341426
180	0x3cf69220	0.030098975
181	0x3d84a7b7	0.064773016
182	0xbe089078	-0.1333636
183	0x3e05a6c5	0.13051899
184	0xbe133294	-0.14374763
185	0x3cd97b80	0.026548147
186	0xbe28e0aa	-0.16491953
187	0x3d94e5a2	0.072703615
188	0xbe1a83f4	-0.15089399
189	0xbe11c54f	-0.14235424
190	0xbdd3c7f1	-0.1034087
191	0xbb35eea8	-0.0027760658
192	0x3db81f93	0.08990397
193	0xbe2be012	-0.16784695
194	0x3cae3750	0.02126661
195	0xbdf30e24	-0.118679315
196	0x3e14df29	0.14538254
197	0x3cfccbe6	0.030858945
198	0x3de21bb3	0.110404395
199	0x3df8cc10	0.12148297
200	0x3df1e591	0.118113644
201	0xbde66861	-0.112503774
202	0x3d90c434	0.07068673
203	0xbdf09e7a	-0.11748977
204	0xbdfbc63e	-0.12293671
205	0xbd917d3f	-0.07103967
206	0x3d17d361	0.03706682
207	0xbb85a191	-0.004078098
208	0x3d498861	0.049202327
209	0xbe146a9d	-0.14493795
210	0x3c97d431	0.018533798
211	0x3e52000e	0.20507833
212	0x3df3ff98	0.11913985
213	0xbe0172de	-0.12641475
214	0xbe3faa0e	-0.18717214
215	0x3e142fb0	0.14471316
216	0x3cc36c9d	0.023855502
217	0x3e0a2c04	0.13493353
218	0x3e05b360	0.13056707
219	0x3c9b2924	0.018940516
220	0xbdc3639d	-0.09540484
221	0x3cd1dcbe	0.025617953
222	0x3e1e85eb	0.15480773
223	0x3d896bc2	0.06710006
224	0x3df65c62	0.120293394
225	0x3e24b29d	0.1608376
226	0x3cafd378	0.02146314
227	0xbdad8e42	-0.08474399
228	0x3da6670e	0.08125125
229	0xbe24be6e	-0.16088268
230	0x3c982b78	0.018575415
231	0xbdd5e7bb	-0.1044459
232	0xbdc1e348	-0.094671786
233	0xbe141063	-0.14459376
234	0xbd815260	-0.0631454
235	0xbdeb7834	-0.11497536
236	0xbd44c380	-0.048038006
237	0xbd9add83	-0.07561781
238	0xbdce4d02	-0.10073282
239	0x3d0a5fb0	0.03378266
240	0xbe0e1d96	-0.13878474
241	0xbdb021ef	-0.08600222
242	0xbda02771	-0.07820023
243	0x3cef9a10	0.029248267
244	0x3e18b327	0.14912091
245	0xbdb05c70	-0.08611381
246	0x3d857434	0.065163046
247	0xbe2e774b	-0.17037694
248	0x3e31df23	0.17370276
249	0xbd4390bc	-0.04774545
250	0x3cbd0578	0.023073897
251	0x3da064f6	0.07831757
252	0x3d801480	0.0625391
253	0xbd4e9d84	-0.050443187
254	0xbe28f4fb	-0.16499703
255	0xbd814aa1	-0.063130625

fc2.bias f4 [16]
0	0xbde9c082	-0.11413671
1	0xbdd8c51b	-0.1058447
2	0x3d6e5ce4	0.058194056
3	0xbe0c60eb	-0.13708846
4	0xbd8d84eb	-0.06910118
5	0xbda209f6	-0.07912056
6	0xbe3ce0e3	-0.18445162
7	0xbdef525f	-0.11685633
8	0x3ce3782e	0.027767267
9	0xbd2bd744	-0.04195334
10	0xbce59b5b	-0.02802818
11	0x3de7e29a	0.11322518
12	0x3d54fa31	0.051996414
13	0xb9284dc3	-0.00016050697
14	0x3e604b47	0.21903716
15	0x3e39fed0	0.1816361

fc3.weight f4 [6, 16]
0	0xbca2dc56	-0.019880455
1	0xbe1fdc02	-0.1561127
2	0xbd7c3698	-0.061575502
3	0xbe091102	-0.13385394
4	0x3e2e5666	0.17025146
5	0xbe462563	-0.193502
6	0xbe47d4fe	-0.19514844
7	0x3cc9ea40	0.024647832
8	0x3e93610c	0.28784978
9	0xbe363200	-0.17792511
10	0xbc87bb56	-0.01656882
11	0x3e617ca5	0.22020204
12	0x3e16a0fe	0.14709851
13	0xbcfcfb6e	-0.03088161
14	0xbea3ae05	-0.31968704
15	0x3ddf2801	0.10896302
16	0x3e4d93ca	0.20075908
17	0xbe5765cd	-0.21034928
18	0x3e5764e7	0.21034585
19	0x3e17e54a	0.1483356
20	0x3e4874af	0.19575761
21	0x3dd4a1df	0.10382437
22	0x3e1483f8	0.14503467
23	0xbd64daf8	-0.055872887
24	0xbe63c1a6	-0.2224184
25	0x3e88d24f	0.26722953
26	0x3df69a9c	0.12041208
27	0x3d4bcd2a	0.049756207
28	0xbe2d515a	-0.16925564
29	0xbe62dc28	-0.22154295
30	0xbcff5440	-0.031168103
31	0xbc61784a	-0.013761589
32	0xbe51f784	-0.20504576
33	0xbe0af426	-0.13569698
34	0x3d9d98a8	0.076951325
35	0x3d9f7814	0.07786575
36	0x3e3da051	0.18518187
37	0xbcae4c92	-0.021276746
38	0x3d34c24b	0.044130605
39	0xbe5cea06	-0.21573648
40	0xbe23943f	-0.1597452
41	0x3e18979c	0.14901584
42	0xbe2b50f4	-0.167301
43	0x3e4861d3	0.19568567
44	0xbde80599	-0.11329193
45	0xbc9d1631	-0.01917562
46	0x3d8de978	0.06929296
47	0xbc7a287e	-0.015268443
48	0xbd834f46	-0.064116046
49	0x3c148c98	0.009066723
50	0x3d77c254	0.06048806
51	0x3d885e10	0.06658566
52	0xbe244bea	-0.16044584
53	0x3c11aa90	0.008890763
54	0x3dc76d0c	0.09737596
55	0xbe7ecbf0	-0.24882483
56	0xbd0fcf91	-0.03511006
57	0xbe40cb80	-0.18827629
58	0xbe6422a2	-0.22278836
59	0xbddc07d4	-0.107436806
60	0x3e00c3fb	0.1257476
61	0xbdcab872	-0.098984614
62	0x3e448890	0.1919272
63	0xbe37abd6	-0.17936644
64	0xbe49209b	-0.19641344
65	0xbd21dc33	-0.03951664
66	0xbdb9cfe7	-0.09072857
67	0xbd3cbdd8	-0.046079487
68	0xbc9ceb82	-0.019155268
69	0x3e6ec670	0.23317885
70	0x3e3f023f	0.186532
71	0xbde75c1c	-0.11296865
72	0xbc9330fc	-0.017967694
73	0x3e82785b	0.2548245
74	0xbe24c565	-0.16090925
75	0xbd691771	-0.05690712
76	0xbd1da030	-0.038482845
77	0xbe3c277e	-0.1837444
78	0x3e16a4ee	0.14711353
79	0xbd6c474e	-0.05768519
80	0xbe384804	-0.17996222
81	0xbd8e2e07	-0.06942373
82	0x3de67e75	0.112545885
83	0xbd275380	-0.040851116
84	0xbd917f64	-0.07104376
85	0x3e697c58	0.2280134
86	0xbe660d17	-0.22465931
87	0xbe0ba122	-0.13635686
88	0x3e0b6334	0.13612062
89	0xbdb36e32	-0.087612525
90	0x3e1507bd	0.14553733
91	0x3ddc9eea	0.10772498
92	0xbe85b08c	-0.26111257
93	0xbe11021b	-0.1416096
94	0x3e284011	0.1643069
95	0x3d920a74	0.071309

fc3.bias f4 [6]
0	0x3e58ccc7	0.21171866
1	0x3dfd7328	0.1237548
2	0xbdcd27c3	-0.100173496
3	0x3e87b6a3	0.26506528
4	0x3e310b1a	0.17289391
5	0x3e3b0faa	0.18267694
