model/model_mlp_f6_c70.pth (torch_old, 4429 bytes, 6 tensors)

fc1.weight f4 [32, 6]
0	0x3ea529a6	0.32258338
1	0x3eb580d4	0.3544985
2	0x3e2db7db	0.16964667
3	0xbe4fb23d	-0.20282836
4	0xbdd8c400	-0.10584259
5	0x3ece982c	0.40350473
6	0xbe17ef12	-0.14837292
7	0x3eac9403	0.33706674
8	0x3e9ee490	0.31033754
9	0xbea25cd9	-0.31711462
10	0xbdbd0d5e	-0.09231065
11	0x3e3795ff	0.17928313
12	0xbebb6c01	-0.36605838
13	0xbeaf224a	-0.34205848
14	0xbe5792b8	-0.21052063
15	0xbe948c2e	-0.290132
16	0x3e4a9618	0.19783819
17	0xbe3e1947	-0.1856433
18	0x3de77e7a	0.1130342
19	0x3e0dc392	0.13844135
20	0x3ec533c5	0.3851606
21	0xbe17ca1a	-0.1482319
22	0x3dba1f54	0.090880066
23	0xbe85e859	-0.2615383
24	0xbba91492	-0.005159923
25	0x3d8a8d3f	0.06765222
26	0xbd337e7b	-0.043821793
27	0x3df53255	0.11972491
28	0xbec2459e	-0.3794374
29	0x3ea8180b	0.32830843
30	0xbe6e079c	-0.2324509
31	0xbe1de3f5	-0.1541899
32	0xbec52e03	-0.38511667
33	0xbce056ab	-0.027385077
34	0x3e86a882	0.26300436
35	0x3e8280ff	0.2548904
36	0x3e9cc3ce	0.30618137
37	0x3ec521ac	0.38502252
38	0xbeb48b95	-0.35262743
39	0x3ebbd937	0.3668916
40	0xbede256c	-0.43387926
41	0xbe4504e5	-0.19240148
42	0xbe5d21a1	-0.2159486
43	0x3cad012e	0.021118727
44	0xbe18e41f	-0.14930771
45	0x3ec8a7cc	0.3919052
46	0x3eb9e63b	0.36308464
47	0x3e23d43a	0.15998927
48	0x3e606c08	0.2191621
49	0x3eaa7255	0.33290353
50	0xbe018c59	-0.12651195
51	0x3c32b16f	0.010906561
52	0xbe814576	-0.25248307
53	0xbdadfab4	-0.084950835
54	0xbec1774e	-0.37786335
55	0xbe17da0e	-0.14829275
56	0xbde9a3b5	-0.11408178
57	0x3df4ae03	0.119472526
58	0xbd513d23	-0.051083695
59	0x3e2b01f6	0.16699967
60	0x3ca4ab3a	0.020101178
61	0x3e454d51	0.19267775
62	0xbe2971a6	-0.1654726
63	0xbe1a8f91	-0.15093829
64	0x3e237dc2	0.15965942
65	0xbe851dfa	-0.25999433
66	0xbe9419e3	-0.28926
67	0xbe0d22ee	-0.13782856
68	0x3d17ec08	0.03709033
69	0x3e575f81	0.21032526
70	0x3daaa6aa	0.0833257
71	0x3e961ebc	0.29320323
72	0xbec1fdd6	-0.37888974
73	0xbd91f1e0	-0.07126212
74	0x3e2fe170	0.17175841
75	0x3da8ff76	0.0825185
76	0xbe1f4695	-0.15554269
77	0xbe1a95ca	-0.15096202
78	0xbea1b60a	-0.31584197
79	0x3ea23411	0.3168035
80	0xbeb5f66a	-0.35539562
81	0x3b947fce	0.004531837
82	0x3c2b2202	0.01044512
83	0x3d148709	0.036261592
84	0x3ea5d896	0.32391804
85	0xbe451583	-0.19246487
86	0xbe94c506	-0.29056567
87	0x3b945f9e	0.004528
88	0xbd3ae3ef	-0.04562753
89	0x3ec3f0fe	0.382698
90	0x3e63c9c3	0.22244935
91	0xbe83038c	-0.25588644
92	0x3be7d608	0.007075075
93	0xbe2c35e9	-0.1681744
94	0x3ebad17b	0.36487946
95	0x3cdfbd41	0.027311923
96	0x3eb905c3	0.36137208
97	0x3a257b95	0.00063126656
98	0xbe0364da	-0.1283144
99	0x3e8754f7	0.2643201
100	0xbcde4c88	-0.027136102
101	0xbe09ff14	-0.13476211
102	0x3eabf74b	0.33587107
103	0x3ec25f09	0.3796313
104	0xbe14d940	-0.14536
105	0xbc4095da	-0.011754477
106	0xbeb6d014	-0.35705626
107	0x3eb7d080	0.3590126
108	0xbd82083a	-0.06349225
109	0x3da5b1d6	0.0809056
110	0xbd3ae8ef	-0.0456323
111	0x3eb4b7e5	0.3529655
112	0xbd9d16c8	-0.07670361
113	0x3d8cd99e	0.06877445
114	0xbeb23440	-0.3480549
115	0x3eb79ef0	0.35863447
116	0x3eafe409	0.34353665
117	0xbe644b07	-0.22294246
118	0xbe3cb28b	-0.18427484
119	0xbea80c27	-0.32821772
120	0x3e9e78ea	0.30951625
121	0xbe8bd6e3	-0.27312383
122	0x3e2684a4	0.16261536
123	0xbe6b2ad0	-0.2296555
124	0xbec72920	-0.38898563
125	0xbeb8155e	-0.35953802
126	0xbeb2adce	-0.34898227
127	0xbe754d47	-0.2395526
128	0x3e286cbf	0.16447733
129	0xbecf0537	-0.40433666
130	0xbe5d0023	-0.21582083
131	0xbe6d3f22	-0.23168615
132	0x3c20161c	0.009770896
133	0x3cc1723b	0.02361404
134	0xbde8a207	-0.11359029
135	0xbd1bef15	-0.038069803
136	0xbeb5e7af	-0.35528323
137	0x3da9c868	0.082901776
138	0x3dec7422	0.11545588
139	0x3ec3b286	0.3822214
140	0xbe8df82a	-0.27728397
141	0x3e14fe6a	0.14550176
142	0xbda07e0c	-0.078365415
143	0x3d7e4157	0.06207403
144	0xbe2ba10b	-0.16760652
145	0x3e95eafa	0.29280835
146	0x3d226eb8	0.03965637
147	0x3eb49c8c	0.35275686
148	0xbeb244a8	-0.34818006
149	0xbc8f34d1	-0.01748124
150	0xbea87297	-0.32899925
151	0x3e1b4a0e	0.15164968
152	0xbdd389d7	-0.10329025
153	0xbea951b7	-0.33070156
154	0xbeb90d1b	-0.3614281
155	0x3ec24533	0.3794342
156	0x3e25dd3e	0.16197678
157	0xbe5bd353	-0.21467333
158	0xbda25ac9	-0.07927472
159	0x3bf55eaa	0.0074880915
160	0xbc564310	-0.013077512
161	0xbea23143	-0.3167821
162	0x3e5cb8aa	0.21554819
163	0xbec0c96c	-0.37653673
164	0xbea0ab2c	-0.31380594
165	0xbe46f24e	-0.1942837
166	0xbda359c2	-0.07976104
167	0x3da18bfd	0.07888029
168	0x3d1ff924	0.03905596
169	0x3eb32a82	0.34993368
170	0xbe30a5cd	-0.17250748
171	0x3e2d3cfd	0.16917796
172	0x3a7e94a9	0.0009711483
173	0xbe9fa89d	-0.3118333
174	0x3d8417b4	0.064498335
175	0x3c884bc3	0.016637689
176	0x3ccc564d	0.024943495
177	0x3e32912d	0.17438193
178	0xbe676f81	-0.22601129
179	0x3dbeb74a	0.09312303
180	0x3dfdf25a	0.123997405
181	0x3d185439	0.037189696
182	0xbe860a2c	-0.26179636
183	0x3dbd7f06	0.092527434
184	0xbea7d95e	-0.32783026
185	0x3e8aa9fe	0.2708282
186	0x3d74996e	0.059716634
187	0x3e6a536e	0.22883388
188	0x3daa3124	0.08310154
189	0x3e213230	0.15741801
190	0xbe6971fd	-0.2279739
191	0x3eb03ae0	0.34419918

fc1.bias f4 [32]
0	0xbdf79348	-0.120886385
1	0x3e0b80b5	0.13623317
2	0x3e22db46	0.15903959
3	0xbd0be1c7	-0.034150865
4	0x3e572cfc	0.21013254
5	0x3e3b627f	0.18299292
6	0xbc08b25e	-0.008343307
7	0x3d55e8cf	0.052223977
8	0xbcf321b8	-0.029679164
9	0xbe99547a	-0.29947263
10	0x3de4804f	0.111572854
11	0xbe3ca7d7	-0.18423401
12	0x3ea052cc	0.3131317
13	0x3c494e19	0.012286686
14	0xbdaa4121	-0.083132036
15	0xbca52bf5	-0.020162562
16	0x3dbe1a0f	0.09282314
17	0xbe811a17	-0.25215217
18	0x3ecbe96a	0.39826518
19	0xbd79c4e0	-0.06097877
20	0x3e2f630b	0.17127626
21	0x3e5a5a39	0.2132348
22	0x3ce7c469	0.028291898
23	0x3e8274a0	0.25479603
24	0x3e90ae42	0.28257948
25	0xbd673ae7	-0.056452658
26	0xbec86985	-0.39143005
27	0x3ed3f298	0.41396022
28	0x3e2cbb3c	0.16868299
29	0x3e6b075f	0.2295203
30	0xbeca0a05	-0.3946077
31	0xbebc63cd	-0.36794892

fc2.weight f4 [16, 32]
0	0xbe34cc8d	-0.17656155
1	0xbc0b557f	-0.008504271
2	0xbdd62068	-0.104554
3	0x3d9d98af	0.07695138
4	0x3df7019d	0.120608546
5	0xbc283435	-0.010266353
6	0x3dd8cce9	0.105859585
7	0xbe033211	-0.12812068
8	0x3cea206b	0.028579911
9	0x3df3b671	0.11900032
10	0xbad7c446	-0.0016461692
11	0xbe30ab53	-0.17252855
12	0x3e16e1ae	0.14734527
13	0x3d02acee	0.0319032
14	0xbd32ffdc	-0.043701038
15	0xbdc717ff	-0.09721374
16	0xbd878bb4	-0.06618443
17	0xbdec3cfe	-0.11535071
18	0x3ce699a2	0.02814943
19	0xbcb99216	-0.022652667
20	0x3dd0547c	0.10172364
21	0xbde2864f	-0.110607736
22	0xbdc120f8	-0.094301164
23	0xbe2b23df	-0.16712902
24	0x3b22de7e	0.0024851854
25	0xbe0f1271	-0.13971879
26	0x3e0ece4d	0.13945885
27	0x3e346dfc	0.1762008
28	0xbc327861	-0.010892958
29	0x3d9761e1	0.07391716
30	0x3c9c6af3	0.019093966
31	0xbda21bef	-0.07915484
32	0xbe04d5f8	-0.12972248
33	0xbe202e18	-0.15642583
34	0x3bc4c9d9	0.0060055074
35	0xbdd3cffe	-0.10342406
36	0x3b51f439	0.0032036437
37	0xbe2ff419	-0.1718296
38	0xbcef0f97	-0.029182239
39	0xbdab4b34	-0.08363953
40	0x3dbbc50c	0.09168443
41	0x3db82bf6	0.0899276
42	0x3db5b3d8	0.08872193
43	0xbe254ea4	-0.1614328
44	0xbd6d054a	-0.057866372
45	0xbd5ab382	-0.05339385
46	0x3d1fa808	0.038978606
47	0xbe04fdae	-0.12987396
48	0x3e14721d	0.14496656
49	0xbc0800c6	-0.008300966
50	0xbe2aa724	-0.16665322
51	0xbe039b05	-0.12852104
52	0x3e1e70bc	0.15472692
53	0xbd668272	-0.056276746
54	0xbd9b437f	-0.07581233
55	0x3d177508	0.036976844
56	0xbd6ae105	-0.0573435
57	0xbc9a0b71	-0.018804284
58	0xbde13970	-0.109972835
59	0x3ba80462	0.0051274756
60	0x3d06ba85	0.032892723
61	0x3ca5dbc7	0.0202464
62	0xbd86ea8b	-0.06587704
63	0x3d9ef8f4	0.07762328
64	0xbdc45e0c	-0.095882505
65	0x3da5e005	0.08099369
66	0xbcf244d1	-0.02957383
67	0xbc9bb098	-0.019005105
68	0xbd739465	-0.059467692
69	0xbda28ced	-0.07937036
70	0xbd08d1ad	-0.033403087
71	0x3ca00950	0.01953569
72	0x3dc2e0a7	0.09515505
73	0x3de35baa	0.11101468
74	0xbddf37c5	-0.10899309
75	0xbc938d68	-0.018011764
76	0xbcd5393a	-0.026028264
77	0xbde89ea2	-0.11358382
78	0xbe0ac270	-0.13550735
79	0x3dcf850e	0.101328
80	0xbd6858c6	-0.056725286
81	0xbe0bc4e9	-0.13649334
82	0xbca178d6	-0.01971094
83	0x3e1e61f1	0.15467049
84	0x3dfd3d9e	0.12365268
85	0xbdad68ea	-0.084672764
86	0xbd231e28	-0.03982368
87	0x3c9454a7	0.018106772
88	0xbd885f31	-0.06658781
89	0x3b13bc32	0.0022542593
90	0x3ce96109	0.028488653
91	0x3e0233ce	0.12715074
92	0x3dc2a43f	0.09503984
93	0x3dbe21dd	0.09283803
94	0x3cdc1679	0.026866185
95	0x3de6f58b	0.11277302
96	0x3df74669	0.120739765
97	0xbe1d032a	-0.15333238
98	0x3df95690	0.121747136
99	0xbcf4acb6	-0.029867511
100	0x3de25729	0.11051781
101	0xbe22d50e	-0.15901586
102	0xbe148673	-0.14504413
103	0x3e004e3e	0.12529847
104	0xbd56d8cb	-0.052452844
105	0xbdb41b69	-0.087942906
106	0xbdec0ea9	-0.11526234
107	0xbde02b6a	-0.109457806
108	0xbd1684eb	-0.036747854
109	0xbdbd5f24	-0.09246662
110	0x3e31d223	0.17365317
111	0x3c040be1	0.008059473
112	0xbe1dbf21	-0.15404941
113	0xbde3fb4e	-0.11131917
114	0xbe02d5c8	-0.12776864
115	0x3de554e1	0.1119783
116	0xbe05b126	-0.13055858
117	0xbd9e0fcb	-0.07717856
118	0x3df75742	0.1207719
119	0x3e0f1a89	0.13974966
120	0xbe164121	-0.14673282
121	0x3d8e7851	0.06956542
122	0xbd23dcbe	-0.040005438
123	0x3dd8cab1	0.10585535
124	0x3d0c3180	0.034226894
125	0x3e0fde7f	0.1404972
126	0x3d7ac046	0.061218522
127	0x3da17a43	0.07884648
128	0xbe30abe2	-0.17253068
129	0x3e07041d	0.13185163
130	0x3d8caef2	0.06869306
131	0x3ccab9eb	0.024746856
132	0xbe23fc48	-0.16014206
133	0xbd2d84f2	-0.042363115
134	0x3e25d8d1	0.1619599
135	0xbc3f449d	-0.0116740735
136	0x3da351bc	0.07974574
137	0xbb39f002	-0.0028371816
138	0xbe165bc0	-0.14683437
139	0x3dc40aee	0.09572397
140	0xbe16981a	-0.1470646
141	0xbe254b6e	-0.16142055
142	0xbe11c3e1	-0.14234878
143	0x3d3e0888	0.046394855
144	0xbd0ae5fc	-0.033910736
145	0xbe2b3620	-0.16719866
146	0xbd05c5b0	-0.032659233
147	0xbde45538	-0.11149067
148	0x3db275a7	0.08713847
149	0x3e23609d	0.15954824
150	0xbe26e596	-0.16298518
151	0xbd74cef4	-0.05976768
152	0xbdd3c541	-0.103403576
153	0x3e0cd624	0.13753563
154	0x3db4b438	0.088234365
155	0xbe30cee9	-0.1726643
156	0x3d145917	0.036217775
157	0xbd792176	-0.060822926
158	0x3e18b855	0.14914067
159	0xbe20e2e2	-0.15711549
160	0x3ddfb0bb	0.109223805
161	0xbdbc8360	-0.09204745
162	0x3dbe5905	0.09294323
163	0x3d3a06d2	0.04541666
164	0xbb6ee65a	-0.0036453218
165	0xbdad593b	-0.08464285
166	0xbdd11409	-0.102088995
167	0x3dc03cdb	0.09386607
168	0x3e0e897f	0.13919638
169	0xbdb2df1a	-0.087339595
170	0xbd974b04	-0.07387355
171	0xbd140451	-0.03613693
172	0x3e15bb56	0.14622244
173	0x3dbd74b7	0.09250777
174	0xbd42ac99	-0.047527883
175	0xbe2417de	-0.1602473
176	0x3dc91a14	0.09819427
177	0xbd9ad037	-0.07559245
178	0x3d12f225	0.03587546
179	0x3d9a277b	0.075270616
180	0xbe2fe21c	-0.17176098
181	0xbdf0d104	-0.117586166
182	0xbde97972	-0.11400117
183	0xbced121e	-0.028939303
184	0x3d65bc7e	0.056087963
185	0x3dd4b1ba	0.10385461
186	0xbd0b3964	-0.03399028
187	0xbdbbb26b	-0.0916489
188	0x3c623ed5	0.013808926
189	0xbe1dcbbe	-0.15409753
190	0x3d3d700d	0.046249438
191	0xbdebd622	-0.11515452
192	0x3d715441	0.05891824
193	0xbe583814	-0.21115142
194	0x3ddd248a	0.10797985
195	0xbdbd996b	-0.09257778
196	0xbd9cc692	-0.07655062
197	0x3dfa736d	0.12229047
198	0x3d918cb9	0.07106919
199	0x3db05ae8	0.08611089
200	0x3dd4584c	0.10368404
201	0x3e1dc54f	0.15407299
202	0xbe121191	-0.14264514
203	0x3dfb2f80	0.12264919
204	0x3e22c4df	0.15895413
205	0x3d19f0cd	0.03758316
206	0x3d8e0c84	0.06935981
207	0xbd7b9fe5	-0.061431784
208	0xbdfd07fb	-0.12355038
209	0x3d81142b	0.06302675
210	0x3d9439f8	0.07237619
211	0x3d281676	0.041037045
212	0xbd83b5a4	-0.064311296
213	0x3e1d74af	0.15376543
214	0xbd2360fc	-0.039887413
215	0xbdd16dc6	-0.10226016
216	0x3c158ec1	0.009128273
217	0xbe1f1ab6	-0.15537533
218	0x3ccb1063	0.024788087
219	0x3ca50ea1	0.020148577
220	0x3d06b357	0.032885876
221	0xbd55107e	-0.05201768
222	0x3dcec063	0.100952886
223	0xbc51b76f	-0.012800082
224	0xbd1f94f6	-0.03896042
225	0x3dcf1bf3	0.10112753
226	0x3d86c26c	0.06580052
227	0xbe1e1dcb	-0.15441053
228	0x3e47b1f2	0.19501474
229	0xbc2a354d	-0.010388684
230	0xbd31f56f	-0.043446954
231	0xbd4e042d	-0.05029695
232	0xbe2019a3	-0.1563478
233	0xbc628ff8	-0.01382827
234	0x3dfa0bfa	0.122093156
235	0x3c175909	0.009237536
236	0x3d3a1203	0.045427334
237	0xbdfd225e	-0.12360071
238	0x3dd8462b	0.105602585
239	0x3d9c6db8	0.07638115
240	0xbe23c67d	-0.15993686
241	0xbd7fcd45	-0.06245162
242	0xbd41a4fe	-0.04727649
243	0x3da652bf	0.08121251
244	0xbd64eee3	-0.055891883
245	0xbe3c6034	-0.18396074
246	0xbd85a7a2	-0.06526114
247	0x3ab1f628	0.0013577389
248	0xbdeeeba4	-0.11666039
249	0xbd7bb0a7	-0.061447766
250	0xbcc94674	-0.024569727
251	0x3e4e513f	0.2014818
252	0x3d144858	0.036201805
253	0x3d9f64ea	0.0778292
254	0x3c693219	0.014233136
255	0x3d827612	0.063701764

fc2.bias f4 [16]
0	0x3e306f3e	0.17229936
1	0x3ce9cc98	0.02853994
2	0x3d9f5f0a	0.07781799
3	0x3d2f33e1	0.042774085
4	0x3e1a7940	0.15085316
5	0x3e5718c2	0.21005538
6	0x3d612700	0.054968834
7	0x3ddab7fd	0.10679624
8	0x3db9f0b1	0.09079111
9	0xbdb8de08	-0.09026724
10	0xbdea5c72	-0.11443414
11	0x3d314d42	0.04328657
12	0xbde15b92	-0.11003794
13	0x3d195798	0.03743705
14	0x3d27efd0	0.041000187
15	0xbdd7a1d8	-0.10528916

fc3.weight f4 [6, 16]
0	0x3dc243d0	0.094855905
1	0x3dd891c3	0.10574677
2	0x3c66b457	0.014081082
3	0xbc87e19c	-0.016587071
4	0x3d2af1d8	0.041734546
5	0xbd48abbf	-0.048991915
6	0xbd3dd485	-0.046345253
7	0xbe8d2376	-0.27566117
8	0xbdfa4cc8	-0.12221676
9	0xbd07471f	-0.03302681
10	0x3e3ea4e6	0.18617591
11	0x3e20d088	0.15704548
12	0x3e4f7739	0.20260324
13	0x3e7f069e	0.24904868
14	0xbd343ee7	-0.0440053
15	0xbda00d00	-0.078149796
16	0xbe4956f3	-0.19662075
17	0xbe676b32	-0.22599486
18	0xbe126341	-0.14295675
19	0xbd4050ff	-0.046952244
20	0x3cea2da2	0.028586213
21	0x3e0a7856	0.13522467
22	0x3d8448ed	0.06459222
23	0x3e5ac874	0.2136553
24	0xbd90996c	-0.07060513
25	0x3e6fd9a8	0.23422873
26	0x3cbb4b2e	0.022862997
27	0xbde95adc	-0.11394283
28	0xbd6675d0	-0.0562647
29	0x3da656da	0.08122034
30	0xbe5ed03c	-0.21759123
31	0x3e85d822	0.2614146
32	0xbe0851d8	-0.13312471
33	0xbe43b709	-0.19112791
34	0x3ca4c21c	0.02011209
35	0x3deaabdb	0.1145856
36	0xbcd9318a	-0.02651288
37	0x3e6e6663	0.23281245
38	0x3e4a4075	0.19751151
39	0x3d362e1c	0.044477567
40	0xbe6c7e5d	-0.23095079
41	0xbe10427b	-0.1408786
42	0x3daffa90	0.08592713
43	0x3cf25ff1	0.029586764
44	0x3e081186	0.13287935
45	0xbe67a3e3	-0.22621112
46	0xbe3a46cb	-0.18191068
47	0xbe535508	-0.20637906
48	0xb9fe34a3	-0.00048485873
49	0x3e7ca4f6	0.24672303
50	0xbe042489	-0.12904562
51	0x3a82a4c1	0.0009967313
52	0x3e3ca964	0.18423992
53	0x3e564730	0.20925593
54	0x3e36183f	0.17782687
55	0x3e326666	0.17421874
56	0xbe06cd82	-0.13164333
57	0xbdec7ec3	-0.115476154
58	0x3e5cf460	0.21577597
59	0x3d6b308c	0.057419345
60	0x3d2596c8	0.040427
61	0xbe254495	-0.16139443
62	0xbdc94b95	-0.09828869
63	0xbd3de72f	-0.046363052
64	0x3d884097	0.066529445
65	0xbc9177a6	-0.017757248
66	0xbd845858	-0.06462163
67	0x3e5ff5ba	0.21871081
68	0x3e7bd81c	0.24594158
69	0x3d01778d	0.031608153
70	0x3e5584e2	0.20851472
71	0x3d732460	0.05936086
72	0xbda73eca	-0.08166273
73	0x3cb677a4	0.022273846
74	0x3dba3282	0.09091665
75	0x3de95db5	0.11394826
76	0x3e3f654e	0.18690988
77	0x3e198954	0.14993793
78	0xbcdc9056	-0.026924293
79	0xbded4e0d	-0.11587153
80	0x3c999cab	0.018751463
81	0x3e1635e0	0.14668989
82	0x3e116178	0.14197338
83	0x3dc0a252	0.0940596
84	0x3e344343	0.17603783
85	0x3e00cb94	0.12577659
86	0x3d7c4e2c	0.061597988
87	0xbe12288b	-0.14273278
88	0x3e7c5c16	0.24644503
89	0x3d92d7d2	0.07170071
90	0xbe10437b	-0.14088242
91	0xbdae7b30	-0.0851959
92	0xbe37b942	-0.17941764
93	0xbd412ed9	-0.047163818
94	0xbddc6dd0	-0.107631326
95	0xbe3928fe	-0.18082044

fc3.bias f4 [6]
0	0x3e39296d	0.18082209
1	0x3d41af05	0.047286052
2	0x3e903377	0.28164265
3	0x3e4a8d11	0.19780375
4	0x3da1a5e1	0.07892967
5	0x3e4702ea	0.19434705
