model/model_vae_jsd_app40_f6_c70_z3.pth (torch_old, 8596 bytes, 14 tensors)

fc1.weight f4 [32, 6]
-0.093428 0.22262311 -0.11040108 0.04369547 -0.04150366 -0.11574044 -0.17059146 0.2774231
-0.06599934 -0.19916901 -0.1282353 -0.25635907 -0.002536254 -0.02289128 -0.16994506 0.14556216
0.24862501 -0.31872532 0.35343102 -0.1493643 0.14360787 0.057266608 0.09111862 -0.24866314
-0.004631667 0.008856872 0.010489462 -0.16556829 -0.16412534 0.24061811 0.22495395 -0.028494788
-0.0055562095 -0.112016715 0.2131404 0.10119497 0.23579794 -0.3497345 0.30638942 0.28897676
-0.2993086 -0.16831154 0.28027478 0.045767237 -0.24099703 0.06629391 0.14527147 -0.029623955
-0.2935937 0.37910587 0.1390732 0.18223004 0.07369509 0.24523668 0.15977676 0.0021436163
-0.099374324 -0.10237302 -0.06290718 0.14257538 -0.019542748 -0.1271058 -0.11606932 -0.104881436
-0.24610189 0.13387643 -0.36872083 -0.12565465 0.3326415 0.3572794 0.014113329 -0.12822111
-0.19544262 -0.3481251 0.32382986 0.40422624 -0.19258282 -0.21530196 0.21534535 -0.50363564
-0.07684714 -0.11317659 -0.20638047 0.32940307 0.3165017 0.21136174 -0.0098462785 0.22380799
0.32114777 -0.2740811 -0.10609831 0.119397655 0.043530606 -0.13002342 -0.17415136 -0.15733534
-0.13459584 -0.33162555 -0.20924139 -0.17029385 0.30656865 0.23446079 -0.37103668 0.35209206
-0.38713974 0.17866008 0.16206567 0.1172498 -0.026549242 0.1215123 0.2877845 -0.06726797
-0.07111016 -0.0072245803 0.20285958 -0.137902 -0.19387594 0.068799965 0.041619487 0.0542627
0.037467677 0.21898897 0.19575676 0.13700946 -0.2156494 -0.25212818 0.23385718 -0.13865638
-0.24980216 -0.062903695 0.02491644 0.16494952 -0.1693434 0.03326091 -0.19044006 -0.3100667
-0.22953837 -0.26265538 -0.23390187 -0.15391009 0.035091992 -0.24066159 0.18847574 0.18617547
0.08445362 -0.10014095 0.31627372 -0.08344616 -0.06022663 -0.1617346 -0.11895512 -0.11354631
-0.1010344 0.09691269 -0.39136446 -0.0011932463 0.21351889 0.37791222 0.14564213 0.13769771
0.21480657 0.011629281 -0.042767115 0.115930535 -0.12885311 0.21653624 -0.3570845 0.037632555
-0.32058463 -0.14456074 0.044358388 0.13402061 0.16004038 -0.17411833 -0.23312102 0.25886896
0.028044106 0.12071279 -0.25173575 -0.36597452 -0.34267765 0.1314171 0.12925278 -0.113351814
-0.38420263 0.35232678 -0.13881642 -0.26615357 0.23510766 -0.10082558 -0.032945834 0.14787456
00000000: 2e57 bfbd 50f7 633e f619 e2bd 05fa 323d
00000010: beff 29bd 5309 edbd 87af 2ebe 670a 8e3e
00000020: a92a 87bd f6f2 4bbe 1d50 03be 7f41 83be
00000030: 4837 26bb 7e86 bbbc 1406 2ebe 3f0e 153e
00000040: 8e97 7e3e f72f a3be e9f4 b43e f4f2 18be
00000050: f10d 133e 6490 6a3d 669c ba3d 8da1 7ebe
00000060: 3dc5 97bb 6a1c 113c fedb 2b3c bc8a 29be
00000070: 7910 28be 9864 763e 545a 663e e76d e9bc
00000080: dd10 b6bb 0569 e5bd 7a41 5a3e 4f3f cf3d
00000090: 0475 713e 6610 b3be 13df 9c3e c3f4 933e
000000a0: fa3e 99be dc59 2cbe 2d80 8f3e 6d76 3b3d
000000b0: edc7 76be 1ac5 873d 0bc2 143e f0ad f2bc
000000c0: ea51 96be 2a1a c23e 3469 0e3e 839a 3a3e
000000d0: 74ed 963d 531f 7b3e 859c 233e ea7b 0c3b
000000e0: c484 cbbd f2a8 d1bd 7bd5 80bd 48ff 113e
000000f0: 1d18 a0bc 0628 02be c0b5 edbd 14cc d6bd
00000100: 2202 7cbe e716 093e fac8 bcbe 9dab 00be
00000110: fd4f aa3e 53ed b63e 983b 673c 654c 03be
00000120: 1c22 48be 743d b2be 07cd a53e bef6 ce3e
00000130: 6e34 45be 1e78 5cbe 7e83 5c3e 44ee 00bf
00000140: 0962 9dbd 21c9 e7bd 6755 53be 85a7 a83e
00000150: 830c a23e 366f 583e 4952 21bc ec2d 653e
00000160: 7b6d a43e 5c54 8cbe 124a d9bd c286 f43d
00000170: 264d 323d dc24 05be bc54 32be 841c 21be
00000180: 7ed3 09be d3ca a9be 6043 56be 8361 2ebe
00000190: 91f6 9c3e 7d16 703e 85f8 bdbe 6945 b43e
000001a0: 2e37 c6be abf2 363e 8bf4 253e aa20 f03d
000001b0: cc7d d9bc 71db f83d 7d58 933e cac3 89bd
000001c0: 34a2 91bd 2cbc ecbb 6cba 4f3e 2f36 0dbe
000001d0: 6a87 46be ffe6 8c3d 3279 2a3d 9142 5e3d
000001e0: b577 193d a53e 603e 7674 483e 354c 0c3e
000001f0: 32d3 5cbe f216 81be 4278 6f3e f0fb 0dbe
00000200: 23cc 7fbe a7d3 80bd 901d cc3c 87e8 283e
00000210: 5b68 2dbe 983c 083d b802 43be 10c1 9ebe
00000220: 1b0c 6bbe c47a 86be f983 6fbe 9b9a 1dbe
00000230: 9fbc 0f3d fe6f 76be c9ff 403e c8a4 3e3e
00000240: 05f6 ac3d b316 cdbd a1ee a13e d2e5 aabd
00000250: 33b0 76bd c19d 25be be9e f3bd f88a e8bd
00000260: 20eb cebd 297a c63d ec60 c8be b466 9cba
00000270: b2a4 5a3e b67d c13e 3623 153e a100 0d3e
00000280: 41f6 5b3e bd88 3e3c 922c 2fbd fd6c ed3d
00000290: 12f2 03be adbb 5d3e c8d3 b6be 9824 1a3d
000002a0: ab23 a4be bb07 14be 24b1 353d b33c 093e
000002b0: a0e1 233e 134c 32be 47b7 6ebe 798a 843e
000002c0: c1bc e53c 4438 f73d 82e3 80be 0361 bbbe
000002d0: 7273 afbe 3492 063e d75a 043e ff24 e8bd
000002e0: 35b6 c4be 2d64 b43e e425 0ebe 4845 88be
000002f0: 10c0 703e a47d cebd 36f2 06bd 6e6c 173e

fc1.bias f4 [32]
0.25590658 -0.3944775 0.13071878 -0.33115697 0.20106241 0.06275407 0.30413473 -0.19589916
0.17670183 0.3702027 0.15414186 0.34328884 0.19723237 0.17906943 0.22660393 0.3363711
0.20605454 -0.11384152 0.16809823 -0.19203445 -0.13350287 -0.18688387 -0.26769102 0.11419059
-0.09660746 -0.41138583 0.13551249 -0.46844274 0.3649195 0.020019552 -0.26938355 0.099874996
00000000: 3006 833e f4f8 c9be 25db 053e 688d a9be
00000010: 4ee3 4d3e 3585 803d 8cb7 9b3e ca99 48be
00000020: 53f1 343e 358b bd3e 5dd7 1d3e 8ec3 af3e
00000030: 48f7 493e fa5d 373e dc0a 683e d538 ac3e
00000040: f6ff 523e be25 e9bd f121 2c3e aea4 44be
00000050: fab4 08be 7c5e 3fbe cc0e 89be c2dc e93d
00000060: 22da c5bd 2aa1 d2be c9c3 0a3e bad7 efbe
00000070: bbd6 ba3e 0b00 a43c a4ec 89be 438b cc3d

fc2.weight f4 [16, 32]
-0.19122773 -3.889935e-05 -0.017996287 -0.08552427 -0.16592157 0.15330768 0.019091122 0.057600677
-0.12991568 0.06558321 0.0046883672 0.041680865 0.08836564 0.15141211 -0.04838975 -0.097730085
-0.083368085 -0.16860807 0.0023028278 0.037828654 0.1060443 0.15389042 -0.035724863 -0.054878674
-0.11837468 0.03785044 -0.020390842 -0.020958846 0.09356396 -0.18644892 0.11667088 -0.08728482
-0.015871646 -0.107584946 0.024911586 0.14524658 0.14710763 0.050656494 -0.008118133 0.011190828
0.043318845 0.09814672 -0.009307885 0.05938773 0.08584731 -0.076652214 -0.011790081 0.09638525
0.10011154 -0.016365461 -2.8151303e-06 -0.023591474 -0.16353136 -0.034821693 -0.13826881 -0.073156476
0.031006055 -0.051125992 0.034285236 0.08443236 0.023666587 0.13994728 -0.11702405 -0.046137106
-0.060256884 -0.07720406 0.12537433 0.008668189 -0.00862231 -0.065635964 -0.17663357 0.19231433
0.081310414 -0.013839094 -0.18441252 -0.082469694 0.10395998 -0.078829534 0.016557846 0.07063274
-0.049886934 0.14590444 -0.03325895 0.014992223 -0.14294052 -0.151208 0.07119055 -0.08563807
0.107553616 -0.13850932 -0.021389674 0.08968029 -0.102276705 -0.03313564 0.057488263 0.028599933
0.20581494 0.033342272 0.11588782 -0.07483848 0.08249912 0.103803836 0.03822751 -0.09432765
-0.0554656 0.20251365 0.03856546 -0.068267874 0.11723095 -0.1088778 -0.19602317 0.020845138
0.08457847 0.043802645 0.13318323 0.027882626 0.12320498 -0.21772821 0.16932197 0.049255103
-0.073146455 0.07305971 0.03319406 -0.18055888 0.009362266 -0.06939494 0.04828928 0.0064547197
-0.0919974 0.08010829 -0.02533554 0.09940698 0.06392553 -0.0047326814 0.09716251 0.119801395
-0.08290094 0.1526972 -0.16444778 -0.14090154 -0.022918515 0.11630095 0.13388418 -0.19930959
-0.024183264 -0.03120948 0.004968892 -0.087957695 0.004602536 -0.19383366 0.1434192 0.02994988
0.091496944 0.036859192 -0.17517258 0.04157638 -0.08198974 -0.011419751 0.046534605 -0.019627247
-0.16832903 -0.1395278 0.022678643 0.057774127 0.11579108 0.1562199 -0.08527983 -0.17571284
0.055426843 0.051744197 -0.0030857804 -0.061270468 0.10888714 -0.04304826 -0.1508889 0.10767422
-0.11269737 -0.029219445 -0.08092605 0.13223255 -0.16243717 0.0014104616 -0.17108828 -0.008921874
-0.05758248 -0.16117619 -0.004294601 -0.04648884 0.014724805 0.08970924 -0.044226844 0.049360834
0.02630968 -0.0313911 -0.102858774 -0.110130385 -0.12849626 0.15632339 -0.11748971 0.08755331
-0.102214046 -0.07884988 0.06867401 -0.15569651 0.041766092 0.15790887 0.09072987 0.070704035
-0.084903814 0.056039874 0.011200588 -0.070919074 -0.17683545 -0.036080375 -0.07620961 0.09036612
0.039411966 0.040779516 -0.091809474 0.0991471 0.10989668 0.1560919 -0.0752112 0.09043215
0.16481917 -0.028609905 0.060757134 -0.07797523 -0.060442694 0.095262736 0.11286486 -0.16571037
-0.18149431 0.096181706 0.06570126 0.11932385 0.04993811 0.07359845 0.08216926 0.028994719
-0.10580526 0.10653977 -0.040856205 0.095874056 0.09845215 0.07573964 -0.02606717 0.14704026
0.048654776 0.084182546 -0.022725746 0.12202539 0.17114146 -0.12808512 0.09527266 0.11918972
00000000: 34d1 43be dc27 23b8 f36c 93bc 5927 afbd
00000010: 58e7 29be b0fc 1c3e fc64 9c3c b0ee 6b3d
00000020: 9e08 05be 7d50 863d e0a0 993b 8eb9 2a3d
00000030: 0bf9 b43d c70b 1b3e 5534 46bd b626 c8bd
00000040: e3bc aabd 98a7 2cbe 0aeb 163b 38f2 1a3d
00000050: c12d d93d 7395 1d3e 3c54 12bd 76c8 60bd
00000060: 6d6e f2bd 1009 1b3d b20a a7bc e3b1 abbc
00000070: 769e bf3d 77ec 3ebe 24f1 ee3d 62c2 b2bd
00000080: 4105 82bc 7f55 dcbd 6213 cc3c 85bb 143e
00000090: 62a3 163e 2f7d 4f3d eb01 05bc bc59 373c
000000a0: 1a6f 313d 2601 c93d 1980 18bc 8c40 733d
000000b0: b7d0 af3d d6fb 9cbd 2f2b 41bc a165 c53d
000000c0: 4707 cd3d dc10 86bc 92eb 3cb6 e842 c1bc
000000d0: c474 27be 31a1 0ebd 5796 0dbe 10d3 95bd
000000e0: 6900 fe3c 7d69 51bd ad6e 0c3d e0ea ac3d
000000f0: 6ee0 c13c 574e 0f3e 4eaa efbd 43fa 3cbd
00000100: eccf 76bd 2a1d 9ebd 2162 003e 0505 0e3c
00000110: 9744 0dbc 266c 86bd 6edf 34be 0cee 443e
00000120: 1386 a63d 5ebd 62bc a3d6 3cbe dfe5 a8bd
00000130: f8e8 d43d 6171 a1bd 52a4 873c e6a7 903d
00000140: 3e56 4cbd f967 153e 893a 08bd f1a1 753c
00000150: 005f 12be 45d6 1abe 5acc 913d 0363 afbd
00000160: 1245 dc3d 63d5 0dbe 6639 afbc 4daa b73d
00000170: 7376 d1bd 3db9 07bd d078 6b3d 684a ea3c
00000180: 27c1 523e e891 083d 9856 ed3d eb44 99bd
00000190: 4cf5 a83d 1b97 d43d 7394 1c3d db2e c1bd
000001a0: e62f 63bd bd5f 4f3e d1f6 1d3d 07d0 8bbd
000001b0: c816 f03d 53fb debd 4cba 48be 6cc3 aa3c
000001c0: 7a37 ad3d 676a 333d 2f61 083e 1b6a e43c
000001d0: e452 fc3d 25f4 5ebe bd62 2d3e b8bf 493d
000001e0: cfcd 95bd 54a0 953d 7ff6 073d 6de4 38be
000001f0: 3164 193c ef1e 8ebd fbca 453d 1d82 d33b
00000200: 2269 bcbd d10f a43d 7a8c cfbc e395 cb3d
00000210: 63eb 823d 9c14 9bbb 23fd c63d 6f5a f53d
00000220: f8c7 a9bd a85c 1c3e 0065 28be 7e48 10be
00000230: 9cbf bbbc 312f ee3d ef18 093e d017 4cbe
00000240: fb1b c6bc 06ab ffbc 16d2 a23b 2a23 b4bd
00000250: dfd0 963b 557c 46be 7cdc 123e 7359 f53c
00000260: c062 bb3d aaf9 163d 7160 33be ff4b 2a3d
00000270: 3dea a7bd e819 3bbc 129b 3e3d 52c9 a0bc
00000280: 725e 2cbe 60e0 0ebe 90c8 b93c 90a4 6c3d
00000290: e023 ed3d 1cf8 1f3e 31a7 aebd 11ee 33be
000002a0: 4207 633d b9f1 533d ce3a 4abb bef6 7abd
000002b0: 3900 df3d 5f53 30bd 9f82 1abe 4d84 dc3d
000002c0: e1cd e6bd 9e5d efbc 8fbc a5bd f867 073e
000002d0: ee55 26be 3ddf b83a c431 2fbe 0d2d 12bc
000002e0: 9bdb 6bbd 5f0b 25be b9b9 8cbb 156b 3ebd
000002f0: 4f40 713c 7ab9 b73d 3527 35bd 962e 4a3d
00000300: 6687 d73c f493 00bd 9fa7 d2bd 0a8c e1bd
00000310: 8694 03be 3d13 203e 729e f0bd 264f b33d
00000320: 9955 d1bd 0c7c a1bd f6a4 8c3d e86e 1fbe
00000330: ec12 2b3d ddb2 213e 95d0 b93d 47cd 903d
00000340: 0de2 adbd 118a 653d ac82 373c 053e 91bd
00000350: 5a14 35be 04c9 13bd c913 9cbd df11 b93d
00000360: 716e 213d 6c08 273d 9b06 bcbd a20d cb3d
00000370: 8311 e13d 8ed6 1f3e 5408 9abd 7e34 b93d
00000380: 5bc6 283e 525f eabc 79dc 783d 7ab1 9fbd
00000390: c292 77bd 1c19 c33d b125 e73d fbaf 29be
000003a0: a5d9 39be eafa c43d 628e 863d 1060 f43d
000003b0: e78b 4c3d c9ba 963d 5b48 a83d 5586 ed3c
000003c0: 6eb0 d8bd 8631 da3d d658 27bd 9e59 c43d
000003d0: 48a1 c93d 621d 9b3d d18a d5bc b991 163e
000003e0: 3b4a 473d e667 ac3d 582b babc 73e8 f93d
000003f0: b53f 2f3e bf28 03be 501e c33d bd19 f43d

fc2.bias f4 [16]
-0.12497869 0.1663303 0.042362757 -0.13496515 0.13848868 -0.07074332 -0.092232615 0.08691694
0.124950096 0.16144416 -0.061908707 0.03484135 -0.041551694 0.05542487 0.042524774 0.031061118
00000000: d4f4 ffbd 7d52 2a3e 9284 2d3d 4e34 0abe
00000010: facf 0d3e e0e1 90bd 74e4 bcbd 8201 b23d
00000020: d6e5 ff3d 9e51 253e fc93 7dbd ceb5 0e3d
00000030: 1c32 2abd 3005 633d 752e 2e3d e373 fe3c

fc31.weight f4 [3, 16]
0.115673676 -0.03884186 -0.072130725 -0.013313682 0.06891549 -0.2445326 0.086467564 0.10029343
-0.10703886 -0.06654701 0.027311807 0.20479785 0.041303754 -0.10620814 -0.0673056 0.1557505
0.190027 0.09925111 -0.18906796 0.011638098 0.11464845 0.17866568 0.018181482 0.0909195
-0.025302114 0.033657707 0.07292359 0.18719922 -0.14859778 -0.15828979 0.02590534 -0.004830258
0.007407452 0.11049557 -0.103443295 0.054477625 0.13634945 0.015382236 -0.21414478 0.069967955
-0.011647755 -0.023093062 0.21093602 -0.050385837 0.19012395 0.04561862 0.12843195 -0.16730179
00000000: 52e6 ec3d a418 1fbd 46b9 93bd a121 5abc
00000010: 9023 8d3d c166 7abe e815 b13d a466 cd3d
00000020: 3137 dbbd cc49 88bd 03bd df3c 87b6 513e
00000030: 202e 293d a783 d9bd 85d7 89bd 0f7d 1f3e
00000040: 7096 423e 2a44 cb3d 089b 41be b9ad 3e3c
00000050: cecc ea3d 23f4 363e 55f1 943c 0134 ba3d
00000060: 6146 cfbc aadc 093d f758 953d 27b1 3f3e
00000070: 042a 18be b816 22be 7037 d43c 2447 9ebb
00000080: 36ba f23b 804b e23d 14da d3bd ee23 5f3d
00000090: 319f 0b3e c605 7c3c c548 5bbe 5c4b 8f3d
000000a0: 3ad6 3ebc a92d bdbc 9dff 573e 6161 4ebd
000000b0: daaf 423e 97da 3a3d aa83 033e 2951 2bbe

fc31.bias f4 [3]
0.031176098 -0.041046627 -0.07033355
00000000: 0465 ff3c 8220 28bd 090b 90bd

fc32.weight f4 [3, 16]
0.05513663 -0.004312451 0.06685527 0.021271102 0.024784682 -0.12188364 0.12663692 -0.07400043
-0.04392727 0.06558687 -0.029370548 -0.11870184 -0.08465722 -0.020659704 -0.06750996 0.06448775
-0.026999455 0.04772662 0.08574598 0.029951094 -0.03104628 -0.1620204 -0.13869509 -0.16161567
0.045434035 0.17088372 -0.028290039 -0.11748278 -0.19616258 -0.021917343 -0.045328762 -0.020816803
0.023555232 -0.030967813 0.08546866 0.06943315 0.14383496 0.09099251 0.036651827 -0.0046809316
-0.1715007 -0.041533962 0.16126284 0.03655576 0.1420573 0.053913955 -0.057475515 0.094504826
00000000: f2d6 613d 764f 8dbb 6aeb 883d bc40 ae3c
00000010: 3f09 cb3c 219e f9bd 1cad 013e 8a8d 97bd
00000020: 15ed 33bd 6952 863d 819a f0bc f319 f3bd
00000030: c460 adbd 8a3e a9bc a942 8abd 2712 843d
00000040: f62d ddbc fd7c 433d 979b af3d ff5b f53c
00000050: c554 febc ade8 25be 1606 0ebe 947e 25be
00000060: 0a19 3a3d 24fc 2e3e 83c0 e7bc d09a f0bd
00000070: d8de 48be 008c b3bc a7aa 39bd 0088 aabc
00000080: e7f6 c03c 36b0 fdbc 310a af3d f832 8e3d
00000090: 7949 133e 485a ba3d 3a20 163d 8062 99bb
000000a0: e19d 2fbe 841f 2abd 1622 253e 7ebb 153d
000000b0: 7877 113e e1d4 5c3d 726b 6bbd bf8b c13d

fc32.bias f4 [3]
0.017177042 -0.008272586 0.025444472
00000000: deb6 8c3c be89 07bc ed70 d03c

fc4.weight f4 [16, 3]
0.3229852 0.45172787 -0.32573766 0.44548044 -0.6226872 -0.20998235 0.060677312 0.0686902
-0.56906927 -0.0011412331 -0.35805085 -0.19220431 -0.63098747 0.17714885 -0.6865487 -0.8396922
0.39377 0.12368085 0.17862336 0.21955393 -0.36702707 -0.0132913245 0.3641548 0.40376022
-0.21619992 0.15420558 0.5828981 -0.1637141 -0.6642271 0.1327896 0.596829 0.47766703
-0.116612814 -0.16341229 0.42058885 -0.0059989323 0.19665143 0.38833487 0.67390937 0.4324918
-0.18176836 0.731799 -0.49985433 -0.10173834 -0.42815912 0.5450412 -0.48813647 0.12239525
00000000: 515e a53e e048 e73e 16c7 a6be 0316 e43e
00000010: 6e68 1fbf 9d05 57be c688 783d 73ad 8c3d
00000020: 86ae 11bf 6e95 95ba 7152 b7be 35d1 44be
00000030: 6588 21bf 8266 353e a8c1 2fbf 11f6 56bf
00000040: 399c c93e 634c fd3d 0be9 363e bfd2 603e
00000050: f9ea bbbe dbc3 59bc 7f72 ba3e a9b9 ce3e
00000060: 8363 5dbe 11e8 1d3e cf38 153f aba4 27be
00000070: ca0a 2abf fff9 073e c9c9 183f c690 f43e
00000080: b3d2 eebd 8d55 27be 6c57 d73e b192 c4bb
00000090: fe5e 493e d4d3 c63e 5385 2c3f 916f dd3e
000000a0: 7c21 3abe 2e57 3b3f e8ec ffbe 315c d0bd
000000b0: ac37 dbbe d287 0b3f 06ed f9be 5caa fa3d

fc4.bias f4 [16]
0.09776388 0.23628809 0.49873197 0.4365728 0.11459806 -0.023690445 0.68047285 0.5143825
0.74413615 0.71522945 0.34744704 0.84608984 0.3168588 0.022648662 0.41875726 0.7426224
00000000: 6e38 c83d 81f5 713e cc59 ff3e 7886 df3e
00000010: 63b2 ea3d 7712 c2bc 7833 2e3f 92ae 033f
00000020: b57f 3e3f 4719 373f 94e4 b13e 5899 583f
00000030: 513b a23e b089 b93c 5a67 d63e 801c 3e3f

fc5.weight f4 [32, 16]
0.121130645 0.2642418 -0.008227819 0.33743328 0.01257409 0.46241865 0.13051057 0.37866518
0.1274461 0.37205902 0.033876464 0.09993525 0.41001213 0.1674244 0.15695845 0.11031453
0.13457666 0.17658937 0.0032796261 0.44620365 0.0049922597 0.5153603 0.34144825 0.4072172
0.28993595 0.33704373 0.4827543 0.5143272 0.06911007 0.07471295 0.4637902 0.38311628
0.40189233 0.18936765 0.1183216 0.035635583 0.12290645 0.47414875 0.10903513 0.21311504
0.14638373 0.3594986 0.37360984 0.37119904 0.46993497 0.31592974 0.077508375 0.34138796
0.26183006 0.062213015 -0.105419815 0.036107812 0.28818974 0.14738403 0.051213704 0.048655417
0.25001514 -0.0391017 0.09778055 0.019320784 0.22083789 0.3127509 0.32598954 0.26307786
0.15701486 -0.101139694 0.052309595 0.070340574 0.19032782 -0.03824331 0.28400552 -0.06532841
0.32311952 -0.06388556 0.011369666 0.03875329 -0.043995287 0.17071661 0.321626 0.31568155
0.18878412 0.35667694 0.30560777 0.5989392 0.43879172 0.44780323 0.44726518 0.48726147
0.4529316 0.16588455 0.5084237 0.38622326 0.44602165 0.13700421 0.27895916 0.122085504
0.005284399 -0.19656485 -0.17993087 -0.094831586 0.11240399 -0.10845479 0.07564333 -0.19771126
-0.068976134 0.0094382465 -0.030728102 -0.19912201 0.078814685 0.09519741 0.008769363 -0.24531719
0.057181433 0.016402114 0.21818204 0.19109033 -0.042227063 0.4154999 -0.051521208 0.022147158
0.12006727 0.27960998 0.19123448 0.032831892 0.4177242 0.20577799 0.2526172 -0.026905265
-0.061729778 0.19006425 0.42288706 0.081184916 0.031765915 0.060932703 0.071599 0.15916744
0.060973626 -0.010899918 0.2554114 0.44640455 -0.015303361 0.44326305 -0.013749888 0.1732853
0.17631258 0.42235705 0.19541329 0.007880854 0.35431063 0.32840866 0.041208845 0.21426253
0.16937155 0.4454629 0.27797952 0.4163018 0.2405688 0.28693706 0.46659097 0.43323186
0.22751437 0.18238032 0.35105875 0.026475212 0.093966305 0.29331723 0.28272945 0.45064265
0.064540975 0.43255216 0.2754183 0.23678757 0.10912529 0.20541453 0.3381175 -0.014953345
0.36242718 0.4140553 0.41169053 0.16640934 0.32128415 0.1362694 0.13295628 0.47312304
0.1366687 0.3829768 0.43545914 0.31238553 0.15204841 0.1493119 0.53957456 0.3042661
0.40991974 0.044624288 0.1743641 0.49655992 0.28276527 0.44300836 0.34643912 0.08058744
0.14493999 0.34078208 0.2515694 0.39227846 0.2935209 0.15787059 0.21017665 0.36448628
0.12668411 -0.093493305 0.13780797 0.05308946 0.29289237 0.37985942 0.18169579 0.21094063
0.36555877 0.23021686 0.22991069 0.048006196 0.21898897 0.22035311 0.05802408 0.28983334
0.13121423 0.4128981 0.23282449 0.20042114 0.12542251 0.55793965 0.33935446 0.3030158
0.49534035 0.39406705 0.32689893 0.5144704 0.15981482 0.4289573 0.42895985 0.10451415
0.34030542 0.5033284 0.38627586 0.60370016 0.17768288 0.4071315 0.613858 0.4355244
0.3536318 0.5992323 0.24393637 0.3047696 0.42418867 0.46905777 0.5052988 0.33297423
00000000: 5813 f83d b44a 873e f9cd 06bc 0ec4 ac3e
00000010: 8e03 4e3c 23c2 ec3e 90a4 053e 67e0 c13e
00000020: 3b81 023e 857e be3e 0cc2 0a3d daaa cc3d
00000030: 1ced d13e 4d71 2b3e b7b9 203e 96ec e13d
00000040: 77ce 093e d8d3 343e ffee 563b ce74 e43e
00000050: 1c96 a33b a7ee 033f 4ed2 ae3e c67e d03e
00000060: 7c72 943e ff90 ac3e 922b f73e f3aa 033f
00000070: 9589 8d3d 1a03 993d e975 ed3e d127 c43e
00000080: d5c4 cd3e 98e9 413e 9852 f23d 9ef6 113d
00000090: 60b6 fb3d a0c3 f23e cf4d df3d d43a 5a3e
000000a0: 9ee5 153e 3310 b83e ca49 bf3e cd0d be3e
000000b0: 519b f03e 8bc1 a13e b6bc 9e3d 67ca ae3e
000000c0: 970e 863e 13d3 7e3d 58e6 d7bd c9e5 133d
000000d0: 9b8d 933e d7eb 163e 76c5 513d e74a 473d
000000e0: fc01 803e 1b29 20bd 2b41 c83d 9f46 9e3c
000000f0: 5423 623e e320 a03e 1ae8 a63e 24b2 863e
00000100: 81c8 203e 5422 cfbd 9642 563d b80e 903d
00000110: 4ce5 423e 04a5 1cbd 2c69 913e e7ca 85bd
00000120: ec6f a53e 6fd6 82bd d647 3a3c c5bb 1e3d
00000130: 6734 34bd 56d0 2e3e 2aac a43e 03a1 a13e
00000140: a050 413e 5c9e b63e 9f78 9c3e 1454 193f
00000150: 4fa9 e03e 7746 e53e f1ff e43e 567a f93e
00000160: a7e6 e73e a4dd 293e 0e28 023f 0ebf c53e
00000170: f35c e43e d54a 0c3e bcd3 8e3e f707 fa3d
00000180: c028 ad3b 4c48 49be cc3f 38be 1037 c2bd
00000190: 1034 e63d 8c1d debd e4ea 9a3d d274 4abe
000001a0: 5c43 8dbd e0a2 1a3c 80b9 fbbc a4e6 4bbe
000001b0: 9869 a13d dcf6 c23d 60ad 0f3c 6e34 7bbe
000001c0: 1437 6a3d ba5d 863c 1d6b 5f3e 2fad 433e
000001d0: 49f6 2cbd 67bc d43e e707 53bd f56d b53c
000001e0: d4e5 f53d 0a29 8f3e f9d2 433e bc7a 063d
000001f0: f2df d53e 77b7 523e 0b57 813e 6e68 dcbc
00000200: 5dd8 7cbd 34a0 423e a784 d83e 4744 a63d
00000210: fa1c 023d 9294 793d 7fa2 923d cafc 223e
00000220: 7bbf 793d 9295 32bc 48c5 823e 238f e43e
00000230: f3ba 7abc 60f3 e23e 3647 61bc b471 313e
00000240: 498b 343e 2f3f d83e 6c1a 483e b31e 013c
00000250: 3468 b53e 2e25 a83e 9bca 283d a367 5b3e
00000260: bc6f 2d3e b713 e43e 5553 8e3e 8225 d53e
00000270: ab57 763e 6ae9 923e 03e5 ee3e 91d0 dd3e
00000280: 87f9 683e e8c1 3a3e f9bd b33e 8be2 d83c
00000290: 6871 c03d ad2d 963e eac1 903e a2ba e63e
000002a0: 0f2e 843d 7a77 dd3e a103 8d3e 7178 723e
000002b0: 147d df3d 3058 523e bd1d ad3e e0fe 74bc
000002c0: 0e90 b93e 0eff d33e 1ac9 d23e 3667 2a3e
000002d0: 5b7f a43e 358a 0b3e b125 083e 2f3d f23e
000002e0: e1f2 0b3e 8915 c43e 80f4 de3e fff0 9f3e
000002f0: 94b2 1b3e 38e5 183e 8f21 0a3f c4c8 9b3e
00000300: 00e1 d13e f5c7 363d 818c 323e 1a3d fe3e
00000310: 9cc6 903e fed1 e23e 7860 b13e 070b a53d
00000320: 266b 143e fd7a ae3e b4cd 803e b9d8 c83e
00000330: 5f48 963e d4a8 213e 8c38 573e f29d ba3e
00000340: 7bb9 013e 6b79 bfbd 881d 0d3e 5574 593d
00000350: fdf5 953e ef7c c23e 760e 3a3e d200 583e
00000360: 852a bb3e f8bd 6b3e b56d 6b3e 25a2 443d
00000370: a53e 603e 3fa4 613e a8aa 6d3d 0965 943e
00000380: 065d 063e 6167 d33e 8b69 6e3e 333b 4d3e
00000390: c26e 003e 22d5 0e3f debf ad3e e324 9b3e
000003a0: 409d fd3e 28c3 c93e 4c5f a73e 55b4 033f
000003b0: 7fa6 233e 4ba0 db3e a0a0 db3e 840b d63d
000003c0: 833c ae3e 21da 003f f3c5 c53e 188c 1a3f
000003d0: 80f2 353e 8a73 d03e cc25 1d3f 0efd de3e
000003e0: 3a0f b53e 4a67 193f 75ca 793e c30a 9c3e
000003f0: 422f d93e 5728 f03e 435b 013f 997b aa3e

fc5.bias f4 [32]
0.298906 0.4366705 0.4545352 0.11472444 0.012594695 0.55389655 -0.13428149 -0.025813809
0.11113209 0.3882646 0.33711603 0.20518477 0.034900136 0.11088192 0.19919689 0.31984267
0.43704408 -0.0718715 0.42246687 0.4017779 0.24446423 0.5402846 0.2108906 0.53196675
0.55027777 0.26051 -0.14935644 0.28010035 0.29434666 0.5711866 0.53659207 0.28872243
00000000: 350a 993e 4793 df3e d6b8 e83e a6f4 ea3d
00000010: fb59 4e3c 2acc 0d3f 1681 09be 7b77 d3bc
00000020: 3999 e33d 9eca c63e 799a ac3e f51b 523e
00000030: 72f3 0e3d 0f16 e33d 45fa 4b3e 6bc2 a33e
00000040: 3ec4 df3e 5d31 93bd 944d d83e d5b5 cd3e
00000050: d554 7a3e 1750 0a3f b5f3 573e f92e 083f
00000060: 01df 0c3f 9161 853e e5f0 18be 5069 8f3e
00000070: 9bb4 963e 4939 123f 195e 093f 6dd3 933e

fc6.weight f4 [6, 32]
-0.15158543 -0.13824208 -0.3657799 -0.13020562 -0.24701731 -0.27754837 0.015302703 -0.17693254
-0.30480963 -0.42096215 -0.26793474 -0.21763647 -0.24441817 -0.30346134 -0.39126357 -0.12621373
-0.3739443 0.09618618 -0.12033696 -0.24326764 -0.3015013 -0.31736207 -0.11869315 -0.2826635
-0.4432997 -0.28442273 0.014575769 -0.29343653 -0.34954742 -0.3235992 -0.47388917 -0.18775345
-0.08505555 -0.33732027 -0.31910002 -0.33406413 -0.31389913 -0.24220888 -0.005893454 -0.37788892
-0.2034165 -0.39175105 -0.14706476 -0.38021383 -0.10613681 -0.17057042 -0.2760438 -0.301066
-0.21068484 0.002096966 -0.23815578 -0.30571985 -0.30785304 -0.23343016 -0.14714924 -0.181157
-0.29159406 -0.41026774 -0.012696814 -0.441113 -0.13164254 -0.4041569 -0.39615804 -0.37563196
-0.39231098 -0.35176736 -0.55190957 -0.18395673 -0.18141428 -0.5465891 -0.13663533 -0.21216132
-0.18672274 -0.6461291 -0.26426914 -0.60368454 -0.34775507 -0.52831894 -0.42674077 -0.6645959
-0.45332 0.036562085 -0.32488203 -0.6311919 -0.29302728 -0.35624355 -0.54958177 -0.5009138
-0.49252442 -0.37385583 0.064706184 -0.56059486 -0.35349432 -0.42760184 -0.66565496 -0.21145844
-0.22223957 -0.36987036 -0.5236027 -0.13979292 -0.21047786 -0.58099043 0.17144082 -0.3365508
-0.29573557 -0.45948228 -0.42575327 -0.603958 -0.46737754 -0.20570815 -0.6364875 -0.5746373
-0.46173713 0.053754587 -0.49906033 -0.5599685 -0.13064663 -0.5190451 -0.46842462 -0.6215903
-0.4913606 -0.31617227 0.010789695 -0.54010475 -0.14388813 -0.41390076 -0.38208425 -0.17380697
-0.46964407 -0.5952263 -0.3408112 -0.13029844 -0.19922483 -0.54164356 -0.13928878 -0.3792448
-0.5559249 -0.33009568 -0.5088994 -0.6159967 -0.6408416 -0.3616822 -0.6423468 -0.49598196
-0.37150726 0.122026384 -0.60443556 -0.52558595 -0.18524364 -0.5474199 -0.27858877 -0.4560739
-0.35863787 -0.57708305 0.16959047 -0.52911866 -0.20498691 -0.5891795 -0.6861377 -0.11162085
-0.29889166 -0.63898224 -0.4763918 -0.16487963 -0.19092089 -0.31887546 0.014178202 -0.08384912
-0.41374573 -0.47399837 -0.3545377 -0.6256328 -0.38128045 -0.1840103 -0.44952196 -0.5228397
-0.5700439 -0.12601712 -0.36697 -0.32414064 -0.3221191 -0.53433317 -0.30848318 -0.5900241
-0.5443851 -0.5380727 -0.16525014 -0.5893861 -0.17847015 -0.6084438 -0.5962259 -0.22815259
00000000: 3639 1bbe 558f 0dbe 8147 bbbe 9f54 05be
00000010: 1bf2 7cbe d21a 8ebe 30b8 7a3c ce2d 35be
00000020: 0210 9cbe 5a88 d7be be2e 89be 18dc 5ebe
00000030: c248 7abe 495f 9bbe b353 c8be 2c3e 01be
00000040: a175 bfbe 43fd c43d 3973 f6bd 271b 79be
00000050: 615e 9abe 487d a2be 6515 f3bd 45b9 90be
00000060: 2ef8 e2be db9f 91be 35cf 6e3c 503d 96be
00000070: e1f7 b2be cbae a5be 9aa1 f2be 7142 40be
00000080: 9b31 aebd 3eb5 acbe 1461 a3be 740a abbe
00000090: 63b7 a0be 9b05 78be e01d c1bb a87a c1be
000000a0: 6a4c 50be 9893 c8be 2598 16be 63ab c2be
000000b0: 415e d9bd 03aa 2ebe 9d55 8dbe 5325 9abe
000000c0: c4bd 57be 406d 093b 1cdf 73be 5087 9cbe
000000d0: ea9e 9dbe 5108 6fbe 4aae 16be 3881 39be
000000e0: d14b 95be 9d0e d2be 4c06 50bc 90d9 e1be
000000f0: 4dcd 06be a7ed cebe 3ad5 cabe d552 c0be
00000100: fcdc c8be da1a b4be f249 0dbf 275f 3cbe
00000110: aac4 39be 43ed 0bbf 22ea 0bbe d140 59be
00000120: 3f34 3fbe b768 25bf 494e 87be 128b 1abf
00000130: f40c b2be e93f 07bf c47d dabe f522 2abf
00000140: 8f19 e8be 20c2 153d f056 a6be cb95 21bf
00000150: ac07 96be 8e65 b6be 64b1 0cbf e33b 00bf
00000160: 292c fcbe 086a bfbe ad84 843d 2583 0fbf
00000170: 35fd b4be a1ee dabe 5d68 2abf 9088 58be
00000180: c592 63be a65f bdbe d40a 06bf e025 0fbe
00000190: 8287 57be cabb 14bf 2f8e 2f3e 6350 acbe
000001a0: a76a 97be 4341 ebbe 55fc d9be fe9c 1abf
000001b0: 1c4c efbe 28a5 52be d8f0 22bf 6e1b 13bf
000001c0: cf68 ecbe c52d 5c3d d684 ffbe 185a 0fbf
000001d0: 3bc8 05be 24e0 04bf 5ad5 efbe 8b20 1fbf
000001e0: 9e93 fbbe 55e1 a1be 43c7 303c 4e44 0abf
000001f0: 6957 13be cdea d3be 8ca0 c3be 74fa 31be
00000200: 3075 f0be c060 18bf ce7e aebe f46c 05be
00000210: 9801 4cbe 27a9 0abf b8a1 0ebe 602c c2be
00000220: 1851 0ebf 4d02 a9be 3b47 02bf f6b1 1dbf
00000230: 320e 24bf 692e b9be d770 24bf 59f1 fdbe
00000240: 3336 bebe f8e8 f93d 4abc 1abf cd8c 06bf
00000250: 82b0 3dbe b623 0cbf 30a3 8ebe 8582 e9be
00000260: 629f b7be b7bb 13bf 20a9 2d3e 5274 07bf
00000270: 17e8 51be 78d4 16bf b8a6 2fbf 7999 e4bd
00000280: 5408 99be 5794 23bf a0e9 f3be 35d6 28be
00000290: c480 43be a543 a3be b04b 683c 16b9 abbd
000002a0: 7bd6 d3be eaaf f2be f785 b5be 7929 20bf
000002b0: 3137 c3be 326d 3cbe be27 e6be d3d8 05bf
000002c0: 66ee 11bf a20a 01be 7ee3 bbbe c3f5 a5be
000002d0: cbec a4be 0fca 08bf 82f1 9dbe d20b 17bf
000002e0: d25c 0bbf 22bf 09bf 5537 29be 02e2 16bf
000002f0: e1c0 36be f9c2 1bbf 43a2 18bf d5a0 69be

fc6.bias f4 [6]
-0.34168455 -0.24280176 -0.48575488 -0.5077764 -0.4273672 -0.4091297
00000000: 47f1 aebe 06a1 78be ddb4 f8be a2fd 01bf
00000010: e0cf dabe 7379 d1be
