model/model_ae_mlp_f6_c70_z3.pth (torch_old, 8054 bytes, 12 tensors)

encoder.fc1.weight f4 [32, 6]
000000 7a a0 13 3e 86 79 9e 3e 0f 73 0e be df 8c 0c 3e
       0.14416686 0.3095209 -0.13911079 0.13725613
000010 5f 01 80 3e 5a 5d 05 3f 46 5d 01 3f a2 3d b9 3e
       0.25001046 0.5209557 0.5053295 0.36179835
000020 0a c4 06 bf 94 bc 95 3e e5 fb ee be 82 73 e5 3d
       -0.5264288 0.29245436 -0.46676555 0.11203672
000030 95 47 07 bf 49 d9 b4 3d d8 10 28 3b 1f dc 41 3d
       -0.528436 0.08830506 0.0025644805 0.047329064
000040 57 bf 09 bf 6b 0b 53 bd ad 07 0e 3e e6 72 a9 3d
       -0.53807586 -0.05152456 0.13870116 0.08273868
000050 d3 fe 02 bf 85 b1 ca 3e fa 8b cc 3d c1 04 67 3e
       -0.5117008 0.39588562 0.09987636 0.22560407
000060 fa 38 c5 be 3e bf 07 bf 2f 65 be be c9 a8 9f be
       -0.38520032 -0.5302619 -0.37186572 -0.3118346
000070 f2 c6 71 be 6d 78 02 be b9 7b ab 3e 07 ea 90 3e
       -0.23611048 -0.12741251 0.3349283 0.2830355
000080 3b 5b d1 3d 7d 1c c6 be 66 15 fb be 7b 14 b4 3c
       0.10222479 -0.3869361 -0.49039763 0.021982422
000090 0a a3 89 be e4 36 77 3e 01 30 a5 bd e7 3b bf 3e
       -0.268822 0.24142033 -0.08065797 0.3735039
0000a0 a7 91 a0 3e 9a b0 1e 3f f1 bd 58 3e f1 88 db 3e
       0.31361124 0.6198822 0.21166207 0.42877916
0000b0 a1 89 05 bc f7 75 a1 be 7b 2b 12 bd 0b 89 82 3e
       -0.008150489 -0.31535313 -0.035685997 0.2549518
0000c0 ca fc 9d be e0 18 8c be 2f a1 c3 be 6d 9d c2 3e
       -0.30856925 -0.27362728 -0.3820891 0.3801073
0000d0 0a 96 1e 3f a5 73 34 3e de 68 6a 3e 54 27 09 3e
       0.6194769 0.1762224 0.22891566 0.13393909
0000e0 f8 db b2 3c df 3a 0b 3f 6a 25 91 3e 03 97 f0 3e
       0.021833405 0.54386705 0.28348857 0.46990213
0000f0 ed 87 2f be d0 96 d8 3d 59 2f 48 bc 9e 75 99 3d
       -0.17141695 0.1057564 -0.01221832 0.07493137
000100 dd 08 18 3f 5b 12 01 3f fe 09 5f bf fa 06 3e bf
       0.59388524 0.50418633 -0.8712462 -0.74229395
000110 fb af a4 be 17 70 c5 3e b2 8a 02 3f 01 56 da 3e
       -0.32165512 0.3856208 0.5099288 0.4264374
000120 c1 ea 5c bf 74 0f 60 bf f3 42 b9 be 61 3b 2e 3d
       -0.86295706 -0.8752358 -0.3618389 0.042537097
000130 bb 5a 13 bf 73 d9 99 bc 99 e0 1e bf 4d ed 15 bf
       -0.5756032 -0.018780446 -0.6206146 -0.5856522
000140 e4 c7 c3 be 53 6a 16 3f 38 78 e1 3e ae 3b 31 3e
       -0.38238442 0.5875599 0.44037032 0.17307922
000150 24 0f 70 bf 79 0c 19 bf 46 7a 59 bf e6 1a 44 3d
       -0.937731 -0.59784657 -0.849522 0.047877215
000160 0e 64 11 3f b5 bc 94 3e 9c 4e 9c be 20 34 49 bc
       0.56793296 0.29050222 -0.30528724 -0.012280494
000170 c8 5f e0 3d 80 92 38 3e 4c 28 1c be 4b 99 7d be
       0.10955769 0.18024635 -0.15249747 -0.24765508
000180 40 95 88 3d 96 cd 4f be c0 46 d2 3b 86 5f 46 be
       0.06669092 -0.20293269 0.0064171255 -0.19372377
000190 54 41 90 bd d0 a6 de bc 9e e2 9d 3d a6 bb d7 3e
       -0.0704371 -0.027179152 0.077092394 0.42135352
0001a0 ca a8 3e 3f 4b ee de 3e 74 8d 1d 3c 5f 3d a5 3d
       0.744763 0.43541178 0.009616245 0.08068346
0001b0 10 ab e7 bd 65 e0 92 bd 63 ce ff 3e 18 93 57 3e
       -0.113119245 -0.07171706 0.49962148 0.21052206
0001c0 d3 f9 e7 3e 02 89 4c 3e da a6 23 be 51 8b 01 3f
       0.45307788 0.1997414 -0.15981618 0.50603205
0001d0 2c c0 67 bd 70 4a 5e 3d e6 17 b5 be 2e 8b 49 3e
       -0.056579754 0.054270208 -0.35369796 0.19681999
0001e0 0f 62 b8 be 32 0d 0a bf f9 ab 00 bf 41 96 a9 be
       -0.36012313 -0.53926384 -0.5026241 -0.33122447
0001f0 a1 ad ac bb c0 87 94 3d e5 ba a1 bd d6 b8 4b bd
       -0.0052697216 0.07252455 -0.078969754 -0.04973682
000200 b5 b5 31 be 09 32 10 3e 22 10 c6 3e 0d 67 a3 3e
       -0.17354472 0.14081587 0.38684183 0.3191456
000210 90 c7 2c 3e 96 76 bb 3e 4b 4b 66 bf 17 ad da be
       0.16873002 0.3661391 -0.8995864 -0.42710182
000220 bd 4c c5 be 9a 96 5e 3e 5e 30 ba 3e b6 c9 da 3e
       -0.3853511 0.21737137 0.36365026 0.42732018
000230 5c 7d 2c be 0d 1d 83 be bc 84 93 be 1d 31 8d be
       -0.16844696 -0.256081 -0.28812206 -0.27576533
000240 6e 26 63 bf c0 ad 45 bf d7 75 54 bf 05 5e 8d 3e
       -0.88730514 -0.77218246 -0.8299231 0.27610794
000250 ad 11 55 3e 51 6d dd 3e 9c eb 1d bf 82 46 13 bf
       0.20807524 0.43247464 -0.61687636 -0.5752946
000260 8e 84 61 3e 9a 52 a1 3e 92 2d 00 be 5c 15 f6 bc
       0.22023222 0.31508332 -0.12517384 -0.030039482
000270 f6 be 99 3e 85 54 97 3e cf d2 c4 3e a4 32 d6 3d
       0.30028504 0.2955667 0.38442084 0.10458878
000280 18 8c 08 3f 03 4f d2 3e c0 97 6e 3e 0a 3c 0e 3f
       0.53338766 0.41075906 0.23300076 0.5556036
000290 84 7c 0f bd d4 b7 a4 bd 24 bc ec bd 28 a5 c3 bd
       -0.035030857 -0.08042875 -0.115593225 -0.095529854
0002a0 8a 3d eb 3e 20 89 42 3c f7 ff 8e bb ed 35 1e 3e
       0.45945388 0.011873513 -0.0043640095 0.15450259
0002b0 20 a2 d9 be f9 b6 f5 bc 02 36 b8 bd fd 75 da be
       -0.42506504 -0.029994475 -0.08994676 -0.42668143
0002c0 96 bb f1 3e 09 3f 64 be 0d 7a 2a 3f ca e9 25 bc
       0.4721343 -0.22289671 0.66592485 -0.01012654
0002d0 7d ba 72 bf 1d 74 35 bf 6e f2 0a bf c1 92 ba 3d
       -0.9481581 -0.708803 -0.5427617 0.09110022
0002e0 3c 64 39 bf d3 2b c0 bd 29 cc 87 3d 00 49 f8 bd
       -0.7241857 -0.09383359 0.06630737 -0.12123299
0002f0 0e 89 ee be 7b 2b 8e be c1 bb 97 bd 3b 98 57 be
       -0.4658894 -0.27767548 -0.07408858 -0.21054165

encoder.fc1.bias f4 [32]
000000 43 6b 37 3e 26 51 6c 3e fe 3c ed 3e 49 d5 37 3f
       0.17912011 0.2307783 0.46335596 0.7180982
000010 9e d0 15 3f 54 c4 65 be ba 77 73 bd 00 4a f3 be
       0.5852145 -0.22438174 -0.059440352 -0.47517395
000020 8c 33 ea 3d b2 86 d2 be ed a3 bc 3d 96 8b 04 3f
       0.11435613 -0.4111839 0.09210954 0.5177549
000030 73 37 b4 bd 17 08 13 3e 68 69 da 3e 09 02 a0 be
       -0.087996386 0.14358555 0.42658544 -0.31251553
000040 86 a4 9b be 92 78 65 3e b7 16 f2 3e cb 59 38 3e
       -0.3039896 0.22409275 0.47282955 0.18003003
000050 88 16 3c 3e 17 ca 49 be c7 d5 51 3b b2 fb da 3e
       0.1836797 -0.19705997 0.003201829 0.42770153
000060 76 3b 84 3e 12 2f 89 3e e4 13 6a 3e 9d c8 87 3d
       0.25826615 0.26793724 0.2285915 0.06630061
000070 8a b2 d1 3e db fc eb 3e 78 d4 8f 3d dd cb 0b 3f
       0.40956527 0.4609135 0.07022947 0.54607946

encoder.fc2.weight f4 [16, 32]
000000 87 e7 ea 3d d8 46 ae 3e a2 7f 80 3e 0a a8 96 3d
       0.114699416 0.34038424 0.25097376 0.0735627
000010 22 9f bf 3d 83 62 39 be 71 82 57 be 0e 8b 38 bc
       0.09356524 -0.18103985 -0.21045853 -0.011263622
000020 09 6e 37 be 29 36 5e 3c 10 94 11 be 42 43 12 3e
       -0.17913069 0.0135627175 -0.14216638 0.1428347
000030 a9 a6 0b 3f 58 43 b8 3d 76 ee ed 3d ae 34 df bd
       0.5455118 0.0899722 0.116177484 -0.1089872
000040 a2 62 d1 3d 82 6f 9f be 26 f7 19 3d 48 b2 e3 3c
       0.10223891 -0.3113976 0.037589215 0.027794972
000050 fd 34 28 3e 57 16 6e 3d c5 74 50 3e 3c da 3e 3e
       0.16426463 0.058126774 0.20357044 0.18637937
000060 a0 34 da 3d 58 14 6a b9 a1 7a df bd 7f ac 01 bb
       0.10654569 -0.00022323558 -0.109120615 -0.0019786654
000070 10 f5 54 3e 64 8a 0f bd cb e7 1a 3f c9 a6 b4 3e
       0.20796609 -0.03504409 0.6050994 0.35283497
000080 b6 44 c1 bc 57 ad b4 3c 2b 2e c3 3e 37 72 c2 3d
       -0.023592334 0.022055311 0.3812116 0.09494441
000090 95 b1 8a 3e 8b a5 1a be 95 9c 07 3e df 57 3a be
       0.2708861 -0.15102212 0.13243325 -0.18197583
0000a0 cf d6 19 3e dc 0d 04 bd 34 af 00 be e9 be 4a 3e
       0.15023349 -0.03223978 -0.12566835 0.19799389
0000b0 50 ed 4f 3f 61 0b 47 3e 1c 72 4b 3e e2 43 a3 3d
       0.81221485 0.19437934 0.19867748 0.07971932
0000c0 a4 22 1e 3d 0c 72 00 3d d1 2d 43 3e a0 b5 8f 3d
       0.038607255 0.031358764 0.19060446 0.07017064
0000d0 6c 5b ed 3e ed 8a 30 be 03 be 61 be 66 6b d9 3d
       0.46358812 -0.17240496 -0.2204514 0.10616188
0000e0 d9 0b 33 3d 12 17 ba bd 60 d8 23 3c 78 13 15 be
       0.04371247 -0.090864316 0.010000318 -0.14558208
0000f0 11 24 97 3e 5e ff 0f 3c ea 14 42 3f 13 38 a5 3e
       0.29519704 0.008788912 0.7581316 0.32269344
000100 0b 11 64 3d 49 39 3f 3e f3 d9 34 3e e8 c0 16 3e
       0.055680316 0.18674196 0.17661266 0.14722025
000110 c7 e2 9e 3e 89 95 a9 bd 2b 81 c9 bc 61 cb 12 be
       0.31032392 -0.08280475 -0.024597725 -0.14335395
000120 31 d9 17 3e de a2 1d bc e7 3c be 3d 40 7a 2b 3d
       0.14828946 -0.00962135 0.0928896 0.041864634
000130 5f cd 8f 3f 3b d9 05 bd 3e f1 e3 bc f8 ee 14 bd
       1.1234549 -0.03267787 -0.027824994 -0.03636071
000140 de ea b0 3d ea 84 d0 3d 27 57 0e 3e 57 a2 53 3e
       0.08638547 0.10181601 0.13900433 0.20667396
000150 80 42 9f 3e a2 9f 4d bd 21 9a 37 be d0 2b ec bc
       0.31105423 -0.050201066 -0.1792989 -0.028829485
000160 f5 0c 42 3d 45 8c 8a 3c ea dd 0e bd 60 e0 ed bd
       0.047375638 0.016912589 -0.034879602 -0.11615062
000170 ed 5c 6f bd e3 23 00 3e 9a 33 35 3f 66 b1 70 3e
       -0.05843823 0.1251369 0.7078186 0.23505172
000180 ee 66 b0 bc c2 48 a3 bb 33 ea 98 3e f0 8a 24 3e
       -0.021533456 -0.0049830386 0.2986618 0.16068625
000190 22 d1 b7 3e 7e 22 41 be 49 dd 8a bd ab 59 58 be
       0.35901743 -0.18860814 -0.06780488 -0.21127956
0001a0 b8 fc 7f bd de fa 18 be f1 60 84 bd c2 56 30 3e
       -0.06249687 -0.14939448 -0.064638026 0.17220595
0001b0 e0 35 15 3f 74 c1 74 bc a8 7e c0 3d d5 9c 31 3e
       0.5828533 -0.014938701 0.09399158 0.17344983
0001c0 0c 8b 18 3d bb 2a 72 3d 37 68 89 3d ab e4 73 3e
       0.03724198 0.059122782 0.067093305 0.23817699
0001d0 17 12 17 3e 37 c5 ae 3d 1e 67 0d be dc d2 04 3e
       0.14752994 0.085337095 -0.13808867 0.12971061
0001e0 1a 82 00 3e c8 30 c0 bd 67 72 f8 bd 29 c7 34 bd
       0.1254963 -0.09384304 -0.121311955 -0.044135246
0001f0 78 79 a7 bc 42 06 58 3c e5 c3 3a 3f 3c 0f ee 3d
       -0.020443663 0.013185086 0.7295516 0.116239995
000200 54 88 b1 3e 68 85 a0 3e e3 1b 99 3e a6 3e d4 3d
       0.34674323 0.3135178 0.29904088 0.10363512
000210 ef 68 52 3e c4 63 94 bd e7 a3 98 bc 07 21 a3 3d
       0.20547841 -0.07245591 -0.018632842 0.07965284
000220 52 d8 3a be 7f 11 24 be 7c 70 82 3c 17 2d 42 3e
       -0.18246582 -0.16022299 0.015922777 0.18962513
000230 11 19 8f 3e 71 78 0c 3c 9e 93 31 3e 43 89 16 3e
       0.27948812 0.008573637 0.17341468 0.14700799
000240 b0 29 89 3d cd 88 9d bb 18 16 05 be 24 e8 3b 3e
       0.066974044 -0.0048075677 -0.1299671 0.18350273
000250 7a ec 40 3e 97 ab 7c be 77 78 36 3e dc df 45 3e
       0.18840209 -0.24674831 0.17819391 0.19323677
000260 ca 22 fa 3d 6a 8f e9 bd a6 22 25 3d fa fd 87 3d
       0.12213667 -0.11404307 0.040316246 0.06640239
000270 28 fd 13 3e f2 66 80 3e b4 e5 47 3f eb 40 80 3e
       0.1445204 0.2507854 0.78084874 0.25049528
000280 0d 89 4f 3d 0a 0e 1f be 23 08 e0 3c 09 7f 89 3e
       0.05066781 -0.15532699 0.02734763 0.26854733
000290 fd 37 eb be b8 4b 94 be e0 31 53 3e f1 27 95 be
       -0.45941153 -0.2896402 0.20624495 -0.29132035
0002a0 d3 bd a7 3e 65 25 05 3e 26 9f 71 3e 6d a8 1b 3e
       0.32762012 0.13002546 0.23595867 0.15200968
0002b0 26 fd 6f be 58 f2 e6 3d de 03 7b 3e 00 6b 09 3d
       -0.23436412 0.11276692 0.24513194 0.03354931
0002c0 65 06 db bd 29 ad 6c 3e cb e7 4d bd 65 65 94 bc
       -0.10694579 0.2311293 -0.050269883 -0.018114755
0002d0 af a1 ed bd 64 3e b5 3c 72 2b 6b 3d e9 3f 85 be
       -0.11603104 0.022124477 0.05741448 -0.26025322
0002e0 27 85 99 3e 2f be 95 3e 3d 10 d4 3d 77 2a 93 be
       0.299844 0.2924666 0.1035466 -0.28743336
0002f0 ba 30 a5 be 4e fa 2e 3e 51 a8 05 bf 0d 09 99 be
       -0.32263738 0.17087671 -0.52209955 -0.29889718
000300 c3 8e a3 3c 8f da 9d bd 7b 0d f3 be 80 bd 8b be
       0.019965535 -0.07707702 -0.47471222 -0.27293015
000310 84 36 bc be 18 a4 21 3e 89 b2 54 3e d7 87 7f 3e
       -0.36760342 0.15785253 0.20771231 0.24954163
000320 24 b0 6f 3e 64 70 6c 3e 7d a5 05 3d 6a f6 9f bd
       0.23407036 0.23089749 0.032628525 -0.07810672
000330 14 4c 1b be 61 77 99 3e 3b d6 85 3e a7 84 08 3e
       -0.1516574 0.2997389 0.26140007 0.13331853
000340 80 f5 e4 bc 4e 3e 5f 3e d5 19 0a 3e d1 a0 ac 3c
       -0.027949095 0.21801111 0.13486417 0.021072777
000350 64 d4 9b be 8e d7 95 3d b3 17 8e 3d 20 24 be 3d
       -0.3043548 0.073165044 0.06938114 0.09284234
000360 b3 2b 38 3e 9e 35 51 bd 74 c4 39 3e 33 f0 8d 3d
       0.1798542 -0.051076524 0.18141347 0.0693058
000370 bf cf 16 3d e7 6f a6 3d 9a e9 c0 be 12 58 f1 bd
       0.036819216 0.081268124 -0.37678224 -0.11784376
000380 84 84 69 3e 18 4a 8e be 5c 51 97 3e 58 cb a3 3d
       0.22804457 -0.27790904 0.2955426 0.07997769
000390 4d 1d ca bd d2 d3 68 3e d6 01 4f 3e 7d a7 5a be
       -0.0986887 0.22737053 0.20215544 -0.21352954
0003a0 f1 f5 ee 3e 0f 5d ca 3e cb ef 8a 3e 7a 23 ed 3e
       0.46672013 0.39524123 0.27136073 0.4631613
0003b0 32 c7 1b 3e 4d 56 7b 3e a1 87 da 3e d9 b9 c6 bd
       0.15212706 0.2454464 0.42681602 -0.097034164
0003c0 9b b7 b5 bd 38 20 d8 3d 81 d5 d6 3e ea 92 06 be
       -0.088729106 0.1055302 0.41959766 -0.13141981
0003d0 14 bd 22 be b6 e3 d4 3e e9 b7 bb be 9f c4 73 3d
       -0.1589244 0.4157998 -0.3666375 0.059513684
0003e0 35 17 01 3f 14 7c d2 3e 7d 1c 8b 3e 36 28 99 bd
       0.50426036 0.4111029 0.27170172 -0.07478373
0003f0 81 d5 60 bd a6 c7 a5 3e 63 00 b6 bd 46 20 61 3d
       -0.054891113 0.32378882 -0.088867925 0.05496242

encoder.fc2.bias f4 [16]
000000 74 92 1e bd ed a9 91 3e a0 1d 10 3e 20 ef ea 3d
       -0.038713887 0.28449956 0.14073801 0.11471391
000010 a1 39 1c 3e ce 2d 67 ba 15 34 aa 3c 7d 67 ab 3e
       0.15256359 -0.0008818776 0.020776788 0.33477393
000020 ee d2 fe bc 2e ae 4f 3d e1 d5 1f 3d ba b4 52 3d
       -0.031106438 0.05070322 0.03902233 0.051441886
000030 46 ac ad 3c 27 0d 81 3e c6 ab 7d be 83 62 3e be
       0.02120031 0.25205347 -0.24772558 -0.18592267

encoder.fc3.weight f4 [3, 16]
000000 23 b9 d2 3e d4 60 f5 3e 2c 97 5a 3e 70 5b 9e 3e
       0.41156873 0.47925436 0.2134673 0.30929136
000010 a4 ad 58 3e 20 e2 bd be 7c 08 e8 be db d9 85 bd
       0.21159989 -0.37086582 -0.45318973 -0.06535693
000020 2b 0b 53 bc bf 67 4d be f9 8d 8d 3e a2 ff cf 3e
       -0.012881081 -0.20059107 0.2764738 0.4062472
000030 36 94 a0 bd a0 05 c9 be fb 9c 7f 3c 6d b4 4c be
       -0.07840769 -0.39262104 0.015601392 -0.19990702
000040 17 fb 10 3e 4a e5 f1 3e 0d 5f fd 3d 91 66 71 3e
       0.14158283 0.47245246 0.12371645 0.23574282
000050 b7 15 d6 3e 9f 30 40 3d 8d 02 89 3d 76 eb dc 3e
       0.41813442 0.04692137 0.0668994 0.43148392
000060 e1 ce 1d 3c d5 39 2e 3e 7c 66 8b 3e 85 05 8e 3e
       0.009631843 0.17014249 0.27226627 0.27738586
000070 13 dc 3e 3d b0 be 95 3e 30 28 69 bd 1d c8 18 3e
       0.046596598 0.29247046 -0.05692309 0.14920087
000080 21 cf d2 be 4b 91 af 3d b3 fc be 3d f1 a2 a7 bd
       -0.41173652 0.08572634 0.09325542 -0.081853755
000090 db 23 89 be 28 b4 6a 3e 9e 97 40 3d 04 27 e3 3e
       -0.26785168 0.22920287 0.047019593 0.44365704
0000a0 f4 e1 14 bf 4e e0 ac 3e 89 8e 95 be df c1 97 be
       -0.5815728 0.3376488 -0.29210308 -0.296401
0000b0 a4 25 75 3c b9 f0 07 be 8d bf 47 bf 04 fd 35 be
       0.0149625875 -0.13275422 -0.7802666 -0.17772299

encoder.fc3.bias f4 [3]
000000 c2 30 97 3d aa 5f f1 3e 1f 13 af 3d
       0.07382347 0.47143298 0.08548569

fc4.weight f4 [32, 3]
000000 da 59 0b bf 3e 2f 59 3e 36 41 39 3e 19 7c d0 3e
       -0.5443398 0.21209428 0.18091282 0.4071968
000010 95 0a cd 3e bb ec a4 bd 6c 50 ee 3e af 61 08 bf
       0.40047136 -0.08052965 0.46545732 -0.53274053
000020 1c 54 fb 3e 82 ac 82 3d 57 2b 4e be 43 51 13 bf
       0.49087608 0.063805595 -0.2013372 -0.5754587
000030 de 85 0c bf 23 94 90 3e 47 74 98 3e 78 26 03 bd
       -0.54891765 0.2823802 0.29776213 -0.03201911
000040 af 96 36 be 46 05 37 3e 25 d4 4f 3e ef e4 88 3e
       -0.17830919 0.17873105 0.2029577 0.26737162
000050 f8 8d 01 3f 3a 00 6e 3e f9 23 b6 be f4 5d 64 be
       0.5060725 0.23242274 -0.3557432 -0.22301465
000060 82 93 9c 3e 87 d4 c1 3d 58 b9 be 3e 9f d1 b9 be
       0.3058129 0.094643645 0.3725078 -0.3629274
000070 9e 51 6d bd b5 bc 8a 3d f0 23 79 be 56 02 6d 3e
       -0.057939164 0.06774274 -0.24330115 0.23145422
000080 82 2d 84 3e 7f 67 ed be 0d c5 80 be 97 06 2c be
       0.2581597 -0.46368024 -0.25150338 -0.16799389
000090 b0 70 45 3d d1 b1 bf be a4 1a 30 3e 61 7f d4 bd
       0.04820317 -0.3744035 0.17197663 -0.10375858
0000a0 43 11 13 bf c1 07 02 3f 96 f9 7a 3e 4b 09 76 3e
       -0.57448214 0.5079308 0.24509272 0.24026982
0000b0 38 f2 0e 3f 27 78 93 3e dd 41 4d bd 01 e2 0c 3e
       0.55838346 0.28802606 -0.05011164 0.13758089
0000c0 30 47 06 3e 67 ce 92 3e 82 d5 98 bc e6 81 d4 be
       0.13113093 0.28673097 -0.018656496 -0.41505355
0000d0 65 f5 55 bd 31 bb 0e bf e4 31 24 3d 06 b2 cc 3e
       -0.05223598 -0.5575438 0.040086642 0.3997957
0000e0 77 30 54 be 6c 26 c9 be 62 9d 05 3f 8f 2c 1a 3d
       -0.20721613 -0.39287126 0.5219327 0.03764015
0000f0 51 9e 79 bd 56 f6 62 3d 58 fd a7 3e 98 3c 0a bf
       -0.060941998 0.055410706 0.32810473 -0.5399871
000100 2a f8 a2 bd ec 60 06 3f 27 c4 f9 be 20 fc c4 be
       -0.0795749 0.5249164 -0.48782465 -0.38473606
000110 09 95 11 3e e5 e3 e3 3c eb a1 0b 3f 76 94 fb be
       0.14217009 0.02781863 0.5454394 -0.49136704
000120 cb 31 ef 3e 69 a6 1e be ea 48 01 3f 9e e8 23 3e
       0.46717677 -0.15493168 0.50501883 0.16006705
000130 65 4e 8e 3e 64 93 0d bf 62 68 91 be 39 39 ae 3d
       0.27794185 -0.55303025 -0.2839995 0.08507008
000140 de c7 33 3e d1 08 3f 3d 27 73 eb 3e bb c2 a8 be
       0.17556712 0.046639267 0.45986292 -0.32961068
000150 a8 22 12 3e 20 cf e3 be f0 be d4 3e 58 cf 8e be
       0.14271033 -0.4449396 0.41551924 -0.27892566
000160 c9 88 15 bf 2a fd cf be 67 58 e7 be 66 51 a0 3d
       -0.5841184 -0.40622836 -0.45184633 0.078280255
000170 54 4b d3 be d6 b7 b2 3e e7 c9 cb bd 5d c8 0f bf
       -0.41268408 0.3490588 -0.09950619 -0.56165105

fc4.bias f4 [32]
000000 fe 39 05 bf 0a bc b1 be aa 23 0f 3f 01 97 e2 3e
       -0.52041614 -0.34713775 0.55913794 0.44255832
000010 95 4c 85 3e b4 34 c6 be 3c c6 aa be 4b 59 b9 3e
       0.2603499 -0.38712084 -0.33354366 0.36200938
000020 cd 77 60 be 59 7e 05 bd b1 e3 0e bf 09 ff 10 bf
       -0.219207 -0.032591198 -0.5581618 -0.5663915
000030 ee 65 0a be 00 e4 65 3e 2b 51 c9 bd 93 86 96 bd
       -0.13515446 0.22450256 -0.09829935 -0.07349887
000040 1f ce 86 3e 95 0f 56 be 94 73 cb 3e e8 ec 8c 3e
       0.26329133 -0.20904382 0.39736617 0.27524495
000050 6f b0 92 3e ca 28 0d 3f 8d 15 8a be c4 12 f0 be
       0.28650233 0.55140364 -0.26969567 -0.46889317
000060 b9 62 7d 3d 54 d5 c6 be 95 f7 f6 be 04 30 d3 3e
       0.061861727 -0.3883463 -0.48235765 0.4124757
000070 54 3e f5 bd d9 75 a4 3e 90 d5 f8 3e bc a7 e4 3e
       -0.11974779 0.3212116 0.48600435 0.4465922

fc5.weight f4 [16, 32]
000000 47 07 31 3e 31 ff 31 be 70 88 ca 3c 5f d7 1b 3e
       0.17287932 -0.17382504 0.024723262 0.15218876
000010 77 1a f3 bd d5 90 1f 3e ac 19 3a 3d 44 20 23 be
       -0.11870282 0.15582593 0.04543464 -0.15930277
000020 aa 64 05 bd 66 e6 7f bd ac fd ff 3c fb 7c 89 3c
       -0.032566704 -0.062475584 0.03124889 0.016783228
000030 e0 a7 5b 3d f5 3d 27 3b 38 34 9e 3d 77 37 fc bd
       0.053626895 0.0025519107 0.07724804 -0.123152666
000040 6c ab 76 bd 6d b7 c5 3d 5b 57 69 bd bb 27 2c bd
       -0.060222074 0.09654126 -0.056968074 -0.042030077
000050 fb 40 92 3c 5c b1 8f bd 47 60 17 be a9 35 25 3c
       0.01785325 -0.070162505 -0.1478282 0.010083594
000060 ef b9 10 3e b8 f3 ef 3d 55 b4 c1 3c 1d c6 b9 bd
       0.14133428 0.117164075 0.02364556 -0.0907099
000070 ac 6d 49 bd a1 df 2a bc 8c e0 e5 bd aa e5 c7 3d
       -0.049176857 -0.010429294 -0.112244695 0.09760602
000080 19 be 02 3e 20 ee c9 3b 0e 3d 00 be 8b 09 2a 3e
       0.12767829 0.00616242 -0.1252329 0.16605203
000090 d8 7f d7 3c 00 9b 77 3c f4 98 18 be ae 2f ab 3d
       0.026306078 0.0151126385 -0.14902097 0.083587036
0000a0 4a 33 d0 3d 20 ac 1b bd b6 e5 ff 3d 80 45 27 3c
       0.101660326 -0.038005948 0.12494986 0.010209441
0000b0 60 aa cc 3b 32 90 65 bd f0 75 28 be 22 4f bd 3d
       0.006245896 -0.05604572 -0.1645124 0.09243609
0000c0 ac 4f 7f 3d f2 4d d8 3d 3d 78 d3 bd f7 92 fb bd
       0.06233184 0.10561742 -0.10325668 -0.12283891
0000d0 eb 60 0a 3e 54 f4 2b be 68 46 5d 3d 00 a4 5c 39
       0.13513534 -0.16792423 0.054022223 0.0002104193
0000e0 c2 52 e0 3d d0 d1 db bd 8d fc 97 bd ab 15 2e be
       0.10953285 -0.10733378 -0.07421217 -0.17000453
0000f0 2d f6 97 bd 63 02 11 3e 44 33 3c 3d 48 20 64 bd
       -0.07420001 0.14161067 0.04594733 -0.05569485
000100 38 80 2e bd f0 85 20 3c 26 db e4 3d e0 96 0c 3d
       -0.042602748 0.009797558 0.11174612 0.034323573
000110 00 2d d3 bb 8a 9d 2d be 06 5e af 3d 59 35 1c be
       -0.0064445734 -0.16954628 0.085628554 -0.15254726
000120 90 ff a5 3c a6 e9 a3 bd 3e a7 c2 3d 8c 0c b6 bd
       0.020263463 -0.08003549 0.09504555 -0.08889112
000130 c0 f9 17 3b 11 02 14 3e 7d 69 32 be 0c 89 2c bd
       0.0023189634 0.14453913 -0.17423053 -0.042122886
000140 fe 46 e1 3d 96 35 bf 3d d9 52 94 bd af ce 22 be
       0.10999869 0.093363926 -0.072423644 -0.15899156
000150 f0 16 4e 3d 47 dc 12 3e 34 db e5 bd 6e 9f 25 be
       0.050314844 0.14341842 -0.1122345 -0.16174099
000160 00 23 30 3d f6 f5 b3 bd b8 17 93 3c 3e 6d 30 be
       0.04300213 -0.08787148 0.017955646 -0.17229173
000170 fe f6 ee 3d 0f 76 11 be 3f 65 23 3e 48 1f ca 3c
       0.11668204 -0.14205192 0.15956591 0.02467312
000180 a7 0f 50 bc 95 da 99 3c d0 a6 e1 bc b6 ca 3d be
       -0.012699044 0.018780986 -0.027545363 -0.1853436
000190 9c 86 3b 3d 8c 1f 51 3d bd f5 2b bc 76 89 fd 3d
       0.04578267 0.051055476 -0.0104956 0.12379734
0001a0 e6 61 18 bd ca 2b b2 bd 16 17 5f 3d 9b 0e 2c 3e
       -0.03720274 -0.08699758 0.054465376 0.16802447
0001b0 66 e5 97 3d 0d 46 28 3e d6 04 a8 bc fc ba 77 3d
       0.07416801 0.16432972 -0.020510118 0.060481057
0001c0 5e 3d d6 3d bf 9b 7a 3d d8 46 c0 3d f2 20 17 be
       0.104609236 0.061183687 0.093885124 -0.14758661
0001d0 df f9 a5 3d c6 c9 aa 3d d7 9a 17 3e d7 b2 ac 3d
       0.081043 0.083392665 0.1480516 0.084325485
0001e0 78 27 51 bd ca 20 80 bc 1f 15 07 be 4f ab 7b bd
       -0.05106303 -0.015640635 -0.13191651 -0.06144267
0001f0 4e 0f a0 3d e0 0a d2 bb 8e b7 0a be 20 8e 2d 3d
       0.07815419 -0.006409988 -0.13546583 0.04237187
000200 02 ac 59 bd e9 27 0d 3e 6e c2 c7 3d f5 37 9a bb
       -0.053142555 0.13784756 0.097538814 -0.0047063776
000210 54 07 03 3d e5 ad 25 be c9 88 9b 3c d8 36 ee 3d
       0.03198941 -0.16179617 0.018986123 0.11631554
000220 d2 7b 83 3d 8d 65 bb bd e7 58 69 bc 9d 6a f4 3b
       0.06420101 -0.09150229 -0.014242387 0.0074589984
000230 d0 49 4e 3c 41 96 28 3e db 48 87 bb 78 43 1f be
       0.01259084 0.16463567 -0.004128558 -0.15553081
000240 e0 13 02 3e 57 0a 10 be b2 8b 89 3d 49 e4 fc bd
       0.12702894 -0.14066444 0.06716098 -0.123482294
000250 11 cf 96 3d 20 71 11 be ec 59 7f bd 30 b4 e0 3d
       0.073637135 -0.1420331 -0.062341616 0.10971868
000260 52 bc 1b 3d d0 32 a0 bc 11 f2 70 bd 89 9f 2f 3e
       0.038021393 -0.01955548 -0.058824603 0.17150702
000270 30 04 5c 3d 66 cb 0a 3c 44 ec ab 3d 3d 17 df bd
       0.05371493 0.0084713455 0.083946735 -0.10893104
000280 46 23 34 bd d1 6e 99 bd 80 55 89 3d 7c 7f 23 3d
       -0.043978952 -0.0749184 0.06705761 0.0399165
000290 4a c3 19 3e 51 ef 22 3d 03 44 71 3c 83 7b 83 3d
       0.15015903 0.03977901 0.014725688 0.06420042
0002a0 83 70 f9 bb e8 41 07 3e 4b bd f2 3d 08 14 ad 3d
       -0.0076122894 0.13208735 0.11852511 0.08451086
0002b0 fc 72 7e 3d 74 03 21 3e 37 6b cf bc 6f b3 52 bc
       0.062121376 0.15723974 -0.025319679 -0.012860163
0002c0 da b5 5b bd fb 4d c6 bd 50 7d 17 3e 26 aa 2a 3d
       -0.053640224 -0.09682842 0.14793897 0.041666172
0002d0 3a c9 21 3e 08 95 c4 3d 3e 0a d0 bd 24 ab 8e 3c
       0.15799418 0.09598738 -0.101582035 0.01741559
0002e0 c5 ff 5d 3d 96 56 1b 3e 80 18 ba 3b 8f f7 4f bd
       0.054199 0.15169749 0.00567919 -0.0507732
0002f0 30 cf 80 bc f5 75 8a bd bb e9 78 bd f7 21 a2 3d
       -0.015723795 -0.0676078 -0.060769778 0.079166345
000300 ce 0f 8f 3c 15 64 3d 3d f0 d5 f5 bd 3a 5a 04 be
       0.017463591 0.046238024 -0.12003696 -0.12925044
000310 73 98 8f 3d 69 cb 8e bd a5 96 82 bd 79 04 c0 bd
       0.07011499 -0.06972391 -0.063763894 -0.09375853
000320 72 27 9e 3d fd 33 1c bc c7 ec 45 bd 59 a6 08 be
       0.07722367 -0.009533879 -0.04832151 -0.13344707
000330 c1 aa 16 3e 66 78 ef bd a6 bc 3d bd bc fe 07 be
       0.14713575 -0.11692886 -0.046322487 -0.13280767
000340 f3 d4 96 bb e6 8e a9 3d 06 4f 2a 3e c2 93 25 3e
       -0.0046030222 0.08279209 0.16631708 0.16169646
000350 ca 5a dd 3d 41 b5 2a be 56 12 ad 3d e4 50 0e 3e
       0.10808332 -0.16670705 0.08450763 0.13898045
000360 44 7d 0c 3e ad b0 ba bd bc 11 1d be 3f 3b f0 bc
       0.1371966 -0.091157295 -0.15338796 -0.029325126
000370 b0 7e 73 3d 25 3c 73 bc c5 b1 11 be a9 f0 db 3d
       0.05944699 -0.014845883 -0.1422797 0.10739262
000380 54 e4 26 be 43 e7 0b 3e b7 96 09 3e f5 8c 18 3e
       -0.16298038 0.13662438 0.134364 0.14897521
000390 d5 87 e1 39 c0 40 3f bb e4 60 32 be 65 7a 1d 3e
       0.00043016547 -0.002918288 -0.17419773 0.15378721
0003a0 35 2a cc bd ed 5d b6 3c 8f be 34 be 81 7f 24 be
       -0.09968988 0.022261584 -0.17650817 -0.16064264
0003b0 0b b0 33 3e 03 15 33 be 1a be 18 be c1 27 84 bd
       0.17547624 -0.17488484 -0.14916268 -0.06452895
0003c0 01 36 d0 3d c7 72 9d 3c e6 1f 01 bd 71 23 95 bd
       0.101665504 0.01921977 -0.03152456 -0.072821505
0003d0 df 51 04 bd 26 f3 9c bd ab b5 29 be 19 a8 90 bd
       -0.03230464 -0.076635644 -0.16573207 -0.07063312
0003e0 44 f8 ce bd 10 56 f5 3d f1 01 b8 3d 62 dd 1a 3e
       -0.10105947 0.11979306 0.08984745 0.15123513
0003f0 7e d6 26 be a8 ea ab 3b 2d 8c 4e be 50 e6 80 3d
       -0.1629276 0.005246479 -0.2017066 0.062939286

fc5.bias f4 [16]
000000 32 18 b4 3d 18 14 88 bc c8 13 9f bc 59 7c 6e 3c
       0.087936774 -0.016611144 -0.019418612 0.014556014
000010 d9 b0 11 bc ed 00 38 3d 8e 56 4e bd 0a 49 f5 3d
       -0.008892261 0.044922758 -0.050375514 0.11976822
000020 c2 b2 31 3e 8c 3f 28 bd 2b 84 a3 3d a8 15 2a 3d
       0.17353347 -0.041076228 0.079841934 0.04152456
000030 c0 89 85 bb 3e a1 cf 3d 12 e9 c5 bc 33 14 ab bd
       -0.004075259 0.101381764 -0.024158988 -0.08353462

fc6.weight f4 [6, 16]
000000 23 9d 72 3e e0 97 18 bd a2 84 39 be ef b0 3f 3c
       0.23692755 -0.037254214 -0.18117002 0.011699899
000010 a2 65 38 be 1a 23 4f 3d 7a 88 34 be cc 4f 78 be
       -0.1800752 0.050570585 -0.17630187 -0.2424919
000020 9a 08 8b be a4 f2 fc 3d a1 84 17 3e 7d e1 f1 3d
       -0.27155 0.123509675 0.14796688 0.118105866
000030 48 ed 7c 3c a3 44 2d bd 83 e7 59 be 86 67 1d 3e
       0.015437432 -0.042301785 -0.21279721 0.15371522
000040 26 0d 65 be bc a2 9a bd 02 44 5d 3e 47 bb 29 be
       -0.22368297 -0.0755057 0.21607974 -0.16575347
000050 8f 97 af bd ff 83 6e bd 84 d6 6f be 5e b0 c0 3e
       -0.085738294 -0.05823135 -0.23421675 0.37634557
000060 da 2d e5 3d 72 1f 7b be aa c1 c2 bd f4 d7 6f be
       0.11190386 -0.24523714 -0.09509595 -0.23422223
000070 4d 4c dd 3c 06 1c bc bd 6c 05 dd bd fc ad 97 3e
       0.027013922 -0.091850325 -0.1079205 0.29624927
000080 df 8f 42 3e 54 ca 39 3e 58 83 b5 bd 85 0f 21 bc
       0.19000195 0.18143588 -0.088629425 -0.00983036
000090 ae b8 25 3d e8 bf 84 be 08 a0 b8 3d e2 73 c4 3d
       0.040459327 -0.25927663 0.090148985 0.095924154
0000a0 2e 05 44 bd 40 fc 5c 3e a6 75 a2 3d e6 7c df bd
       -0.047856502 0.215806 0.07932596 -0.10912494
0000b0 95 fc 5f 3e ea 0e db 3d ff f1 de bc 0f ba 3e be
       0.21873696 0.10696204 -0.027215002 -0.18625663
0000c0 bf e9 68 3e c8 bb eb bd 00 23 d4 3d 0c c1 18 3e
       0.22745417 -0.11510426 0.10358238 0.14917392
0000d0 68 b9 84 3e 42 2d 89 bd 5e 54 15 bc 0b 02 44 3d
       0.25922704 -0.06698085 -0.009114353 0.04785351
0000e0 e7 f0 da bc dc a1 80 3d e2 6f 3f bd a5 29 38 3e
       -0.0267262 0.06280872 -0.04673756 0.17984636
0000f0 81 1b 31 3e 1e d9 cd bd 52 fe 00 be e7 bf 83 be
       0.17295648 -0.100511774 -0.12597016 -0.25732347
000100 96 e1 41 be d8 31 62 3d a6 58 77 be 44 b8 6e bd
       -0.1893371 0.055223316 -0.2415491 -0.0582812
000110 24 34 f6 bd 9e 1e d3 3d f6 6c d4 3d a9 1e 5d bd
       -0.12021664 0.10308574 0.10372345 -0.053984318
000120 d1 3e b7 3d 76 c1 62 be 09 06 d5 bd 59 e3 1f bd
       0.08947528 -0.22144112 -0.10401542 -0.039035175
000130 55 59 ae bb 8d bd 12 3e 76 b8 6d 3e af 44 8d bd
       -0.005320708 0.1433012 0.23214898 -0.06897866
000140 c8 b7 38 3e a8 c9 9a bd e0 47 95 bc 9c a3 15 be
       0.18038857 -0.07557994 -0.01822275 -0.14613193
000150 00 8c ae bc 9c 64 a9 bd ae ec 19 be 40 e8 5c be
       -0.021306992 -0.08271143 -0.15031692 -0.21572971
000160 c0 9b 39 3d b8 fd 39 3d e2 a0 29 be ac d1 00 3e
       0.04531455 0.04540798 -0.16565278 0.12579983
000170 b4 df 2f 3e 3c a2 87 bd 64 17 55 be 18 42 49 bd
       0.1717518 -0.066227406 -0.20809704 -0.049135298

fc6.bias f4 [6]
000000 9a c7 59 3e d7 b9 de 3d ac f1 53 be 58 c8 30 bd
       0.21267548 0.1087529 -0.20697659 -0.043159813
000010 eb 1f d2 bd 78 08 bf bd
       -0.10259994 -0.09327787
