model/model_vae_mlp_f6_c200_z1.pth (torch_old, 12331 bytes, 20 tensors)

fc1.weight f4 [32, 6]
0	0x3ec993bf	0.39370534
1	0x3dc59e2b	0.09649309
2	0xbe56265c	-0.2091307
3	0xbdc35358	-0.09537381
4	0x3eb2efeb	0.34948668
5	0xbe723cd4	-0.23656017
6	0xbe4d7678	-0.20064723
7	0xbcb620df	-0.022232471
8	0x3ea10cf3	0.31455192
9	0x3ebd74d8	0.37003207
10	0x3ea1c565	0.31595913
11	0xbceb7ecc	-0.028746985
12	0x3df53358	0.11972684
13	0x3c96cb21	0.018407406
14	0x3e934b3c	0.28768337
15	0xbec4b304	-0.38417828
16	0xbe00fc09	-0.12596144
17	0x3df605ed	0.12012849
18	0x3c021fb9	0.007942134
19	0x3e09d7ce	0.13461229
20	0x3c115641	0.008870662
21	0x3dbf9a33	0.09355583
22	0xbe94d89c	-0.2907151
23	0x3e9a30e4	0.30115426
24	0xbd1297ba	-0.03578923
25	0x3de0ef3b	0.109831296
26	0xbd53488c	-0.051582858
27	0x3e19630c	0.1497919
28	0xbdd425e9	-0.10358793
29	0x3df4dbba	0.11955972
30	0xbee400b0	-0.44531775
31	0x3da2366d	0.07920537
32	0x3e916cb0	0.28403234
33	0x3d584dc0	0.052808523
34	0xbd1221d7	-0.035676803
35	0xbea0ac71	-0.31381562
36	0xbea82ab1	-0.3284507
37	0xbe245e53	-0.16051607
38	0x3e3c1784	0.18368345
39	0x3e2ebe7a	0.17064849
40	0x3e0a56d2	0.13509682
41	0xbe452df4	-0.19255811
42	0xbd211205	-0.039323825
43	0x3e18c662	0.14919427
44	0x3dd6f357	0.10495632
45	0x3e9ad25c	0.30238616
46	0x3ea57891	0.32318547
47	0xbeabf5c2	-0.33585936
48	0xbde0f0fa	-0.10983463
49	0x3e858f62	0.26085955
50	0xbed9cca6	-0.42538947
51	0x3c9c7b11	0.019101651
52	0x3dfab4e4	0.122415334
53	0x3e8e0277	0.27736256
54	0xbe1be80c	-0.15225238
55	0xbdf5e136	-0.12005846
56	0x3e85b38a	0.2611354
57	0xbe1c1f21	-0.1524625
58	0xbd8e4dda	-0.06948443
59	0x3e311373	0.17292576
60	0xbe84d494	-0.25943434
61	0xbe425823	-0.18978934
62	0x3e9851a1	0.29749778
63	0x3e299f34	0.16564637
64	0xbeff7605	-0.4989473
65	0xbdebfef8	-0.11523241
66	0xbe44f64b	-0.19234578
67	0xbeb0da92	-0.34541756
68	0xbdb8eaac	-0.09029135
69	0xbe002da6	-0.12517413
70	0x3c5de7c5	0.013544028
71	0xbe2bc486	-0.16774186
72	0x3e621ca4	0.22081238
73	0xbe74a0cc	-0.23889464
74	0xbe8ac17f	-0.2710075
75	0xbe8eba1d	-0.27876368
76	0x3dc5f8c3	0.09666588
77	0x3e921319	0.28530195
78	0xbe992d14	-0.29917204
79	0x3d1f9fbd	0.038970698
80	0xbbe3a660	-0.0069473237
81	0x3df63f2f	0.1202377
82	0xbdbbb31c	-0.09165022
83	0x3e8f8aed	0.2803568
84	0xbe1357b6	-0.14388928
85	0x3e323774	0.17403966
86	0xbdf784e8	-0.12085897
87	0x3da825f5	0.08210365
88	0xbec0b4e1	-0.37638
89	0xbef18fee	-0.47180122
90	0xbe851cc5	-0.25998512
91	0x3ece465d	0.40288058
92	0x3dc76d95	0.09737698
93	0x3e2bb765	0.16769178
94	0xbeaf9845	-0.3429586
95	0x3d6a8038	0.057251185
96	0x3da77e48	0.08178383
97	0x3e86216a	0.26197368
98	0xbda91635	-0.08256189
99	0xbe5e7f30	-0.21728206
100	0xbd87c37b	-0.06629082
101	0x3da71e19	0.081600375
102	0xbe8507fa	-0.25982648
103	0x3d678cbb	0.056530695
104	0xbecc7aa4	-0.39937317
105	0xbe3a6c43	-0.18205361
106	0x3ed91bd2	0.42404038
107	0x3e5fd6f1	0.21859337
108	0xbe9a05bc	-0.300825
109	0x3e170426	0.14747676
110	0x3e1a9140	0.15094471
111	0xbe308b1b	-0.17240565
112	0x3e5b3f1b	0.21410792
113	0xbdfe8cdb	-0.1242921
114	0x3ea6940b	0.32534823
115	0xbc29dc54	-0.010367472
116	0x3e95f26e	0.29286522
117	0xbe92ad19	-0.28647688
118	0xbe99fd07	-0.30075857
119	0x3ea8f6df	0.33000848
120	0xbc0a4900	-0.008440256
121	0x3d3f8bdc	0.04676424
122	0xbe152a3d	-0.14566894
123	0x3e3c6fdf	0.1840205
124	0x3e9fcb35	0.31209722
125	0xbe24a445	-0.16078289
126	0xbe525bba	-0.20542803
127	0x3e3f9fd3	0.18713312
128	0xbec2e42a	-0.380647
129	0x3ea7bf82	0.32763296
130	0x3cac42ce	0.021027949
131	0x3e61fc58	0.22068918
132	0x3e1d6325	0.15369852
133	0xbd94f8a2	-0.072739854
134	0x3e9459e1	0.28974822
135	0xbec20bc4	-0.378996
136	0x3ea50e13	0.322373
137	0xbed2103e	-0.41028017
138	0x3e46f4c6	0.19429311
139	0xbea64269	-0.32472542
140	0xbeb93112	-0.3617025
141	0x3e89287a	0.26788694
142	0x3e5903b3	0.21192817
143	0x3eb95c1c	0.36203086
144	0xbe3ab757	-0.18234001
145	0x3ee18430	0.44046164
146	0xbe060e82	-0.13091472
147	0x3e9b7a8b	0.3036693
148	0x3b56ea07	0.00327933
149	0xbe2cb527	-0.16865979
150	0x3e9105c8	0.28324723
151	0xbea4d29b	-0.3219193
152	0x3e043368	0.12910235
153	0x3e939e47	0.28831694
154	0x3dc4a760	0.09602237
155	0x3e9fcba4	0.31210053
156	0xbdfc0413	-0.123054646
157	0xbdd244ef	-0.10267054
158	0xbeae9b5b	-0.34102902
159	0xbea124df	-0.31473443
160	0x3d858f50	0.06521475
161	0xbe1cb0dd	-0.15301843
162	0xbe1bf923	-0.15231757
163	0x3c979db7	0.018507821
164	0xbda348e0	-0.07972884
165	0x3e8c1026	0.2735607
166	0x3ee37abb	0.44429573
167	0xbe4c2be4	-0.19938618
168	0xbe16c7f3	-0.14724712
169	0x3e552da8	0.20818198
170	0xbe184827	-0.14871274
171	0xbd944907	-0.07240491
172	0x3e6b1f66	0.22961196
173	0x3e68d561	0.22737648
174	0x3e4ffd47	0.20311461
175	0x3e415909	0.1888162
176	0xbe34a57a	-0.1764125
177	0xbe823bbb	-0.25436196
178	0xbe3c8769	-0.1841103
179	0x3ba319c7	0.004977438
180	0x3dcbb673	0.09946909
181	0x3dffcf82	0.12490751
182	0x3e439ffa	0.19103995
183	0x3df83299	0.12119026
184	0xbe8c2d0e	-0.27378124
185	0x3eb91bed	0.36154118
186	0xbcbcb0d1	-0.023033531
187	0xbe3c127d	-0.18366428
188	0x3d73dbb2	0.05953569
189	0xbd8ffbd3	-0.070304535
190	0x3d9f42e3	0.077764295
191	0x3e53e7e8	0.20693934

fc1.bias f4 [32]
0	0x3dc4fb21	0.096182115
1	0xbcb2a33a	-0.021806348
2	0xbe1746f5	-0.14773162
3	0xbe05f207	-0.13080607
4	0xbeda611d	-0.42652217
5	0xbeb38600	-0.3506317
6	0xbe71d89f	-0.2361779
7	0x3ebb202e	0.3654799
8	0x3e8a459c	0.27006233
9	0x3d30c245	0.04315402
10	0x3e8ae9df	0.27131554
11	0x3e1c7cb4	0.15281945
12	0x3eb50b8f	0.3536038
13	0x3e916081	0.2839394
14	0x3f38f698	0.7225127
15	0x3dec135c	0.1152713
16	0xbe92ab88	-0.28646493
17	0x3e3ce4d7	0.1844667
18	0x3ebb1cdc	0.36545455
19	0xbc9b8bbf	-0.018987535
20	0x3d2eef6b	0.042708796
21	0x3e3803fb	0.17970268
22	0x3e4ade33	0.19811325
23	0xbcaac417	-0.020845456
24	0xbdfff5c1	-0.12498046
25	0xbcf98b06	-0.0304618
26	0x3dcfedf5	0.101528086
27	0x3e91a2e9	0.28444603
28	0x3d1e0ffa	0.038589455
29	0x3ebe6c13	0.3719183
30	0xbe16b783	-0.14718442
31	0x3de86358	0.11347073

fc2.weight f4 [16, 32]
0	0xbd98354b	-0.0743204
1	0xbdcce63d	-0.10004852
2	0xbe40e979	-0.18839063
3	0x3d84da4e	0.06486951
4	0x3cb3c2af	0.021943418
5	0x3d4aabe4	0.049480334
6	0x3d43ad7a	0.047772862
7	0x3e0e1377	0.13874613
8	0x3e481a41	0.19541265
9	0xbe666177	-0.22498117
10	0xbe80b662	-0.25139147
11	0xbe07b72d	-0.1325347
12	0x3e7cd391	0.24690081
13	0xbd9f45b5	-0.077769674
14	0xbe861d42	-0.26194197
15	0x3d5f13a6	0.054462098
16	0x3d6a88f5	0.05725952
17	0x3dd5f388	0.104468405
18	0x3e47cc3a	0.195115
19	0xbc4f855b	-0.012666072
20	0x3d07ae18	0.033125013
21	0x3db86758	0.09004086
22	0x3d3cf952	0.046136208
23	0x3e056a3c	0.13028806
24	0xbd84f44a	-0.06491907
25	0x3e11bba4	0.14231735
26	0xbe1aba55	-0.15110143
27	0x3db1cf32	0.086820975
28	0x3dc1ed39	0.09469075
29	0xbe5570c6	-0.20843801
30	0xbe14a228	-0.14514983
31	0x3e0a8ce0	0.13530302
32	0xbd7cd9a2	-0.06173099
33	0x3c3f68fc	0.011682745
34	0x3db3e89b	0.087846
35	0xbd9aa972	-0.075518504
36	0x3e224436	0.15846333
37	0xbdda488f	-0.10658371
38	0xbc5ebcf2	-0.013594853
39	0x3e3e48af	0.18582414
40	0x3e0b6955	0.136144
41	0x3dc9a8c6	0.09846644
42	0xbe012ac6	-0.12613973
43	0xbd2062ed	-0.039156843
44	0x3e5cd1f1	0.21564461
45	0x3d5249ef	0.05134004
46	0xbdf7fa9b	-0.12108346
47	0x3c8649e3	0.016392654
48	0x3e18ea1e	0.14933059
49	0xbd091e8e	-0.033476405
50	0x3d5ecb87	0.054393318
51	0xbe048996	-0.1294311
52	0x3e284440	0.16432285
53	0xbb340768	-0.0027470235
54	0x3dc63aca	0.09679182
55	0x3e174c88	0.14775288
56	0x3d755e5b	0.059904438
57	0x3d52f6ef	0.051505025
58	0x3db86ca1	0.09005094
59	0xbc22373c	-0.009900864
60	0x3dec4bbc	0.11537883
61	0xbe43e570	-0.19130492
62	0x3d31c54e	0.043401055
63	0xbd560c9b	-0.052258115
64	0xbcd96d92	-0.026541505
65	0xbd53b0b0	-0.051682174
66	0x3d46a010	0.04849249
67	0xbccaec21	-0.024770798
68	0x3e20d747	0.15707122
69	0xbdd8becd	-0.10583267
70	0xbd1e3460	-0.038624167
71	0x3bb04fdc	0.0053806137
72	0x3d638c18	0.055553526
73	0x3da18475	0.07886592
74	0x3e038d4c	0.12846869
75	0xbcd6f890	-0.02624157
76	0x3debf549	0.11521394
77	0x3e01686e	0.12637493
78	0x3e2f6a0b	0.17130296
79	0x3c01706f	0.007900341
80	0x3de9cb52	0.114157334
81	0xbd991976	-0.074755594
82	0x3e0688a9	0.13138069
83	0x3da9d5a7	0.08292704
84	0xbe090cb5	-0.13383754
85	0xbde8501b	-0.11343404
86	0xbb416912	-0.002951209
87	0x3d5a844b	0.05334882
88	0xbdde3c30	-0.108513236
89	0xbe0552e9	-0.13019909
90	0xbd674d3c	-0.05647014
91	0xbd1f8c82	-0.038952358
92	0x3dc85657	0.09782093
93	0xbd8529e6	-0.06502132
94	0xbcd1dcc3	-0.025617963
95	0x3e18e14c	0.14929694
96	0x3d8abaab	0.06773885
97	0x3d5905b5	0.05298396
98	0x3c915a61	0.017743291
99	0xbd9ae067	-0.075623326
100	0xbbcb4a2b	-0.00620391
101	0x3d51abd5	0.051189262
102	0x3dae3e3c	0.08507964
103	0xbcfba3b6	-0.030717712
104	0xbd073d5c	-0.0330175
105	0xbd72ab89	-0.05924562
106	0xbebee2e3	-0.37282476
107	0xbddb42ae	-0.107060775
108	0x3e17df34	0.14831239
109	0x3e21ff45	0.15820034
110	0xbebf6d63	-0.37388143
111	0xbe224de0	-0.1585002
112	0x3d702d9e	0.058637254
113	0x3e4b35f7	0.19844805
114	0x3dd8df85	0.10589508
115	0x3bf40a9b	0.0074475533
116	0x3e45174a	0.19247165
117	0x3e35a633	0.17739181
118	0x3d574a6b	0.052561205
119	0x3e427f02	0.18993762
120	0x3e06d688	0.13167775
121	0x3cb51d3c	0.022108667
122	0xbe8fe32c	-0.28103006
123	0x3da70c89	0.08156688
124	0x3de7ce11	0.11318601
125	0x3d4ea928	0.05045429
126	0x3d3cdbe8	0.046108156
127	0xbd8bfaaa	-0.0683492
128	0xbda07f86	-0.07836823
129	0x3b8ead3d	0.0043541477
130	0xbd35d785	-0.04439499
131	0x3e2dfae5	0.1699024
132	0xbe306569	-0.17226185
133	0x3cc0dd9a	0.023543168
134	0x3cd80ce0	0.026373327
135	0xbe1e70da	-0.15472737
136	0xbd95e61b	-0.0731928
137	0x3dbd4679	0.09241957
138	0x3d289c0e	0.04116445
139	0x3e49b37b	0.19697373
140	0x3e1c6b45	0.15275295
141	0x3e1e2a16	0.15445742
142	0x3e825e60	0.25462627
143	0x3e05bf44	0.13061243
144	0xbdd11ae0	-0.10210204
145	0x3dd1d837	0.10246318
146	0x3e370a23	0.1787496
147	0x3d823b78	0.06358999
148	0x3ce8e38a	0.028428812
149	0x3c89f8ca	0.016842265
150	0x3d33e83c	0.043922648
151	0xbe0b7d71	-0.13622071
152	0x3dea43e5	0.11438731
153	0xbd97ec9a	-0.07418175
154	0xbd2f8a98	-0.042856783
155	0x3c2fc59d	0.010728267
156	0xbe38efe9	-0.18060268
157	0x3e466526	0.19374523
158	0xbd327bc4	-0.043575063
159	0xbdbcec83	-0.092247985
160	0x3dfd8136	0.12378161
161	0xbdf9746e	-0.1218041
162	0xbde0a454	-0.10968843
163	0xbd95c3e4	-0.07312754
164	0xbd248f52	-0.040175743
165	0x3ce91a99	0.028455066
166	0x3dff8822	0.12477137
167	0xbdf8bc88	-0.121453345
168	0xbdf343e8	-0.118781865
169	0x3d4cb9dc	0.049981937
170	0xbdfaec72	-0.122521296
171	0x3e1ba2aa	0.1519877
172	0x3c868c05	0.016424188
173	0x3d503f6c	0.050841734
174	0x3d255c05	0.04037096
175	0xbe4d27b0	-0.20034671
176	0xbe387840	-0.18014622
177	0x3c921f07	0.01783706
178	0x3d84f1bd	0.064914204
179	0xbcf4f907	-0.029903902
180	0xbd10b730	-0.03533095
181	0x3d3d2713	0.046179842
182	0x3e4a0481	0.1972828
183	0x3db29c55	0.08721224
184	0xbd32889c	-0.043587312
185	0xbdb03acb	-0.08604964
186	0x3e06483a	0.1311349
187	0xbd58bb18	-0.0529128
188	0xbcf20b03	-0.029546266
189	0xbd02157a	-0.031758763
190	0xbe2ac54a	-0.16676822
191	0xbdaa1b43	-0.08305981
192	0x3d406647	0.04697254
193	0xbe29e814	-0.16592437
194	0xbdb49222	-0.08816935
195	0xbe0e4783	-0.13894467
196	0xbdbbaa6a	-0.09163363
197	0x3e278919	0.16360892
198	0x3d48941c	0.048969373
199	0xbde34444	-0.11097005
200	0xbe183eea	-0.1486775
201	0xbccf0eb7	-0.025275571
202	0x3d7d418e	0.061830096
203	0x3de375b4	0.111064345
204	0xbd11f340	-0.035632372
205	0xbdd104cf	-0.10205995
206	0xbe33cf3a	-0.1755952
207	0x3e00193d	0.12509628
208	0x3e1a9ca1	0.15098812
209	0xbe1d9f89	-0.15392889
210	0xbba409e0	-0.00500606
211	0xbd83c7fd	-0.06434629
212	0xbde38b23	-0.111105226
213	0xbd82f88b	-0.06395062
214	0xbe2bff78	-0.16796672
215	0x3c92c420	0.017915785
216	0xbde13a0a	-0.10997398
217	0x3e2d9fc7	0.16955481
218	0x3dbc1312	0.09183325
219	0xbdb5d60a	-0.08878715
220	0xbd77f3b2	-0.06053514
221	0xbd6f1149	-0.058366094
222	0xbc20c300	-0.009812117
223	0xbd08318a	-0.03325037
224	0x3d09bf55	0.033629734
225	0x3dc52f76	0.09628193
226	0xbde1dd80	-0.11028576
227	0x3d07e4b0	0.033177078
228	0xbe13acbe	-0.14421365
229	0x3e312dec	0.17302674
230	0xbd8c776a	-0.06858714
231	0x3e061f8f	0.13097976
232	0xbdceaa50	-0.10091078
233	0xbd99ca9f	-0.0750935
234	0xbe188b7c	-0.14896959
235	0x3d89b87c	0.06724641
236	0x3d5208ab	0.051277798
237	0xbda95dda	-0.08269854
238	0xbd07d331	-0.033160392
239	0xbcf5392b	-0.029934486
240	0x3e49c01a	0.19702187
241	0x3e6a4f0d	0.22881718
242	0xbcc9e30e	-0.0246444
243	0x3e3065a6	0.17226276
244	0x3d6ca508	0.057774574
245	0x3e2a7962	0.16647866
246	0x3b33a09b	0.002740896
247	0x3e46b862	0.19406274
248	0xbd80b2a0	-0.0628407
249	0xbdc4b9c8	-0.096057475
250	0xbcdcd442	-0.026956681
251	0x3e33680a	0.17520157
252	0x3d470348	0.048587114
253	0xbdf3f14d	-0.11911259
254	0xbdc2a56c	-0.09504208
255	0xbddd2b4e	-0.10799275

fc2.bias f4 [16]
0	0x3d749316	0.059710585
1	0x3e1c9457	0.15290962
2	0x3d3227f3	0.04349513
3	0x3e3f922d	0.18708105
4	0x3e232acb	0.15934293
5	0x3bcb74bd	0.0062089846
6	0x3d698389	0.057010207
7	0x3e61e3ba	0.22059527
8	0x3d85a134	0.06524888
9	0xbd079918	-0.033104986
10	0x3dcb1b46	0.09917311
11	0x3ea485bd	0.32133284
12	0xbd5056be	-0.050863974
13	0xbdf2dd05	-0.118585624
14	0x3e522b27	0.20524274
15	0xbbce7a15	-0.0063011744

fc31.weight f4 [3, 16]
0	0xbc3937bf	-0.011304795
1	0xbe258e2a	-0.16167513
2	0xbb5941e6	-0.003315085
3	0x3dc017ca	0.093795374
4	0x3cf73a13	0.03017906
5	0x3d9be62e	0.07612263
6	0xbe45f67b	-0.19332306
7	0xbd8b2869	-0.06794817
8	0x3db676f6	0.08909409
9	0x3be0d2b3	0.006861055
10	0xbccdcb17	-0.025121255
11	0x3e1e99b7	0.15488325
12	0x3ca4e583	0.020128971
13	0xbddb97d8	-0.10722321
14	0xbdc8c27b	-0.09802719
15	0xbc04e1b9	-0.008110457
16	0xbe1eea40	-0.15519047
17	0xbe18b41a	-0.14912453
18	0xbc99a2a2	-0.018754307
19	0x3cabe779	0.020984398
20	0x3c169839	0.009191566
21	0xbe267559	-0.16255702
22	0xbe6a5a4a	-0.22886005
23	0xbe030837	-0.12796102
24	0xbe2ff9f6	-0.17185196
25	0x3ddd04c5	0.10791925
26	0x3e5346da	0.20632496
27	0xbe26fd2a	-0.16307512
28	0x3d23ba71	0.039972726
29	0x3d161412	0.036640234
30	0x3dab404b	0.08361872
31	0x3cc5d296	0.024148267
32	0xbe46412a	-0.19360796
33	0xbe4495e6	-0.19197807
34	0x3e6975c1	0.22798826
35	0xbdf35369	-0.118811436
36	0x3e833f74	0.25634348
37	0xbd68cfb1	-0.056838695
38	0xbe085030	-0.13311839
39	0xbe57b8d4	-0.210666
40	0x3d786ab5	0.06064864
41	0x3e30589b	0.172213
42	0x3dc94f3e	0.098295674
43	0xbe887336	-0.266504
44	0x3e5a3a64	0.21311337
45	0x3d96d88d	0.073655225
46	0x3e5a3c46	0.21312055
47	0xbcd802a2	-0.026368443

fc31.bias f4 [3]
0	0x3cd399a3	0.025830096
1	0xbcb92567	-0.022600843
2	0xbe357262	-0.17719415

fc32.weight f4 [3, 16]
0	0xbe3909d2	-0.18070152
1	0x3d9345fa	0.07191081
2	0x3db8a050	0.09014952
3	0xbe36beff	-0.17846297
4	0x3e10bd1f	0.14134644
5	0xbba4bb28	-0.0050271936
6	0x3d992b9d	0.07479022
7	0x3d572e5b	0.052534442
8	0xbdb03b4b	-0.08605059
9	0x3ddf4d10	0.109033704
10	0xbde6523d	-0.112461545
11	0xbd660696	-0.056158625
12	0xbcbb8cb0	-0.022894233
13	0x3db57e5b	0.08861991
14	0x3d466522	0.04843629
15	0xbd36f7c5	-0.044669885
16	0xbd872b19	-0.06600017
17	0x3e606371	0.21912934
18	0xbe213180	-0.15741539
19	0xbe2d34cb	-0.1691467
20	0x3dd3cbbb	0.10341593
21	0xbdeff4d0	-0.11716616
22	0x3e116102	0.14197162
23	0xbe04deb7	-0.12975584
24	0x3de7bcae	0.11315285
25	0x3e311881	0.17294504
26	0x3aec7fe2	0.0018043483
27	0xbdc56539	-0.09638447
28	0x3e0bf6b5	0.1366833
29	0x3e092924	0.133946
30	0xbdda64c5	-0.106637515
31	0x3b8f027b	0.0043643094
32	0xbd950f14	-0.072782665
33	0x3da24758	0.07923764
34	0x3d53f462	0.051746733
35	0xbe2c7d28	-0.16844618
36	0xbd976b15	-0.07393471
37	0xbab5bfc1	-0.0013866351
38	0x3debe2b7	0.11517852
39	0x3d8178ab	0.06321844
40	0x3e5800b1	0.21094014
41	0x3d3a536f	0.045489725
42	0xbe43e604	-0.19130713
43	0xbd9b0102	-0.075685516
44	0x3d9b9412	0.075966015
45	0x3e05937c	0.13044542
46	0xbe53b7de	-0.20675609
47	0x3dd3609a	0.1032116

fc32.bias f4 [3]
0	0xbdadcfbb	-0.08486887
1	0xbb7f8df1	-0.0038994516
2	0xbcd8d0d0	-0.026466757

fc4.weight f4 [16, 3]
0	0xbe3b6b40	-0.18302631
1	0xbc90091b	-0.017582467
2	0x3ea9cea4	0.33165467
3	0x3d9353d2	0.07193722
4	0xbefdb9d9	-0.49555853
5	0xbf2ac48b	-0.6670615
6	0x3e3e4b86	0.18583497
7	0xbe56cd7d	-0.20976825
8	0xbec29515	-0.38004366
9	0xbec9452d	-0.3931059
10	0xbf33eb37	-0.70280784
11	0x3f36c98d	0.7140129
12	0xbeec9266	-0.46205443
13	0xbe685dc9	-0.22692026
14	0x3d5fe8eb	0.054665487
15	0x3ee28089	0.4423869
16	0xbe49b33e	-0.19697282
17	0x3efa345c	0.48868072
18	0xbe951ea2	-0.29124933
19	0xbf0dd8f3	-0.55409163
20	0xbdd61993	-0.10454097
21	0xbecf1a2f	-0.40449664
22	0xbf1f9b83	-0.6234667
23	0xbefc0916	-0.49225682
24	0xbf17a541	-0.5923653
25	0xbb0ee112	-0.0021801633
26	0x3ebc1cf0	0.36740828
27	0x3ec2d84e	0.38055652
28	0x3eab6366	0.33474272
29	0x3e977bf4	0.29586756
30	0xbdd4054d	-0.103525735
31	0x3f07ce7a	0.53049433
32	0x3e8c1b5f	0.27364632
33	0x3eddcc50	0.4331994
34	0xbeaf26f9	-0.3420942
35	0xbf0751ba	-0.5285908
36	0xbf128fb8	-0.5725055
37	0x3b9eb7ff	0.0048437114
38	0xbf3aa18d	-0.72902757
39	0xbe8a0338	-0.2695558
40	0xbe7daaa5	-0.24772127
41	0xbea02a96	-0.3128249
42	0xbedab6df	-0.42717645
43	0x3ee001b6	0.43751305
44	0x3ee29d60	0.44260693
45	0x3c93a716	0.018024009
46	0x3e6cba2c	0.23117894
47	0xbede45ae	-0.43412536

fc4.bias f4 [16]
0	0x3f315280	0.6926651
1	0x3dc56b84	0.096396476
2	0x3f65014c	0.89455104
3	0xbe1acda5	-0.1511751
4	0x3dd0bb78	0.10192007
5	0x3f04ddc7	0.51900905
6	0xbece733a	-0.40322286
7	0x3f23a7b6	0.6392778
8	0x3f32bfb1	0.6982375
9	0x3f426879	0.7594066
10	0x3f6fa3c0	0.9360924
11	0x3e50ad25	0.2037855
12	0xbe68328d	-0.22675534
13	0x3f2cffe9	0.6757799
14	0x3dba947e	0.09110354
15	0x3f035413	0.5130016

fc5.weight f4 [32, 16]
0	0x3e81545c	0.25259674
1	0xbd77ab21	-0.060465936
2	0x3e3bda53	0.18345003
3	0x3e66e88d	0.22549649
4	0x3d9377c6	0.07200579
5	0x3e18c385	0.14918335
6	0x3dce28be	0.10066365
7	0xbd9d9258	-0.076939285
8	0x3e91e784	0.28496945
9	0x3dff6832	0.124710456
10	0x3e649231	0.22321393
11	0xbe05a678	-0.13051784
12	0xbda7b037	-0.08187907
13	0x3da7f816	0.082016155
14	0x3f0a849c	0.54108596
15	0x3ccdbc91	0.02511433
16	0x3ebafb69	0.36519936
17	0xbaab4f01	-0.001306981
18	0x3dbfcd22	0.09365298
19	0xbc32d55a	-0.010915125
20	0x3e27d172	0.16388491
21	0x3e67054a	0.22560611
22	0xbddc9d1c	-0.10772154
23	0xbe24b6db	-0.16085379
24	0x3e1c6ca9	0.15275826
25	0x3e51dce6	0.20494422
26	0x3e7cb5b6	0.24678692
27	0xbd908dfe	-0.07058333
28	0xbdde117b	-0.10843178
29	0x3e756606	0.239647
30	0x3ed76174	0.42066538
31	0xbc887df1	-0.016661616
32	0x3f000ebf	0.500225
33	0x3e0db4d8	0.13838518
34	0x3e0d1afc	0.13779825
35	0x3eb08d98	0.34483027
36	0x3eb0e210	0.34547472
37	0x3e64e17f	0.22351645
38	0xbe098de3	-0.13433032
39	0xbe07c45a	-0.13258496
40	0xbc35d1a2	-0.011097344
41	0x3e4a34cc	0.19746703
42	0x3e855f61	0.2604933
43	0xbd012888	-0.031532794
44	0x3d509c4a	0.0509303
45	0xbd85c9ea	-0.06532653
46	0x3ee773c4	0.4520551
47	0xbe1d3e7b	-0.15355866
48	0x3eb77963	0.35834798
49	0xbcd2cc41	-0.025732161
50	0x3dac2a1c	0.08406469
51	0x3e83e23f	0.2575855
52	0xbd9ea166	-0.07745628
53	0x3dc033d7	0.09384888
54	0x3e29b95c	0.16574615
55	0xbd01fbb7	-0.031734195
56	0xbd3a55bc	-0.04549192
57	0xbd719baa	-0.058986343
58	0x3ee4b1f0	0.44667006
59	0xbd803e1e	-0.06261848
60	0xbe4b7225	-0.19867761
61	0x3ddf15b8	0.108928144
62	0x3ddd3274	0.10800639
63	0x3e205684	0.15658003
64	0x3dfc673f	0.1232438
65	0xbdd7d2c9	-0.10538251
66	0xbda4afcc	-0.08041343
67	0x3e05fa24	0.13083702
68	0x3e3e8f80	0.18609428
69	0x3eb1ed8e	0.34751552
70	0x3e34b0da	0.17645589
71	0xbdf15944	-0.11784604
72	0x3d988ceb	0.07448753
73	0x3ed72bd3	0.42025623
74	0x3dd8fc06	0.10594945
75	0x3ca69959	0.020336794
76	0xbd8e8eb3	-0.069608115
77	0x3e9c7a51	0.3056207
78	0x3f12e364	0.5737822
79	0xbd4c2b38	-0.049845904
80	0x3e1adfd7	0.1512445
81	0x3daf18fd	0.08549688
82	0x3e5ec087	0.21753131
83	0x3e90790e	0.28217357
84	0x3ea5fefa	0.32421094
85	0x3c4c80d1	0.012481884
86	0xbe035c8d	-0.12828274
87	0x3dd584ef	0.10425746
88	0x3e99d042	0.300417
89	0x3ec20f1d	0.37902156
90	0x3dfcea6f	0.12349402
91	0xbe5768eb	-0.21036117
92	0xbe487805	-0.19577034
93	0x3c498dfc	0.012301918
94	0x3e0f735c	0.1400885
95	0x3d3d3b34	0.04619904
96	0xbdc555a9	-0.09635479
97	0x3efa3940	0.48871803
98	0x3ebb5979	0.365917
99	0x3e9e2e0a	0.308945
100	0x3e9ef843	0.31048784
101	0x3e49039c	0.19630283
102	0x3cd9f424	0.026605673
103	0x3e537886	0.20651445
104	0xbe239397	-0.1597427
105	0xbdcb092e	-0.0991386
106	0x3dc6ff75	0.09716693
107	0x3efcfdd5	0.49412408
108	0x3e4f9e10	0.2027514
109	0x3ebb490e	0.36579174
110	0x3dcaeee2	0.099088445
111	0x3ebbeb64	0.36703026
112	0x3da38ce2	0.07985856
113	0xbdc2441d	-0.09485648
114	0x3d1b946e	0.03798335
115	0xbd1d270a	-0.03836731
116	0x3d4f7eba	0.050657965
117	0x3e1cfac8	0.1533004
118	0xbc9e7d61	-0.019346895
119	0x3e23e128	0.16003859
120	0x3e1ba676	0.15200219
121	0x3e2bfebd	0.16796394
122	0x3e89fae6	0.26949233
123	0x3b0c675b	0.002142391
124	0xbc698d2b	-0.0142548485
125	0xbd873f87	-0.06603914
126	0x3ebd7cb7	0.37009212
127	0xbcd53801	-0.026027681
128	0x3ec9a8fa	0.3938673
129	0xbe26c61b	-0.16286509
130	0x3e0b0ad8	0.13578355
131	0x3ebbcf8d	0.36681786
132	0xbc818a80	-0.015813112
133	0x3e4fc9fd	0.20291896
134	0xbe5cf868	-0.21579134
135	0x3e0a9d71	0.13536622
136	0x3e1f5752	0.15560654
137	0x3ee3933d	0.4444827
138	0x3e0d34c8	0.13789666
139	0xbe0b22d8	-0.1358751
140	0x3e2a042e	0.16603157
141	0x3e003828	0.12521422
142	0x3e078f1f	0.1323819
143	0x3d85540a	0.0651017
144	0x3e2239b6	0.15842327
145	0xbdd6354f	-0.104593866
146	0xbc528b8d	-0.012850654
147	0x3e33897f	0.1753292
148	0x3d3f2bd2	0.04667265
149	0x3ebc580b	0.3678592
150	0x3ceb4d38	0.028723344
151	0xbb0fe5c3	-0.0021957017
152	0x3eb0be07	0.3451998
153	0x3ef00e76	0.46886033
154	0x3ee7e4b6	0.4529168
155	0xbd508696	-0.0509096
156	0x3e848640	0.25883675
157	0x3e015466	0.12629852
158	0x3e450059	0.19238414
159	0xbdcbec71	-0.09957207
160	0x3e8e1ea6	0.27757758
161	0xbdc3494e	-0.09535466
162	0x3d930a75	0.07179729
163	0x3ead88c3	0.33893403
164	0xbd8e2763	-0.06941106
165	0x3dcdca3b	0.10048338
166	0xbd66abd0	-0.056316197
167	0x3c1c9d55	0.009558995
168	0x3ec5b2a6	0.3861286
169	0x3e0b9371	0.13630463
170	0x3e753579	0.2394618
171	0x3d6e0bd8	0.058116764
172	0xbd7898ca	-0.060692586
173	0x3e223ebd	0.15844245
174	0x3e3f8bb8	0.18705642
175	0x3c81cd31	0.015844913
176	0x3ea3cf08	0.3199389
177	0x3de0bec3	0.10973885
178	0xbe232d00	-0.15935135
179	0x3da12d89	0.07870013
180	0x3e807acb	0.25093684
181	0x3de6a08a	0.11261089
182	0xbddb08d0	-0.1069504
183	0x3ca0b948	0.019619599
184	0x3e26b0bf	0.16278361
185	0x3ea7627d	0.32692328
186	0xbc8fc0b6	-0.017547946
187	0xbd72348d	-0.059132148
188	0x3e115510	0.14192605
189	0xbe30047d	-0.17189212
190	0x3e601c47	0.21885787
191	0x3e64d15d	0.22345491
192	0x3e881001	0.2657471
193	0x3dd599e6	0.104297444
194	0xbbefbf70	-0.0073165223
195	0x3e89d92b	0.269235
196	0x3e7aad03	0.24480061
197	0x3e9baf13	0.3040701
198	0xbd1296d0	-0.035788357
199	0xbe273513	-0.1632884
200	0x3deb3519	0.11484737
201	0x3ea1d00c	0.3160404
202	0x3e078749	0.13235201
203	0x3db311cf	0.08743631
204	0xbdde1dc4	-0.10845521
205	0xbd64cb58	-0.055857986
206	0x3e9ceb01	0.30648044
207	0x3da7f938	0.082018316
208	0x3f08376c	0.5320957
209	0xbd969ef3	-0.07354536
210	0xbdd7c0f1	-0.105348475
211	0xbbc0bee3	-0.0058821305
212	0x3ec3db50	0.3825326
213	0x3dbf61f8	0.09344858
214	0xbd2aa2fb	-0.041659337
215	0x3ca4197c	0.020031683
216	0x3e9292f9	0.28627756
217	0x3d1654d1	0.03670198
218	0x3ef186c9	0.47173145
219	0x3e128b8f	0.1431105
220	0xbe0fd449	-0.14045824
221	0xbd921733	-0.07133331
222	0x3dddd661	0.10831905
223	0x3e8be83e	0.27325624
224	0x3e830839	0.2559221
225	0xbe166a34	-0.14688951
226	0xbde5b5ec	-0.112163395
227	0x3eb9fccc	0.3632568
228	0x3e8d0d49	0.27549198
229	0x3ebe22dc	0.3713597
230	0x3d2b96fd	0.04189204
231	0xbdcb3f58	-0.09924191
232	0x3e2a4721	0.16628696
233	0x3eb1ab34	0.3470093
234	0x3e81c3f8	0.25344825
235	0x3d474e04	0.048658386
236	0x3ccca284	0.024979837
237	0x3e344d02	0.17607501
238	0x3ed2cea8	0.4117329
239	0x3e936ed6	0.287955
240	0xbdcdfb0c	-0.10057649
241	0xbd6d6560	-0.057958007
242	0xbc17a320	-0.009255201
243	0xbe767bd2	-0.24070671
244	0xbd843a34	-0.06456414
245	0x3ddd81a0	0.1081574
246	0xbdd05b28	-0.10173637
247	0x3e24dc44	0.1609965
248	0xbd97014c	-0.07373294
249	0xbdc1e36c	-0.094672054
250	0xbe16fbfe	-0.14744565
251	0xbe206180	-0.15662193
252	0xbe219272	-0.1577852
253	0x3e1ef060	0.15521383
254	0x3e0169cc	0.12638015
255	0xbdd19488	-0.10233408

fc5.bias f4 [32]
0	0x3e62266c	0.2208497
1	0x3e95941e	0.29214567
2	0x3e2f0c70	0.17094588
3	0x3ddc139b	0.10745927
4	0x3ea8aa8e	0.32942623
5	0xbe0be702	-0.13662341
6	0xbb9047d7	-0.004403095
7	0x3c80070f	0.015628366
8	0xbc91aeb7	-0.017783506
9	0x3d18f127	0.037339356
10	0xbe21b1aa	-0.1579043
11	0x3d8af622	0.06785227
12	0x3e6c99e4	0.2310558
13	0x3d555d9f	0.052091237
14	0x3d71ab4d	0.059001256
15	0xbe4f7cbe	-0.20262429
16	0x3eae9069	0.3409455
17	0xbc6b33db	-0.014355625
18	0x3daf763e	0.08567475
19	0x3e79ebe2	0.24406388
20	0x3f030f1d	0.51194936
21	0x3ea9f36a	0.33193523
22	0xbe2290a5	-0.1587549
23	0xbe35c4d9	-0.17750873
24	0xbd94f9b5	-0.0727419
25	0xbe05af18	-0.13055074
26	0x3e278f15	0.16363175
27	0xbd909bb1	-0.07060946
28	0x3e7e0de9	0.24809994
29	0xbe39a330	-0.18128657
30	0xbd8edf4a	-0.06976183
31	0x3b179ac1	0.0023133012

fc6.weight f4 [6, 32]
0	0xbf1e7cd3	-0.61909217
1	0xbf02a3c7	-0.51031154
2	0xbebe9278	-0.37221122
3	0xbf01bf4f	-0.5068254
4	0xbec09ff6	-0.3762204
5	0xbf1dc0fd	-0.616226
6	0xbf1808a6	-0.59388196
7	0xbed9ffe2	-0.42578036
8	0xbf2c6e68	-0.67355967
9	0xbf12144a	-0.5706221
10	0xbec0e278	-0.37672782
11	0xbed54018	-0.41650462
12	0xbf173649	-0.5906721
13	0xbf11059a	-0.5664917
14	0xbf0fe34a	-0.5620619
15	0x3e22dcf5	0.15904601
16	0xbeaf8738	-0.3428285
17	0xbee761af	-0.45191714
18	0xbef08827	-0.46978876
19	0xbee75725	-0.45183674
20	0xbf0fe838	-0.5621371
21	0xbeb7fb35	-0.35933843
22	0xbeb994ee	-0.36246437
23	0x3dc0b7de	0.0941007
24	0xbea33751	-0.3187814
25	0xbd1e8da9	-0.038709316
26	0xbed1324d	-0.4085869
27	0xbf164a10	-0.5870676
28	0xbef14e3d	-0.47130004
29	0x3da8420a	0.08215721
30	0xbee3f9d7	-0.4452655
31	0x3dc7e50e	0.097604856
32	0xbeb58510	-0.3545308
33	0xbf0e0dca	-0.5548979
34	0xbeb3ddc1	-0.35130122
35	0xbf018efa	-0.5060879
36	0xbee1e254	-0.44117987
37	0xbf005915	-0.5013593
38	0xbf0ba54c	-0.545491
39	0xbea9ede7	-0.33189318
40	0xbf158b32	-0.5841552
41	0xbec98e1b	-0.3936623
42	0xbed114b5	-0.4083611
43	0xbe9c6cfc	-0.30551898
44	0xbf035d24	-0.51313996
45	0xbed00a1f	-0.40632722
46	0xbefb3eb1	-0.49071267
47	0xbc7e47e0	-0.015520066
48	0xbeab1bf1	-0.33419755
49	0xbf03001c	-0.5117204
50	0xbf00c2d2	-0.5029727
51	0xbeb51655	-0.353686
52	0xbf160949	-0.5860792
53	0xbf0a72ca	-0.54081404
54	0xbf025297	-0.5090727
55	0x3e10fd12	0.14159039
56	0xbf05a541	-0.5220528
57	0x3d1eb2ad	0.038744617
58	0xbf1673c5	-0.587704
59	0xbf036205	-0.5132144
60	0xbf1b481c	-0.60656905
61	0x3de800ee	0.11328302
62	0xbee3b484	-0.4447366
63	0xbdfacead	-0.122464515
64	0xbf19df7f	-0.6010665
65	0xbf2cd104	-0.6750643
66	0xbf550077	-0.83203834
67	0xbf300462	-0.6875669
68	0xbf2bf703	-0.67173785
69	0xbf642d2f	-0.89131445
70	0xbf5dfd24	-0.86714387
71	0xbf0815e7	-0.5315842
72	0xbf7039d1	-0.9383822
73	0xbf5a7701	-0.85337836
74	0xbf16a910	-0.5885172
75	0xbf076697	-0.52890915
76	0xbf2650f5	-0.6496728
77	0xbf2d76cc	-0.67759395
78	0xbf1ae5ea	-0.6050707
79	0xbdd0d8da	-0.10197611
80	0xbf587a39	-0.84561497
81	0xbec503be	-0.38479418
82	0xbf37991f	-0.7171802
83	0xbf4b890e	-0.79506004
84	0xbf6a35a6	-0.9148811
85	0xbf4e0993	-0.8048336
86	0xbf4b6599	-0.794519
87	0xbcc8e507	-0.024523271
88	0xbf535e5e	-0.8256587
89	0x3e0a9402	0.13533023
90	0xbf5e169a	-0.8675324
91	0xbf2e2e16	-0.6803907
92	0xbf7a774b	-0.97838277
93	0xbda23369	-0.07919962
94	0xbf3188d5	-0.69349414
95	0xbe02086c	-0.12698525
96	0xbf0dd11e	-0.5539721
97	0xbe988129	-0.2978604
98	0xbe6604f3	-0.22462825
99	0xbda881db	-0.08227893
100	0xbe5b7907	-0.21432887
101	0xbe1b76de	-0.15182063
102	0x3e58df01	0.21178819
103	0xbf6b397c	-0.9188459
104	0xbe4bb636	-0.19893727
105	0xbf1416b9	-0.5784717
106	0xbf18ed76	-0.59737337
107	0xbe2591ee	-0.16168949
108	0xbd3e44c0	-0.046452284
109	0xbf07db10	-0.5306864
110	0xbecef557	-0.40421554
111	0xbda6d052	-0.08145203
112	0xbec50332	-0.38479
113	0xbef5ab94	-0.47982466
114	0xbc9db654	-0.01925198
115	0xbed4b8d0	-0.4154725
116	0x3e21b2cb	0.1579086
117	0xbe812beb	-0.2522882
118	0xbe8d3d07	-0.27585623
119	0x3df893f2	0.12137593
120	0xbec1b26f	-0.37831447
121	0x3c9a444d	0.018831396
122	0xbea0b7cf	-0.31390235
123	0x3da8b568	0.082377255
124	0x3e77a10c	0.24182528
125	0xbdc358c2	-0.095384136
126	0xbe64cf0a	-0.22344604
127	0x3dcf1953	0.10112252
128	0xbf105781	-0.5638352
129	0xbea9140e	-0.33023113
130	0xbed02243	-0.4065114
131	0xbe642d87	-0.22282992
132	0xbe98fbdb	-0.2987965
133	0xbec425e7	-0.38310167
134	0x3e91b95e	0.28461736
135	0xbf8a0745	-1.0783468
136	0xbe0c95f1	-0.13729073
137	0xbefd2a51	-0.49446347
138	0xbf043a02	-0.5165101
139	0xbefd87ed	-0.49517766
140	0xbeabdb11	-0.33565572
141	0xbef95221	-0.48695472
142	0xbf08d716	-0.53453195
143	0x3d9bae86	0.07601647
144	0xbe46da7d	-0.19419284
145	0xbf8f6356	-1.120219
146	0xbe15b92e	-0.14621422
147	0xbeb6e1e8	-0.35719228
148	0x3e3e570d	0.18587895
149	0xbe41a280	-0.18909645
150	0xbe93aadd	-0.28841296
151	0xb9c0e7eb	-0.00036793886
152	0xbdf4dd7c	-0.11956307
153	0x3db3b85a	0.08775397
154	0xbe20593b	-0.15659039
155	0xbdb78ca3	-0.08962371
156	0x3ea030af	0.31287143
157	0x3e00d7a1	0.12582256
158	0xbe7d436b	-0.24732749
159	0x3ccec75a	0.025241543
160	0xbe962c04	-0.29330456
161	0xbe490148	-0.19629395
162	0xbd1eda88	-0.038782626
163	0xbd700a21	-0.05860341
164	0xbebd2197	-0.3693969
165	0xbe93904e	-0.28821033
166	0x3eb8188a	0.35956222
167	0xbf3e244f	-0.7427415
168	0xbe7b08f2	-0.24515131
169	0xbee03495	-0.43790117
170	0xbf244f14	-0.64183164
171	0xbdf36b2c	-0.11885676
172	0xbe3aebd6	-0.18254027
173	0xbf05a0c5	-0.5219844
174	0xbeefe1ee	-0.46852058
175	0x3dcedc9a	0.1010067
176	0xbec53e20	-0.3852396
177	0xbf0cae65	-0.54953605
178	0xbe924052	-0.28564698
179	0xbebeefea	-0.37292415
180	0x3dd2f90b	0.103014074
181	0xbe83f5c3	-0.2577344
182	0xbecb27e2	-0.39678866
183	0x3dc453bc	0.095862836
184	0xbe9fc719	-0.31206587
185	0x3dc12537	0.09430926
186	0xbe422da6	-0.18962726
187	0x3d407cef	0.046994146
188	0x3e2ece6c	0.17070931
189	0xbdb36608	-0.08759695
190	0xbd7ad58a	-0.061238803
191	0x3e073b85	0.13206299

fc6.bias f4 [6]
0	0xbefed6f7	-0.4977338
1	0xbf1e0a3f	-0.61734384
2	0xbf820203	-1.0156864
3	0x3daeca11	0.08534635
4	0xbd9cb28f	-0.07651245
5	0x3cdafa6e	0.026730742

fc7.weight f4 [32, 3]
0	0x3f02c7fe	0.51086414
1	0xbeae4edb	-0.34044537
2	0xbe9cf4ed	-0.30655614
3	0xbcd35007	-0.025794996
4	0x3ddb54c8	0.1070953
5	0x3f05f1e2	0.5232221
6	0x3ea10b45	0.3145391
7	0xbece1d40	-0.4025669
8	0xbeaf54b7	-0.3424432
9	0xbe578cec	-0.21049851
10	0x3f255dd0	0.6459627
11	0xbe1d36c7	-0.15352927
12	0xbee3dc37	-0.44503948
13	0x3d8819b3	0.06645527
14	0x3e4659fe	0.19370267
15	0x3e632414	0.22181731
16	0x3e8438ec	0.25824678
17	0x3eb1438d	0.3462185
18	0xbde2eb7e	-0.11080073
19	0x3ce9ed6c	0.028555594
20	0xbe9697b7	-0.29412624
21	0x3edba2b5	0.42897573
22	0xbec8a92f	-0.39191577
23	0xbdfe44b5	-0.124154486
24	0x3c418143	0.011810604
25	0xbe15b0c5	-0.14618213
26	0xbee6d867	-0.45086977
27	0xbe749d69	-0.23888172
28	0x3d78c3ba	0.060733534
29	0x3d4ac077	0.049499955
30	0x3e34864c	0.17629355
31	0xbe325e09	-0.17418684
32	0xbf06fe56	-0.52731836
33	0xbe800e4a	-0.25010902
34	0x3d0189bf	0.031625506
35	0xbe959124	-0.29212296
36	0xbe8b9720	-0.27263737
37	0x3e89f949	0.26948002
38	0x3e716823	0.23574881
39	0x3ef2e62f	0.4744124
40	0x3edc8926	0.43073386
41	0xbebf4d34	-0.3736359
42	0x3eebc9b5	0.46052328
43	0x3db7a9b1	0.08967913
44	0x3d836ba6	0.06417017
45	0x3ecfedee	0.40611213
46	0x3e9ee78f	0.3103604
47	0x3f09b2d8	0.5378852
48	0xbd9d60cc	-0.07684478
49	0x3eb6cfd4	0.35705435
50	0xbdcc0f5d	-0.09963868
51	0xbf10f483	-0.56623095
52	0xbcd0f8e3	-0.025509303
53	0x3da7a0d8	0.081849754
54	0x3e91fccc	0.2851318
55	0x3d565ba3	0.052333485
56	0xbebb24ba	-0.36551458
57	0xbe3527de	-0.1769099
58	0xbe8edbaa	-0.27901965
59	0x3e854d19	0.26035383
60	0x3d716c0a	0.058940925
61	0xbe1f2a66	-0.15543517
62	0xbd4cd7aa	-0.05001036
63	0xbf17ed7a	-0.59346735
64	0xbdc9fcb6	-0.09862654
65	0xbebad3d2	-0.3648973
66	0x3eadcebd	0.3394679
67	0x3d25572b	0.040366333
68	0x3edf16d3	0.435721
69	0xbe413082	-0.1886616
70	0x3de5d02e	0.11221348
71	0x3d85371e	0.065046534
72	0x3ebcedc6	0.36900157
73	0x3ea1498f	0.31501433
74	0x3e79d439	0.24397363
75	0x3eaefd14	0.34177458
76	0xbec4f2ee	-0.3846659
77	0x3e5e711c	0.21722835
78	0x3e27c3dc	0.16383308
79	0xbee066d8	-0.43828464
80	0x3e9fe670	0.31230497
81	0x3ed8a474	0.42312968
82	0x3e1cff04	0.15331656
83	0xbd8488b8	-0.064713895
84	0xbe8aa6e2	-0.27080446
85	0x3e62229d	0.22083516
86	0xbd46febf	-0.04858279
87	0xbe79f51e	-0.24409911
88	0x3e14820f	0.14502738
89	0xbe3a02d3	-0.1816514
90	0x3ee3a238	0.444597
91	0xbd6809f4	-0.056650117
92	0x3f0acc0b	0.54217595
93	0xbdefe9eb	-0.11714538
94	0xbe10b146	-0.14130124
95	0xbeb20666	-0.34770507

fc7.bias f4 [32]
0	0xbe62c0ad	-0.22143812
1	0x3df37147	0.1188684
2	0xbe20b991	-0.15695788
3	0xbe43c099	-0.19116439
4	0x3e0f8f87	0.14019595
5	0x3c9171f9	0.017754542
6	0x3df330dd	0.11874554
7	0xbeb7eafe	-0.35921472
8	0x3d825439	0.063637204
9	0xbf31ab20	-0.6940174
10	0x3d142d50	0.036176026
11	0xbdf44125	-0.11926488
12	0xbe246f45	-0.16058071
13	0xbf028288	-0.50980425
14	0x3e8b08e3	0.27155218
15	0xbea0676b	-0.31328902
16	0xbe2a80f9	-0.16650762
17	0xbc2df085	-0.010616426
18	0xbe724a7c	-0.23661226
19	0xbddf08a6	-0.108903214
20	0x3dba6ddc	0.09102985
21	0xbe6f9876	-0.23398003
22	0xbf060f55	-0.52367145
23	0xbe0ebd83	-0.1393948
24	0x3efa0d93	0.4883848
25	0x3e7434fe	0.2384834
26	0xbe82d1a4	-0.25550568
27	0xbe2b16e3	-0.1670795
28	0x3e2660f6	0.16247925
29	0xbea96730	-0.33086538
30	0x3d8dc27c	0.069218606
31	0x3ef7f008	0.48425317

fc8.weight f4 [16, 32]
0	0x3c380d6c	0.011233669
1	0x3ac13476	0.0014740366
2	0x3dee7a6d	0.116444446
3	0xbe1f1ad4	-0.15537578
4	0x3ca61f22	0.020278517
5	0x3ca8ef07	0.02062179
6	0xbe2e52e8	-0.17023814
7	0x3d3014e1	0.04298866
8	0xbe4b43ff	-0.19850157
9	0xbb230453	-0.0024874404
10	0x3de28e74	0.11062327
11	0xbd0c6edb	-0.034285408
12	0xbd93d90c	-0.07219133
13	0xbde64969	-0.112444706
14	0xbe415a75	-0.18882163
15	0xbd89d956	-0.06730907
16	0xbe32a178	-0.17444408
17	0xbe029b36	-0.12754521
18	0x3e03a512	0.12855938
19	0xbdc56f87	-0.09640413
20	0xbbdedcaa	-0.0068012075
21	0xbdaa905d	-0.08328316
22	0xbd9704f8	-0.073739946
23	0x3dc767ba	0.09736581
24	0xbc1780fb	-0.00924706
25	0x3ce18e7c	0.027533762
26	0xbde3b6c2	-0.11118843
27	0xbe33a4a6	-0.17543277
28	0x3df98dd7	0.12185257
29	0x3d400a28	0.046884686
30	0x3de54598	0.111949146
31	0xbda4a2f8	-0.08038896
32	0x3e0d5f45	0.13805874
33	0x3c363e78	0.011123292
34	0xbe0c793b	-0.13718121
35	0x3c970971	0.01843712
36	0xbc3ecc87	-0.011645443
37	0x3d9f4969	0.07777674
38	0x3d197eab	0.037474316
39	0xbd409092	-0.047012873
40	0xbd042a56	-0.032266937
41	0x3dc4ea96	0.09615056
42	0xbdbd41fb	-0.092411004
43	0xbd489ef1	-0.048979703
44	0xbcc3950d	-0.023874784
45	0xbe0f310d	-0.13983555
46	0x3c9fed62	0.019522373
47	0x3cc38554	0.023867287
48	0x3d01c8cc	0.031685635
49	0xbd7687b6	-0.060188018
50	0x3df957d1	0.12174953
51	0x3e0cfad9	0.13767566
52	0xbd0fab89	-0.035075698
53	0x3d92d2ea	0.07169135
54	0x3e09faeb	0.13474624
55	0xbc222263	-0.009895894
56	0x3c0726bd	0.008248982
57	0xbd76c72d	-0.060248543
58	0x3d040564	0.032231703
59	0xbcfeb511	-0.031092199
60	0xbddf1201	-0.10892106
61	0xbe12081b	-0.14260904
62	0xbe296f60	-0.16546392
63	0x3d4081fe	0.04699897
64	0xbe20ed02	-0.15715411
65	0xbe288abb	-0.16459171
66	0x3ddee640	0.108837605
67	0xbe0fcd29	-0.14043106
68	0x3dffa2dd	0.124822356
69	0xbcb3feba	-0.021972049
70	0xbd030e4f	-0.031996068
71	0x3c4927be	0.012277542
72	0x3e4338a0	0.1906457
73	0xbb70d25c	-0.0036746478
74	0xbcbf0c0c	-0.023321174
75	0x3e724ff1	0.23663308
76	0x3cdbce9f	0.026831923
77	0xbbd52391	-0.006504484
78	0xbceb8045	-0.028747687
79	0xbd3f00d4	-0.04663165
80	0xbcd5529c	-0.026040368
81	0xbe620295	-0.22071297
82	0x3d6748d9	0.056465957
83	0xbdb6f14c	-0.089327425
84	0xbd9ba15d	-0.07599137
85	0xbdf38b53	-0.11891808
86	0xbd9a898f	-0.075457685
87	0x3cb8c76a	0.022556026
88	0xbcf1c2df	-0.029511867
89	0x3dadd675	0.0848817
90	0xbdb5064a	-0.0883909
91	0xbd107ea4	-0.035277024
92	0xbd2260e2	-0.039643176
93	0x3d7efa43	0.062250387
94	0xbe1a7d31	-0.15086819
95	0xbc3ab8c9	-0.011396595
96	0x3df9b0e1	0.1219194
97	0x3d44b9d7	0.048028793
98	0xbd19e399	-0.03757057
99	0xbe0f18cf	-0.13974307
100	0xbcf1b8bd	-0.029507035
101	0xbe0bb4a7	-0.13643132
102	0x3ca574b3	0.020197248
103	0xbdaae0ea	-0.0834368
104	0xbdd7a6aa	-0.105298355
105	0xbe0c789f	-0.13717888
106	0x3dd0b86b	0.10191425
107	0xbe16810e	-0.14697668
108	0xbe2b2385	-0.16712768
109	0x3db42e2b	0.08797868
110	0xbe02d86d	-0.12777872
111	0xbce8c615	-0.028414765
112	0x3e0e61f7	0.13904558
113	0xbe03679e	-0.12832496
114	0xbdc17867	-0.09446793
115	0x3dda53d7	0.106605224
116	0x3e0bb844	0.1364451
117	0x3d238aaf	0.03992718
118	0x3e254e7e	0.16143224
119	0xbe174cf2	-0.14775446
120	0x3c2dc9cd	0.010607195
121	0xbe2774ed	-0.16353197
122	0x3ce71539	0.028208362
123	0xbdadbd01	-0.08483315
124	0xbce9559e	-0.028483208
125	0x3d28b8a4	0.041191712
126	0x3ccbaaaf	0.024861662
127	0xbe05b230	-0.13056254
128	0x3d32ef81	0.04368544
129	0x3e1153a6	0.14192066
130	0xbcdc16d9	-0.026866363
131	0x3d88be2b	0.06676897
132	0xbd0343dd	-0.03204714
133	0xbd958352	-0.07300438
134	0x3e16e9ed	0.14737673
135	0x3d88024d	0.06641064
136	0x3cdccdac	0.02695354
137	0xbda76652	-0.08173813
138	0x3cb7e098	0.022445962
139	0xbdad2c02	-0.084556594
140	0xbce4e115	-0.027939359
141	0x3d26ed4e	0.040753655
142	0xbd55fa04	-0.052240387
143	0x3d6fe09c	0.058563814
144	0xbe0af7cb	-0.13571088
145	0xbb2f7c9b	-0.0026777152
146	0x3db4f17b	0.08835121
147	0xbd9f47e2	-0.077773824
148	0x3d759f8c	0.05996661
149	0x3c71061d	0.01471093
150	0xbe20660c	-0.15663928
151	0x3ddc1f59	0.107481666
152	0x3d7d550f	0.061848696
153	0x3dac4a34	0.084125906
154	0xbdfa03e8	-0.12207776
155	0xbe12960c	-0.14315051
156	0xbcb07e33	-0.021544551
157	0xbe437884	-0.19088942
158	0x3cdbe4d8	0.02684252
159	0x3e7bb59e	0.24581
160	0x3ccb37f4	0.024806954
161	0xbc220595	-0.009889026
162	0xbd7c5e5a	-0.06161342
163	0xbe240267	-0.16016541
164	0xbd540c72	-0.05176968
165	0xbcbd5460	-0.023111522
166	0x3d502929	0.050820503
167	0x3b2d48ec	0.002644117
168	0xbc773dd0	-0.015090421
169	0x3a291fe7	0.0006451592
170	0xbda53b8b	-0.080679975
171	0xbd98e677	-0.07465833
172	0xbe1a4c1c	-0.15068096
173	0xbdbd0a21	-0.092304476
174	0xbe0071d9	-0.1254343
175	0xbd4ca061	-0.049957637
176	0xbd0b72d3	-0.03404505
177	0x3ca9bc46	0.020719659
178	0xbdd19bae	-0.10234772
179	0xbd1d9aba	-0.038477637
180	0x3de5d886	0.11222939
181	0xbe11a917	-0.14224659
182	0xbd91713f	-0.07101678
183	0x3dbb94e0	0.09159255
184	0x3dad173f	0.084516995
185	0xbdb02034	-0.08599892
186	0x3d4d6e67	0.050154116
187	0x3c293634	0.010327864
188	0xbd5f05d9	-0.054448936
189	0xbd66c153	-0.056336712
190	0xbcc69347	-0.02424015
191	0xbd0ef6bd	-0.034903277
192	0xbcf196c9	-0.029490845
193	0x3da7a0d6	0.08184974
194	0x3cce6d0a	0.025198478
195	0x3de52d1e	0.11190246
196	0xbe0809dd	-0.13285013
197	0xbde67325	-0.11252431
198	0xbdb3209b	-0.087464534
199	0xbdedd4ac	-0.116128296
200	0xbe4d5da5	-0.20055254
201	0x3dc9e0d4	0.09857336
202	0x3e2b69f2	0.16739634
203	0xbe3fc496	-0.18727335
204	0x3dc46ae2	0.09590699
205	0xbd22ac80	-0.03971529
206	0xbc9c1c43	-0.019056445
207	0xbdba16f4	-0.09086409
208	0x3dc9ee5f	0.09859919
209	0xbdcaaff4	-0.09896842
210	0xbdcda884	-0.100419074
211	0xbb845617	-0.004038583
212	0x3c911f1c	0.01771503
213	0xbe08d909	-0.13364042
214	0xbe194d14	-0.14970809
215	0xbd0ec8cd	-0.034859467
216	0xbe23dd70	-0.1600244
217	0xbc65d235	-0.014027168
218	0xbc162c93	-0.009165901
219	0x3c886ad1	0.016652497
220	0x3d815bff	0.06316375
221	0xbe27bc87	-0.16380511
222	0x3cce0730	0.025149912
223	0xbdac69e3	-0.08418634
224	0x3d8d42f4	0.06897536
225	0x3ddbea8a	0.10738094
226	0xbd965462	-0.073403135
227	0xbdce07c1	-0.10060073
228	0xbdf00e27	-0.11721449
229	0xbd418a92	-0.04725129
230	0x3d466d4f	0.04844409
231	0xbb7185f4	-0.0036853524
232	0xbd91234a	-0.07086809
233	0xbd99f407	-0.07517248
234	0xbdc0386e	-0.09385763
235	0x3da6cc57	0.081444435
236	0xbd0a6fe7	-0.033798125
237	0xbd6e8a1a	-0.058237173
238	0xbe2012a6	-0.15632114
239	0xbd60ebe5	-0.054912467
240	0xbd46110f	-0.048356112
241	0xbd208ab9	-0.039194796
242	0x3db96d90	0.090541005
243	0xbd4939b9	-0.049127314
244	0x3e33bcf3	0.17552547
245	0xbdf3dbaa	-0.11907132
246	0x3d882581	0.06647778
247	0x3e005c5c	0.12535232
248	0x3d7b734c	0.061389253
249	0xbcc1e861	-0.023670377
250	0xbca32ada	-0.019917894
251	0x3d75f579	0.060048554
252	0xbd0a3ade	-0.033747546
253	0x3be2e3f3	0.0069241463
254	0xbe28256b	-0.16420524
255	0x3d30b670	0.043142736

fc8.bias f4 [16]
0	0xbd3e50a9	-0.046463642
1	0xbd777f82	-0.060424335
2	0xbd20f434	-0.03929539
3	0x3c4dfa22	0.012571843
4	0x3e4bbca2	0.19896176
5	0x3db74946	0.08949523
6	0x3cdabf9b	0.026702693
7	0xbcc2d066	-0.023781013
8	0x3dd12741	0.10212565
9	0x3df3c00b	0.11901864
10	0xbd19c2a3	-0.037539136
11	0xbe0c1f25	-0.13683756
12	0xbd3139e2	-0.043268092
13	0x3d0c1492	0.034199305
14	0xbb33274b	-0.0027336653
15	0xbda0e63a	-0.07856412

fc9.weight f4 [6, 16]
0	0x3e32a234	0.17444688
1	0xbe98f2a5	-0.29872623
2	0xbd95ec0b	-0.07320412
3	0xbc9c1e6d	-0.019057477
4	0xbd3012f8	-0.04298684
5	0x3eb1c76f	0.34722468
6	0xbd5902cd	-0.052981187
7	0x3eae854e	0.34086078
8	0x3c5869b1	0.013208793
9	0xbebec541	-0.37259868
10	0xbd907663	-0.070538305
11	0xbe8641a1	-0.26221946
12	0xbe62cb46	-0.22147855
13	0xbd4d8179	-0.050172303
14	0xbcc02e45	-0.023459563
15	0x3df13601	0.117778786
16	0xbe073e6d	-0.13207407
17	0x3e3b3910	0.18283486
18	0xbeb5aff2	-0.35485798
19	0xbe70cb8a	-0.23515144
20	0xbb578d22	-0.0032890518
21	0xbe201473	-0.15632801
22	0xbe65a934	-0.22427827
23	0x3de73bb1	0.11290682
24	0xbe57082b	-0.2099921
25	0xbd788a31	-0.060678665
26	0x3d64b72c	0.05583875
27	0x3e436eb5	0.190852
28	0xbf0db4dd	-0.553541
29	0xbe304890	-0.1721518
30	0xbea35f41	-0.3190861
31	0x3c8621f4	0.016373612
32	0xbe344200	-0.17603302
33	0xbce726d2	-0.028216753
34	0xbed34fe8	-0.412719
35	0x3d826d14	0.06368461
36	0x3d9d0e8e	0.07668792
37	0x3da5acc3	0.08089592
38	0xbe1d37dd	-0.15353341
39	0xbe1b3523	-0.15156989
40	0xbe15c35f	-0.1462531
41	0x3daf7d27	0.08568793
42	0xbe31d259	-0.17365398
43	0xbca508db	-0.020145824
44	0xbe17ec4a	-0.14836231
45	0xbe960465	-0.29300228
46	0xbec2ac9d	-0.38022318
47	0x3d91a05c	0.07110664
48	0xbe01d1b3	-0.1267765
49	0xbe1878a6	-0.14889774
50	0xbe3dae04	-0.18523413
51	0xbe2d9a34	-0.16953355
52	0x3d88060b	0.066417776
53	0x3d5a6678	0.053320378
54	0xbdcdb379	-0.10043997
55	0x3d1d9d6b	0.038480204
56	0x3e439c26	0.19102535
57	0xbe7f7fa9	-0.24951042
58	0xbdd519fd	-0.104053475
59	0xbe333658	-0.17501199
60	0x3ccb1f0e	0.024795081
61	0xbe0c0081	-0.13672067
62	0xbece87a4	-0.4033786
63	0x3e077f8c	0.13232249
64	0xbe3dcfab	-0.1853625
65	0x3dbd3202	0.09238054
66	0x3f07fb25	0.5311759
67	0x3dd123c7	0.10211902
68	0x3f00187a	0.5003735
69	0xba97d3b6	-0.001158348
70	0xbe32a2ac	-0.17444867
71	0xbf02abb8	-0.5104327
72	0xbecf7fa3	-0.40527067
73	0x3e8145f2	0.25248677
74	0x3b0c0b4b	0.0021369036
75	0xbd3d053c	-0.04614757
76	0xbf0b6f9e	-0.5446719
77	0xbe9ccb3c	-0.30623806
78	0x3d521663	0.05129088
79	0xbdb654b3	-0.08902874
80	0x3d9938f1	0.07481564
81	0xbd3d7d27	-0.046261933
82	0xbe8e0c88	-0.27743936
83	0x3e02eb15	0.12784989
84	0xbd993299	-0.07480354
85	0xbe21d8c7	-0.1580535
86	0x3d81858f	0.063243024
87	0xbe6054c1	-0.21907331
88	0xbec7759a	-0.3895691
89	0x3e5777f8	0.21041858
90	0xbd333000	-0.04374695
91	0xbdb2d482	-0.08731939
92	0xbf2a73e6	-0.66583097
93	0x3d9393e7	0.072059445
94	0xbcb9bc4d	-0.022672797
95	0xbe185661	-0.14876701

fc9.bias f4 [6]
0	0x3e7a334f	0.24433635
1	0x3e3c0281	0.1836033
2	0x3e1a9888	0.15097249
3	0x3e4f8951	0.20267226
4	0xbe38cc22	-0.1804662
5	0x3e345e85	0.17614181
