model/model_vae_mlp_f6_c70_z3.pth (torch_old, 8522 bytes, 14 tensors)

encoder.fc1.weight f4 [32, 6]
000000 1e 60 68 be 73 f8 90 be 5b 5e 5e 3d 83 4e a9 3e
       -0.22692916 -0.28314552 0.054289203 0.33067712
000010 45 38 94 bd 9c 90 d7 bd c6 97 f5 3a 09 06 0e 3e
       -0.07237295 -0.10525629 0.0018737249 0.1386949
000020 a3 a4 7d 3e 94 aa b0 be 9c ee fd bd 1a e0 bc 3e
       0.24769835 -0.3450514 -0.12399027 0.36889726
000030 00 46 a6 3e 60 bc af bd 1f 56 c4 bc 39 a6 c0 bd
       0.3247528 -0.085808516 -0.023966847 -0.094067045
000040 7c c8 9a be e9 be 81 bd f5 a7 d4 3d 5f 21 e1 be
       -0.30231082 -0.06335241 0.10383598 -0.43970773
000050 07 3c 2d be 9a 3c 16 bd bf 8b 59 3d 68 58 32 3e
       -0.1691743 -0.036678888 0.053111788 0.17416537
000060 04 5d 00 3b d1 82 bf bd 80 2d b4 3e 6c 13 74 3d
       0.0019586692 -0.09351123 0.35190964 0.059588835
000070 ee f8 54 3e 7c 6b 2a be 90 e8 a3 3e 8a 23 83 be
       0.20798084 -0.16642565 0.3201337 -0.25613052
000080 0e ac b6 b9 ea 3b 9d bd f7 f0 99 3e 5a 30 27 3e
       -0.00034841936 -0.07677443 0.30066654 0.16327038
000090 54 15 c8 bd 70 1b 97 3e 42 43 81 bb b2 34 ed 3c
       -0.09769693 0.2951312 -0.0039447853 0.028955791
0000a0 65 29 32 bd ec 05 16 be 6e 58 b3 3e 0d 01 bc 3d
       -0.04349651 -0.14650697 0.35028404 0.09179888
0000b0 2b 49 85 be 9f fb b6 3e 04 a7 86 be e7 da 91 be
       -0.26032385 0.35738847 -0.26299298 -0.28487322
0000c0 3c e0 3a be d3 9c 9c be f0 4c 69 3e e5 61 8a be
       -0.18249601 -0.30588397 0.22783256 -0.27027813
0000d0 d7 c5 3c 3d e1 34 80 3d 51 86 a0 3e 67 fa 66 be
       0.046087112 0.06260086 0.31352475 -0.22556458
0000e0 6b 11 bf be ff 16 17 3d 74 0b 56 be 64 f4 7d 3b
       -0.37317976 0.036887165 -0.20902807 0.0038750404
0000f0 5c 22 20 be 6f cd d0 3e df e4 16 bd 99 0a b5 3e
       -0.15638107 0.40781733 -0.036839362 0.35359648
000100 78 be 72 be 1d d0 c3 be f2 4d 75 be 31 47 94 3e
       -0.2370547 -0.38244715 -0.23955515 0.28960565
000110 07 c1 92 bc e9 a9 ac bd 92 e1 46 be ef 05 db bd
       -0.017914308 -0.08430845 -0.19421986 -0.10694491
000120 05 86 6d 3e 86 3a 74 be 16 0d c2 bb dc e9 e6 bd
       0.23195656 -0.2385045 -0.00592197 -0.11275074
000130 3f 1f 8b 3e 46 29 a0 be b5 39 f9 bd 8f 55 dc 3e
       0.27172276 -0.3128149 -0.1216921 0.43034026
000140 02 c1 a7 3e a1 ce 5a be de 3e 83 be 46 a0 7d be
       0.3276444 -0.21367885 -0.256339 -0.2476817
000150 3e 3b 39 bc b8 a2 3b be 2b 6f fb 3d 03 9a 33 3e
       -0.011305628 -0.18323791 0.12277063 0.1753922
000160 41 9a 59 3c 85 11 2c be 49 4e 9c be e9 d2 b3 3e
       0.013281406 -0.16803558 -0.30528477 0.3512185
000170 1c da 15 3e 65 41 e4 3d 98 b7 b3 bd 0b 70 3a 3e
       0.14633983 0.111452855 -0.08775252 0.18206804
000180 36 7a 49 be b4 b1 9b 3e 8e 9d 5f 3e 79 6c b0 3e
       -0.19675526 0.30409014 0.21837446 0.34457758
000190 4e 22 49 be 79 ed 77 be 08 fd 8f be 21 02 8c bd
       -0.19641992 -0.24211682 -0.28122735 -0.068363436
0001a0 db b7 64 3e 89 87 3a 3e 93 3d b4 bd dc 0b c7 be
       0.2233576 0.18215765 -0.08800807 -0.38876235
0001b0 a0 48 32 be 70 3f 6a 3e 50 1e 68 be 74 9f 9b 3e
       -0.17410517 0.22875762 -0.22667813 0.3039509
0001c0 47 60 bf be 7a 46 2e 3e 3f cb 13 3e e7 e5 53 3e
       -0.3737814 0.17019072 0.14433001 0.2069317
0001d0 49 94 b4 be da 54 cd 3d aa f0 09 3e bf 0b 74 be
       -0.35269383 0.1002595 0.13470712 -0.23832606
0001e0 0e 73 bb be 5e 42 de 3d 34 9a 98 bd 3f 5a a3 3e
       -0.36611217 0.10852502 -0.07451287 0.3190479
0001f0 e7 f6 b2 be 30 8b 2d be 90 bc 6d 3e fd 11 a8 3e
       -0.34953997 -0.16947627 0.23216462 0.32826224
000200 5d 4a ae be 2b ae 40 be fc b6 47 be bc fb ec bd
       -0.3404111 -0.1881644 -0.19503397 -0.11571452
000210 73 2c 6d 3e 2d 83 b3 bd 37 5f 49 3e 9e ae 6f be
       0.23161487 -0.08765254 0.19665228 -0.23406455
000220 82 80 38 be a0 64 5d 3e fc dd 24 3e 5d 98 a4 3e
       -0.18017772 0.21620417 0.16100305 0.32147494
000230 b4 7d d7 bb 97 6c 62 be 54 4e e0 bc 35 53 cc 3e
       -0.0065762643 -0.22111736 -0.0273811 0.39907232
000240 16 ba 10 3e 97 b8 2b be 2d 03 8a 3e d7 56 ad 3e
       0.14133486 -0.16769634 0.26955548 0.33855316
000250 f8 a6 94 be 6c 6f 4e be 00 5b b8 bd 50 45 a9 3e
       -0.29033637 -0.20159692 -0.09001732 0.33060694
000260 12 63 46 be cc 9f 3f 3e 2a fb bb bd f9 d3 f0 bd
       -0.1937373 0.18713301 -0.09178765 -0.117591806
000270 fd 8c b7 bd 3e 85 6b be d2 d2 a8 3e 7b 68 09 be
       -0.08962438 -0.23000047 0.32973343 -0.13418762
000280 ed 3d 95 3e 23 57 30 be 76 92 15 be 25 bf 8a 3e
       0.29148808 -0.1722074 -0.14606652 0.27098957
000290 7a 23 b8 bd 22 9c 83 be c8 63 34 bd c6 3d 67 3c
       -0.089911416 -0.25705057 -0.04404047 0.014113849
0002a0 08 7e af 3c 3a 09 ec 3d f7 0c e2 3c e2 14 74 3e
       0.021422401 0.11525197 0.027594073 0.23836091
0002b0 c4 a9 c7 bd 91 18 98 be bf 8e a1 bd 51 26 42 bc
       -0.09749177 -0.29706243 -0.07888555 -0.011849956
0002c0 38 1a 4a be e0 b4 07 3e 57 cd 36 be e0 a1 8d 3d
       -0.19736564 0.13252592 -0.17851768 0.06915641
0002d0 72 8b 78 be f0 1d 47 3e 15 4a f0 3d d9 26 6f 3e
       -0.24271944 0.19445014 0.1173288 0.23354663
0002e0 b6 ad 3d 3e e6 82 08 bd cb f1 ac be 1f 4d 93 3e
       0.18523297 -0.03332796 -0.33778223 0.28769776
0002f0 ed cb 5e 3e e4 66 6f 3e 90 56 b9 be 00 11 0b 3e
       0.21757479 0.23379093 -0.36198854 0.13580704

encoder.fc1.bias f4 [32]
000000 3f be 1b be 20 cf 83 bd 10 d4 97 3c 46 0d 68 be
       -0.15209292 -0.0643599 0.018533736 -0.22661313
000010 ca de 05 3d 99 bc 29 be 9a 4c 85 3e a0 ff 98 be
       0.03268317 -0.1657585 0.26035005 -0.29882526
000020 82 fc b2 bb bd 50 fc bd c5 f2 a2 bd 3f 18 cf 3d
       -0.00546223 -0.12320087 -0.07956461 0.101120465
000030 c8 de ab 3d 05 a9 0b 3e 7e 3d d1 3e 8b c5 7b 3e
       0.083921015 0.13638695 0.40867227 0.24587075
000040 c9 e6 d3 3d 42 f2 c1 be f8 0c 37 3e 57 30 60 be
       0.10346753 -0.3788014 0.17876041 -0.2189344
000050 dd 15 35 be 64 8c 53 3e d7 91 7e bc b9 ef b4 bc
       -0.17684121 0.20659024 -0.015537701 -0.022086965
000060 95 10 b8 be fa d6 e7 be 6b 0b 3c 3e 96 23 a2 3e
       -0.3595015 -0.45281202 0.1836373 0.31667775
000070 96 c5 82 be 77 04 57 3d 58 8d 8b 3e 1b 8f 85 be
       -0.2554137 0.052494492 0.27256274 -0.26085743

encoder.fc2.weight f4 [16, 32]
000000 ac 97 1b be 4e 99 21 3c f0 6c b1 3c f6 4f c1 3d
       -0.15194577 0.009863211 0.02165839 0.094390795
000010 b9 98 68 3d 8d 2f 4c 3c 94 97 d9 bc bb 95 30 bd
       0.056786273 0.012462509 -0.026561536 -0.043111544
000020 3b 9a a4 bd 59 8d c7 3d e9 12 c0 3d a4 b9 b2 3d
       -0.080372296 0.09743757 0.09378607 0.087268144
000030 cb 3f d2 bc ae 78 03 3d 4b f6 ec 3d e1 31 3b be
       -0.025665184 0.03209751 0.11570414 -0.18280746
000040 7a 38 26 3d 5e e8 0d be 36 98 d1 bd b2 57 24 bd
       0.040581204 -0.13858172 -0.1023411 -0.040122695
000050 12 b8 8c 3d 89 29 d8 bc a1 15 af bd cf 28 01 3e
       0.06871046 -0.026386993 -0.08549047 0.12613223
000060 1b 4e 04 be a3 7c 06 bd dd f9 26 3d 17 ab d7 3c
       -0.1292042 -0.032833707 0.040765632 0.0263267
000070 a4 a6 4c be 37 34 10 be f1 6f 2d be 32 ea 36 be
       -0.19985443 -0.14082418 -0.16937234 -0.17862776
000080 b4 52 b5 3d f3 42 0a 3e f3 80 ad bd 29 82 13 3d
       0.08853665 0.13502102 -0.08471861 0.036012802
000090 fc f6 b5 3d 7f 09 1f 3d 92 e5 9d bd 8d b0 02 be
       0.08884999 0.038827416 -0.07709803 -0.12762661
0000a0 c8 ff 87 bc 68 c8 06 3d 99 30 2b bd 6a 1e 79 3d
       -0.016601458 0.032905966 -0.041794393 0.06082002
0000b0 33 ac 88 bd 10 e3 df bd 77 57 13 3e 8c 24 d1 ba
       -0.066734694 -0.109319806 0.14388834 -0.0015956326
0000c0 d0 48 63 3b 1e 18 0d 3e fc c1 7a b7 a0 b6 90 bc
       0.003468085 0.13778731 -1.4946327e-05 -0.017665207
0000d0 0c 00 06 be fc d9 1d 3e c3 a7 1e 3e a9 be 5d bd
       -0.13085955 0.15415186 0.15493684 -0.054136906
0000e0 9c 7f ff bd 1d 92 04 be 4d 73 5d bd 35 49 f7 3d
       -0.124755114 -0.12946363 -0.054065038 0.1207451
0000f0 06 1c 07 3e 24 fd c6 bc e1 21 14 bc c9 5b e2 bc
       0.13194284 -0.024290629 -0.0090412805 -0.027631657
000100 d2 78 a1 bd 7b 8f 10 bd 9f 53 41 3e b8 42 ae 3d
       -0.07884373 -0.035293084 0.18879555 0.08508819
000110 03 66 51 3d 94 16 14 be 2d 5c 05 3e bd 9a 62 bd
       0.051122677 -0.14461738 0.13023444 -0.05532335
000120 30 40 fa 3d a2 60 79 3d 73 9e 7d 3d 07 e3 a1 bd
       0.12219274 0.06088317 0.061918687 -0.0790463
000130 28 87 96 3d 46 28 00 bc 7f 24 1d bd 2d b1 eb bd
       0.07349998 -0.007822102 -0.038364884 -0.11508403
000140 56 59 05 3d 20 9b 24 be 1e 84 8a bd 0a bb 9f 3d
       0.0325559 -0.160748 -0.067634806 0.07799347
000150 fe 82 50 3d 5c fc d8 bd 7f e7 68 bd 6b 06 42 3d
       0.050906174 -0.10595009 -0.056861397 0.047369402
000160 cb 34 ae 3d 5a 74 83 3d 53 4f c6 bd 57 8b 9a bd
       0.08506163 0.06418677 -0.09683099 -0.07546108
000170 d7 21 43 3d 61 12 82 3d 5a f0 86 bc 4a ef 1d bc
       0.047639694 0.06351162 -0.01647203 -0.0096395705
000180 44 a7 5b 3d 1e 67 3d 3e ec 7d 13 3d 0e ad ea bd
       0.053626314 0.18496367 0.03600876 -0.11458789
000190 30 f4 38 bd 99 82 3d bb 12 90 19 3e 06 24 cd 3b
       -0.04515475 -0.0028916954 0.14996365 0.006260398
0001a0 b9 a3 a8 3c 9d 59 91 bc 69 99 18 bd 34 0e cb bb
       0.020585882 -0.017742926 -0.03725568 -0.0061967615
0001b0 3f 0b b9 bb b2 e7 87 bd 95 79 18 3e e5 e9 f3 bb
       -0.0056470926 -0.06635989 0.1489013 -0.007443654
0001c0 96 64 90 bd 07 b8 3b bd ae 07 84 3d 3c 49 82 bc
       -0.07050435 -0.0458298 0.06446777 -0.015904061
0001d0 e8 9a 7c 3c 35 30 d4 3d 57 73 71 3d 34 b1 10 be
       0.015417792 0.10360757 0.058947887 -0.14130098
0001e0 a8 e3 0d 3b 5e c9 11 be 91 3e 4d bc 19 85 9a bd
       0.0021650586 -0.14236972 -0.012527124 -0.075449176
0001f0 2e 77 25 3d e8 9f a7 bd 11 9f f1 3d c5 31 25 bc
       0.04039686 -0.081847966 0.11797918 -0.010082667
000200 ff 40 29 be 70 ec 03 be 1c d6 40 bd 40 5d 63 3c
       -0.165287 -0.12883162 -0.04707919 0.013877213
000210 bb 9c 82 3d 96 4b b1 3b bc 35 9b 3c 2e 95 39 be
       0.0637755 0.005410622 0.018946521 -0.18123314
000220 61 ee a1 3d a4 6c 0d be 11 4d 1b be a4 9f 7a 3d
       0.07906795 -0.13810974 -0.15166117 0.0611874
000230 dd c4 ec bd 80 6d dd bd 4a 0f 2c be 29 8a e9 bd
       -0.11560986 -0.10811901 -0.16802707 -0.11403305
000240 d6 ce 19 bc d6 3b f3 3d 96 dc 91 3d 00 2a 8e bd
       -0.009387692 0.11876647 0.071221516 -0.069416046
000250 97 fe 72 bd 90 3b 7c bc d3 74 2f 3e 22 4c d5 bc
       -0.059324827 -0.01539506 0.17134409 -0.02603728
000260 80 cf 06 bd 80 8c eb 3b ae 8b a8 3d ff 55 0f be
       -0.03291273 0.0071883798 0.08229767 -0.13997649
000270 34 56 2e 3d 0e 16 2a bc 9d b0 dc 3c 53 58 94 3d
       0.04256268 -0.010381235 0.026939685 0.07243409
000280 69 49 a1 bd 64 1d e1 3c 3a 37 f6 bd 98 95 26 bd
       -0.0787533 0.027479835 -0.120222524 -0.040670007
000290 83 6b 9d bc fa b8 78 bb d7 62 94 3d 5e ba 0b 3e
       -0.019216305 -0.0037952051 0.07245415 0.13645312
0002a0 40 99 35 bd 10 37 8f 3d d7 25 a3 bc e8 02 c6 bc
       -0.044335604 0.06992924 -0.019915504 -0.024171308
0002b0 f8 b8 8c bd 19 f6 ac bc c5 27 af 3d 3c bf ee bd
       -0.068712175 -0.021113442 0.08552507 -0.11657569
0002c0 c5 80 b5 3d 19 fa 0e bd c0 fd b4 bc 00 0e 4c 3d
       0.088624515 -0.03490648 -0.022093654 0.04981804
0002d0 90 4f 5e 3c 0b bd 23 be c3 ec 06 3d 20 2c ca bd
       0.013568774 -0.15990083 0.032940637 -0.098716974
0002e0 78 03 d4 3a 1c d4 2d 3e 9f 8f fb bd 50 7d d3 bc
       0.001617535 0.16975445 -0.12283253 -0.02581659
0002f0 ce b8 13 3e c0 dd a9 bc 94 60 bf 3d 18 f4 da 3c
       0.14425966 -0.020735621 0.09344593 0.026727721
000300 69 dc 04 bd 66 d6 9a 3d d2 fb db 3d 53 06 2a 3e
       -0.032436762 0.075604245 0.1074139 0.16603975
000310 16 81 31 be 80 d6 5e 3d 6b 88 50 be b5 88 d4 bd
       -0.17334399 0.054403782 -0.2036454 -0.10377637
000320 20 90 04 be 28 e0 12 3e 6d 24 e8 bd 08 9e 9f 3d
       -0.12945604 0.14343321 -0.11335073 0.07793814
000330 bd 0b 91 bd 07 69 55 bd 76 46 1c bd 92 4f b4 bd
       -0.07082317 -0.052102115 -0.038153134 -0.08804239
000340 c6 8e ce 3d 30 9e e3 bc ae 8e e8 3d 6a ff b9 bd
       0.100858256 -0.02778539 0.11355339 -0.090819195
000350 60 6e be bd f9 a5 bb bc 52 b8 58 3d 58 16 73 bd
       -0.09298396 -0.02290629 0.052910157 -0.05934748
000360 74 c6 13 bd f3 c8 e8 bd f1 0f 9c bd ad 10 f3 bb
       -0.03607793 -0.11366453 -0.07620228 -0.0074177594
000370 20 9f 0b 3c 35 fc fc 3d 68 dc 0a be d8 21 e9 bd
       0.008521825 0.12352792 -0.13560641 -0.11383408
000380 e7 e0 04 be 34 60 29 bd 99 c4 8e bd 2a ed f5 3d
       -0.12976418 -0.041351512 -0.06971092 0.12008126
000390 70 e1 1b be 0f 33 9a bb 55 fd 01 3c 15 b0 74 3d
       -0.15222716 -0.0047057937 0.007933934 0.059738237
0003a0 6a 2a b0 3d 07 ae e0 3c 97 e0 f5 3c 70 3b a0 3d
       0.0860184 0.027426733 0.03001432 0.07823837
0003b0 f2 89 5f bd a0 6b 10 3d 9c 41 1e be 17 fa 0f be
       -0.054574914 0.03525889 -0.15454715 -0.14060245
0003c0 bf 9b fc 3d 67 10 aa bd b6 3a 8d bc 5b b5 aa 3d
       0.12334394 -0.0830391 -0.01723991 0.08335372
0003d0 6e 08 c8 3d 0a a6 b2 bd 2d 50 ff 3d ea 8e 8f bc
       0.09767233 -0.08723076 0.12466464 -0.017524201
0003e0 9a 48 0c 3e b6 33 80 3d 74 ef 5b bb 3e 19 17 3e
       0.1369957 0.06259863 -0.0033559473 0.14755723
0003f0 20 54 2b be 00 a7 70 3d bb db f5 3d 03 1c a0 bd
       -0.1673131 0.058753014 0.12004801 -0.07817843

encoder.fc2.bias f4 [16]
000000 41 41 4e be 93 d4 94 bd 3b d3 de 3d 68 37 91 3e
       -0.2014208 -0.07267108 0.10880133 0.28362584
000010 7c b3 6d bd 86 37 f1 bd 30 0d 8a bc 30 fd 41 3e
       -0.058032498 -0.117781684 -0.016851991 0.1894424
000020 50 ca 41 3e 29 c4 d1 3d 13 14 7f bc fc 8c 18 bd
       0.18924832 0.10242493 -0.015568751 -0.03724383
000030 42 4b be bc 82 01 06 3e ec f4 c6 3d 96 06 31 be
       -0.023229245 0.13086513 0.09714684 -0.17287669

encoder.fc31.weight f4 [3, 16]
000000 f4 80 36 3e 95 23 d3 3c d4 7b f6 bc 36 63 a5 bd
       0.17822629 0.025773803 -0.030088343 -0.080755636
000010 67 50 0f be e0 46 42 3e 6f 63 0c 3e 3d 6d c2 bc
       -0.13995515 0.18972349 0.13709806 -0.02373373
000020 2c 18 ef 3c 04 c8 26 3d bf da 49 3d b2 b9 a7 3c
       0.02918633 0.040718094 0.04928088 0.020474289
000030 48 46 10 bd 33 fc 82 bd e6 b7 a8 3c bf f0 1e bc
       -0.035223275 -0.063957594 0.020595502 -0.009700953
000040 cf 3d c0 bd 94 dd fe bc 12 c6 a0 ba b2 18 01 3e
       -0.09386789 -0.031111516 -0.0012266061 0.12607077
000050 34 d1 3c 3e 36 4c 2a 3e 81 71 1b be fc ce c8 3d
       0.1843918 0.16630635 -0.15180017 0.09805104
000060 1b a6 09 3b ef 65 b2 bc 96 ae 3d 3d 16 6b df 3b
       0.0021003548 -0.021777121 0.046309076 0.0068181856
000070 0c eb f4 bc 0b 1d c0 3d 6f 2c 55 3c 92 f2 bd 3c
       -0.029897235 0.093805395 0.013011082 0.023186956
000080 3e 6e cc bd 77 a3 bd bc e8 8e 2b bd d7 59 9d bd
       -0.099819645 -0.023149235 -0.041884333 -0.07683151
000090 c5 9f 07 3e be 32 8b bb 73 fe 22 3e 7e 20 12 be
       0.13244541 -0.0042479923 0.15917377 -0.14270207
0000a0 78 c5 cf bd 0e 40 a0 3d 8c 67 69 bd 62 52 1d 3c
       -0.10145086 0.078247175 -0.056983516 0.009602161
0000b0 ae 0a b1 3b d9 4c 9f bd e5 0a 2a 3d 5a 0b 92 bd
       0.0054028844 -0.077783294 0.041514296 -0.071310714

encoder.fc31.bias f4 [3]
000000 9a 7a 40 3d 87 2d a9 bd 48 6c ac 3d
       0.046991922 -0.08260637 0.084190905

encoder.fc32.weight f4 [3, 16]
000000 53 76 da 3d c6 0a 86 3c 27 ce 69 3c 63 27 49 bc
       0.106671 0.016362559 0.014270342 -0.012277457
000010 81 15 e0 bd 52 de 21 be 1c d9 d1 3d 6f 6f 7f bc
       -0.109416015 -0.15807465 0.102464885 -0.015590533
000020 b2 3f 96 3c 19 e7 19 bc ba 54 0a 3d 21 65 bf bb
       0.01834092 -0.009393477 0.033772208 -0.005840913
000030 9c 25 95 3c db 89 80 bc ff 73 8b bc c8 a1 f0 bd
       0.01820641 -0.015690735 -0.017023085 -0.11749607
000040 e7 92 86 bd f6 5e d8 bc 04 af a4 bc 60 57 8e 3d
       -0.06570988 -0.026412468 -0.020102985 0.06950259
000050 da fb 2c 3e 02 ff 21 3e 5e 10 d1 3d 7f 0d 3c bc
       0.16892949 0.15819934 0.102082 -0.011477827
000060 c0 c1 4d bc 0d a5 1b 3d 0c e9 9c 3d 02 1e 87 3c
       -0.012558401 0.0379992 0.07661638 0.016493801
000070 a4 7b 02 bc ae 0c 00 bb 1f ef 82 3c 68 de b2 bc
       -0.007964049 -0.0019538808 0.015983162 -0.021834567
000080 a9 ef 4f be 64 5e 3f bd e7 35 ab 3c d9 a7 20 3e
       -0.20306267 -0.046720877 0.020899726 0.15689029
000090 3b 29 47 bc f7 c7 00 be 9f c4 50 3c f1 41 ba bd
       -0.012155826 -0.1257628 0.012742191 -0.090946086
0000a0 c0 5c 4e bd 82 58 40 3d a4 a6 3e be d3 1e 5d bc
       -0.050381422 0.046959408 -0.18618256 -0.013496119
0000b0 2a 0d 9c 3d 9d ff b4 bb c4 e4 de bc df 33 83 3d
       0.07619698 -0.0055236355 -0.027208693 0.06406378

encoder.fc32.bias f4 [3]
000000 c7 d3 c1 3b 52 4f c5 bc bd 6c 48 bd
       0.0059151384 -0.024085674 -0.048931826

fc1.weight f4 [32, 3]
000000 93 5b 3b be c9 b8 33 bb 64 f0 94 bd a4 e2 7f be
       -0.18296652 -0.0027423373 -0.072724134 -0.249888
000010 96 77 88 bc bc 29 53 3e 9e ac 01 3f a6 b2 c8 be
       -0.016658586 0.20621389 0.5065402 -0.39198798
000020 60 af 43 3e e7 60 35 3d 7d 51 0d bf d9 d5 93 bd
       0.19109869 0.044281866 -0.55202466 -0.072185226
000030 b0 e1 80 be 73 10 b9 3d f1 ff 88 3e 7c aa cd 3e
       -0.25172186 0.090363406 0.26757768 0.40169132
000040 0d c7 74 3e 09 f0 80 3e ec d7 18 bd 92 1d 45 be
       0.23904057 0.25183132 -0.037315294 -0.19249561
000050 26 89 c8 be e9 6e 2d bd fe cf 12 3f cd d4 bb bd
       -0.39167136 -0.0423421 0.5734862 -0.09171448
000060 98 6e 21 3e 79 75 12 3f 08 86 4c be 8d 8d 59 3e
       0.15764844 0.572105 -0.19973004 0.21245404
000070 74 fe 03 3f 7f 7f 9a 3b 66 11 e1 be c3 1a 1c 3e
       0.5156014 0.0047149058 -0.43958586 0.15244584
000080 33 62 b5 3d 5e 1f f8 3e ea 5f cf be 9c 5a 4c be
       0.08856621 0.4846143 -0.40502864 -0.1995644
000090 3d 15 af bd a6 4f 21 bd 15 07 1b bd 26 ba ed 3d
       -0.08548973 -0.0393826 -0.03784855 0.116077706
0000a0 b3 9c 8a 3e 4c 17 7d 3e 60 d6 8a 3e f8 d8 f5 3d
       0.27072677 0.24715918 0.2711668 0.12004274
0000b0 a4 b1 86 3d 1f c2 f5 3e 96 ce 6d 3e 20 39 d9 bc
       0.06576851 0.47999665 0.23223338 -0.026516497
0000c0 11 54 b2 be 86 7b 86 be 65 13 f3 3e c6 f1 63 bd
       -0.34829763 -0.26266116 0.47475734 -0.055650495
0000d0 f1 34 88 be 3d 1e 7c 3e b7 ea 04 be 73 5d 07 3f
       -0.2660289 0.2462091 -0.12980162 0.5287697
0000e0 51 41 9b be cf 13 a6 be d3 37 1b 3e a9 64 40 bd
       -0.3032327 -0.32436988 0.15158014 -0.046970997
0000f0 9e 04 89 be 3a 23 dd bd 88 78 f7 3e fb 3a 14 3e
       -0.26761335 -0.107977346 0.48334146 0.14475624
000100 0a 76 a5 be be de d3 be 74 1b 59 be 96 6c 90 3e
       -0.3231662 -0.41380876 -0.21201879 0.28207844
000110 c0 13 52 3e d2 09 04 bf 9f 84 fa 3e 9d 81 0e bf
       0.20515347 -0.51577485 0.48929307 -0.55666524
000120 b7 a6 b8 bd a9 0e c7 3c 03 f2 32 3e 60 81 db 3e
       -0.09016173 0.024298983 0.17475133 0.42872143
000130 09 aa 10 bf f7 51 1c 3e 8d 78 6d 3e 2d ad 6a be
       -0.56509453 0.15265642 0.23190518 -0.22917624
000140 83 ee 0e bf 67 50 8a 3e da 79 28 be fb 5f a1 3e
       -0.5583269 0.27014467 -0.16452733 0.3151854
000150 83 76 a6 3e 27 85 9a 3d 0a 35 1a 3e 34 e3 0a 3f
       0.32512292 0.07544928 0.15059295 0.54252934
000160 e7 79 03 3d 94 07 58 3e 4c c6 c7 be ef 16 a9 bd
       0.032098677 0.21096641 -0.39018476 -0.08256327
000170 19 89 6c bd 95 b2 d1 3e 65 bb 08 3f 26 e3 bc 3e
       -0.057747934 0.4095656 0.5341094 0.3689205

fc1.bias f4 [32]
000000 53 21 f0 be 03 f5 f3 3d be 60 75 3e 75 8d 08 be
       -0.46900424 0.11911967 0.23962685 -0.13335212
000010 7e 7a 0e 3e 33 28 fd be de 32 b5 be ba aa 6d be
       0.13913915 -0.49444732 -0.3539037 -0.23209658
000020 aa 4e d0 be 84 6c 12 bf 5a 2e df 3e 97 9d b7 be
       -0.40685016 -0.5719683 0.4359005 -0.3586242
000030 41 a4 07 3f 6c b0 4e be ec f1 2e be 60 18 10 bf
       0.52985007 -0.20184487 -0.17084473 -0.56287193
000040 46 08 1a 3d 66 dc ba be 8d 2a 61 bd 69 c8 1d be
       0.037605546 -0.36496276 -0.05497222 -0.15408482
000050 aa b6 cb bc d0 5d 38 bd 0f f7 3b be 32 7f f9 3d
       -0.024867374 -0.04501134 -0.18355964 0.12182464
000060 11 f4 cd be 41 f0 94 be c9 95 f5 3e a0 c5 58 be
       -0.4022527 -0.2908955 0.4796584 -0.21169138
000070 d0 7a 55 bc ae de 5c be 03 52 9d 3d b1 93 02 bf
       -0.013029769 -0.2156932 0.07681658 -0.5100661

fc2.weight f4 [16, 32]
000000 3a 50 82 3d d1 fd 41 bd 4c 90 0d 3e 3f 09 e2 bd
       0.06362958 -0.0473612 0.13824576 -0.1103692
000010 c1 a4 1c bd b3 bd aa 3d bd 75 8a 3d 96 32 5f bd
       -0.03824306 0.083369635 0.06760738 -0.054491602
000020 e7 81 26 3e 03 9a 03 3e 8f f9 66 3d c5 b2 f8 3c
       0.16260491 0.1285172 0.05639034 0.030358681
000030 5d f9 79 bd d7 88 20 3d 55 13 34 bc 2e 29 b1 bd
       -0.061028827 0.039193 -0.010990937 -0.086504325
000040 08 62 08 be 8f 2a 18 be a3 99 0d 3c c7 44 ea 3c
       -0.13318646 -0.14859985 0.008642587 0.028597249
000050 41 87 84 bd 76 0b ce 3b a7 03 87 bd b2 ea 99 bc
       -0.0647111 0.0062879873 -0.065924935 -0.01878867
000060 90 f5 68 bd 88 14 1b bd fe 1d 84 3d 3d 2d c9 3d
       -0.05687481 -0.037861377 0.06451033 0.09823082
000070 4d 60 21 3e eb 2a bf bb 2d fa ca 3c 3b ea 26 3e
       0.15759392 -0.0058339736 0.024777496 0.1630029
000080 ab 18 d0 3d 98 bc 32 be a3 82 bb 3d cd cb a7 3d
       0.10160955 -0.17454755 0.09155776 0.08193169
000090 d0 d5 82 3d 77 10 b7 3d 09 d1 e3 3b f0 dd 84 bd
       0.06388438 0.08938687 0.006952409 -0.06487644
0000a0 5a 1a 9e 3d 18 45 d8 3d 42 71 89 bb 4e f4 5e bd
       0.0771987 0.105600536 -0.0041944096 -0.054432206
0000b0 c8 c0 80 bd 32 3e 11 be be 60 99 3c aa f5 43 3d
       -0.0628677 -0.14183882 0.018722888 0.047841705
0000c0 8c ce 28 be 06 1a b4 3d 68 41 e2 bd e5 44 b2 3d
       -0.16485041 0.08794026 -0.110476315 0.08704547
0000d0 25 0f 76 bd d1 a6 2d be e2 3a 2f be f6 00 49 3d
       -0.060073037 -0.16958167 -0.17112306 0.049073182
0000e0 bf da 0b 3e 55 3d 22 3d 4b 51 ab 3d b1 5b 04 be
       0.13657664 0.039609272 0.08365115 -0.12925602
0000f0 c4 f6 69 bd 15 cd 0d be e7 90 06 3e 2b a6 6f bc
       -0.0571201 -0.13847764 0.13141213 -0.01462702
000100 d1 5e f2 bd af b4 8b 3d fe 04 8e bc a9 9b 46 3d
       -0.11834491 0.06821572 -0.017336365 0.048488293
000110 19 91 6b 3d 47 ac f7 3d db 39 19 bc 27 34 05 3d
       0.057511423 0.12093406 -0.009352173 0.03252044
000120 64 f6 1e bd c4 5d 25 be 4a 21 a9 bd 23 12 19 bb
       -0.038809195 -0.1614905 -0.082583025 -0.0023356758
000130 b5 94 9f 3d 9f 46 8b bd d0 d4 9d bd df 7e 9b 3d
       0.077920355 -0.06800579 -0.077066064 0.07592558
000140 04 64 2f be 93 d2 22 3e 52 9c 31 3d a6 99 00 3e
       -0.17127997 0.1590064 0.04336197 0.12558612
000150 dd 90 29 3e 2e 5c 84 bc 9e d5 df 3d bb 7a 45 bd
       0.16559167 -0.016157236 0.10929416 -0.048212748
000160 ef 8b e1 bd 6c 6c a1 3d 66 2f 13 3e 99 9f 10 be
       -0.11013018 0.07882008 0.1437355 -0.14123382
000170 ad 54 b7 bc e9 d0 08 be e5 76 08 be 42 67 05 3e
       -0.022379244 -0.13360943 -0.13326605 0.13027671
000180 4b 5e bf 3c 88 b1 93 3d d2 ea 23 be 41 c1 3d bd
       0.023360392 0.07211596 -0.16007546 -0.04632688
000190 e8 d2 7f bd 61 d0 ad bc 22 5e a8 3d 91 a2 84 bd
       -0.062456995 -0.021217527 0.082210794 -0.064763196
0001a0 b0 e6 e7 ba 0f 83 cd 3d b5 fd 8d bd e2 02 ad 3d
       -0.0017692652 0.10034763 -0.069331564 0.084478155
0001b0 13 b5 d9 bd df cb 18 3e 6c 80 2f be ce 9b fd 3c
       -0.1063024 0.1492152 -0.17138833 0.030958083
0001c0 90 45 d5 bd ce b0 fc bd 87 5f ea 3c dc 19 b9 3d
       -0.104136586 -0.1233841 0.028610004 0.090381354
0001d0 fe 17 23 be be 39 85 bd f9 03 b5 bd 35 40 3d 3e
       -0.15927121 -0.06505154 -0.08838648 0.18481524
0001e0 9b 72 29 3d 77 49 13 3e 42 13 0c be 80 ac 0c bc
       0.041369062 0.14383493 -0.13679221 -0.008586049
0001f0 1c 33 26 be fe a0 10 be e3 02 00 3e 28 db 6f 3d
       -0.16230434 -0.14123914 0.12501101 0.058558613
000200 03 fd 10 3e af 77 7c 3d f1 08 12 be c5 22 7a 3d
       0.14159016 0.061637577 -0.14261223 0.061068315
000210 2c 35 16 3e 21 9f 43 3d 90 df 7f 3d 0d bc 40 bc
       0.14668721 0.04775918 0.062469065 -0.011763585
000220 03 1c d6 bd 46 b0 6f 3d d8 b7 96 3d af 04 ab bd
       -0.104545616 0.058517717 0.07359284 -0.08350503
000230 e1 7d 79 3d 92 f4 2c be 8c f1 c1 bd ad 49 0a 3e
       0.060911063 -0.16890171 -0.094698995 0.13504668
000240 53 ef 29 be eb 3f 81 bd 65 43 a3 3c 35 f1 11 be
       -0.16595201 -0.063110195 0.019929597 -0.1425217
000250 1b db 29 3d 9e 5f cf bd 56 ab fb 3d bc af 65 3d
       0.04146872 -0.101256594 0.12288539 0.056075796
000260 08 bd d9 bc c8 74 2c 3e bf 50 e3 3d 08 a0 73 3d
       -0.026579395 0.16841424 0.110993855 0.05947879
000270 46 ec 21 be 03 ef ff bd a9 9e 1a bc 16 5b a6 3c
       -0.15812787 -0.1249676 -0.009437242 0.020307105
000280 79 fd 4b bd c0 77 1f bd f8 de 02 bd b8 d1 1b 3e
       -0.049802277 -0.038932562 -0.03195092 0.1521672
000290 2d 75 02 bd b9 4d 2d bd fa f6 24 be 79 a6 03 3e
       -0.03185003 -0.04231045 -0.16109839 0.12856473
0002a0 2d 70 ef bd 57 27 b4 3d 6a 84 2f 3e 89 ed 0a 3e
       -0.11691318 0.08796566 0.17140356 0.13567175
0002b0 2b 17 1a be 1a 28 8e bd a9 74 35 3e e9 c2 df bd
       -0.150479 -0.069412425 0.17720284 -0.10925848
0002c0 e5 19 2e bd 97 2e bd 3c fa 2a 19 3e 3c 37 2f 3e
       -0.042505164 0.023093505 0.149578 0.17110914
0002d0 b1 f5 cc 3d 3a c1 b9 bc 2e d7 72 3d 6b 3c 2c 3c
       0.100077994 -0.022675145 0.059287243 0.010512452
0002e0 5a 7d 24 be f3 25 7f bd 31 cb 13 3e c4 f3 53 38
       -0.16063443 -0.06229205 0.1443298 5.0533345e-05
0002f0 28 11 20 3e 44 12 02 bd 99 00 d4 3d f1 82 20 be
       0.15631545 -0.0317557 0.103516765 -0.1567495
000300 4d f8 0a 3c c3 ad bd bc 66 76 b5 3d 19 83 31 3e
       0.008482051 -0.023154145 0.08860473 0.17335166
000310 b2 87 1f be 8b b3 ab 3d d2 10 2a be d0 c1 07 3e
       -0.15579107 0.083838545 -0.16607979 0.13257527
000320 21 a2 0f 3e 36 35 e3 bd ab 3f b7 bc 3e 19 32 be
       0.14026691 -0.110941336 -0.022369226 -0.17392442
000330 62 5a a6 3d d7 5e bb 3c 06 ce 02 be d3 c9 1c 3e
       0.08122708 0.022872372 -0.12773904 0.15311365
000340 30 a3 ea 3d a4 a8 eb bd cc 71 21 be ed 90 a3 3d
       0.11456907 -0.11506775 -0.15766066 0.07986627
000350 63 c0 14 3e 99 0e 04 be f2 a4 8f bd e8 83 b1 3d
       0.14526515 -0.12896194 -0.07013883 0.08667737
000360 88 ef 4c bd 8b a0 45 bd 38 e9 4a bd 57 b9 c1 3c
       -0.050033122 -0.04824881 -0.04953882 0.023647947
000370 fc 00 fd bd 91 92 1b bc ad 9b df 3d 1c a0 ea bd
       -0.123537034 -0.009495393 0.10918365 -0.1145632
000380 ff f3 5e bd 1e eb 0e 3c ac a9 49 bd 24 76 07 3e
       -0.05443191 0.0087230485 -0.049234077 0.13228661
000390 09 27 88 bc c1 5f a9 bd 3f 3d 14 3d de 6f ad 3d
       -0.016620176 -0.08270217 0.03619122 0.084686026
0003a0 21 73 36 3e cc ab 31 be b5 3d 79 bd 19 0e aa bc
       0.17817356 -0.17350692 -0.060849864 -0.020758675
0003b0 a5 f1 0a 3e 8d 7e 4c bc ec 40 e9 bd 76 51 eb bd
       0.13568743 -0.012481344 -0.11389336 -0.11490147
0003c0 88 e5 cb 3c 42 7d 77 3d f1 3c f4 bc da 18 5d 3d
       0.024889722 0.06042219 -0.029814215 0.05397878
0003d0 c7 af 04 3d 15 15 aa 3c ca 7a 82 3d b0 df 27 bd
       0.032394197 0.020762006 0.063710764 -0.04098481
0003e0 81 e5 5d bd 5c 50 e9 3d 25 cb 88 bd 0e 7b 93 3d
       -0.05417395 0.113922805 -0.06679372 0.07201205
0003f0 81 65 a3 3b 42 08 88 3d c7 c6 66 bd 93 a2 1a be
       0.0049864654 0.066422 -0.056341913 -0.1510108

fc2.bias f4 [16]
000000 87 ed bf bd f2 5d 41 3d d7 64 19 be c2 8b 2f 3d
       -0.093714766 0.047208734 -0.14979874 0.042857893
000010 46 20 3b bd b5 0f 68 3d 50 15 f1 bc 94 f4 f7 3d
       -0.045685075 0.056655604 -0.029429108 0.121071965
000020 11 bd 17 be 77 49 57 bd db f7 0a bd 47 e9 19 bd
       -0.14818217 -0.052560296 -0.03392778 -0.037575986
000030 07 29 78 bc 36 b6 c5 bd d0 f7 af 3d 4e 07 b3 3d
       -0.0151465 -0.096538946 0.08592188 0.08741628

fc3.weight f4 [6, 16]
000000 7f a6 2e 3d 91 dc 1a 3e 80 59 2a 3e 5f 7d 83 3e
       0.04263925 0.15123202 0.16635704 0.25681588
000010 16 d7 2e be fa 37 19 be e8 12 d8 bd 75 26 90 3d
       -0.17074236 -0.1496276 -0.10550481 0.07038585
000020 4c 87 29 be 5c 9e 89 bd b3 ab 14 3c b8 03 86 bd
       -0.16555518 -0.06719658 0.009074139 -0.06543678
000030 1d 4c df 3d de 0d 6d 3e d0 a7 44 3e ae 13 6b 3e
       0.10903189 0.23149821 0.1920464 0.22956726
000040 00 56 42 3d 38 38 31 3e 6d 03 62 bc 8a be 2a 3e
       0.047445297 0.17306602 -0.013794762 0.16674247
000050 30 bc 9f 3d 1a b4 c3 bd fa bb a6 bd 1b f0 9b bd
       0.07799566 -0.09555836 -0.081413224 -0.07614156
000060 c9 e0 c4 bd f2 0c 36 3e 42 c6 a9 bd 5a f2 cd 3d
       -0.09613187 0.17778376 -0.08289768 0.100559905
000070 18 48 8c 3d 46 eb 91 bc ff 03 47 be 73 fa 54 be
       0.06849688 -0.017812382 -0.19435118 -0.20798664
000080 9a 6b 3c be c0 1c f9 bb 86 81 04 3e 40 41 f2 3d
       -0.18400422 -0.007602304 0.12940034 0.11828852
000090 80 1f c3 bc 3a 53 7d be 22 a6 22 3e 40 58 45 bd
       -0.023818731 -0.2473878 0.15883687 -0.048179865
0000a0 2c 41 a8 bd 28 de b8 bd 6a a3 40 3e 0a 36 21 be
       -0.082155555 -0.09026748 0.18812338 -0.1574327
0000b0 20 09 01 3e 38 10 05 bd 1c fe 97 bd a0 bb 3b be
       0.12601137 -0.03248617 -0.074215144 -0.18333292
0000c0 e7 08 7d bc e8 fa 47 3e 5e a9 a9 3c a9 a7 bb 3d
       -0.015444017 0.19529307 0.020710643 0.09162838
0000d0 44 d8 a4 bd 8d 5f 3d 3b 49 d1 18 3e f3 0e 9d bd
       -0.08049062 0.0028896064 0.14923586 -0.07668867
0000e0 51 02 67 be a2 76 b8 3d 26 44 58 bd c6 53 34 bd
       -0.22559477 0.090070024 -0.052799366 -0.044025205
0000f0 7d 33 96 3d 04 54 bd bc bd 52 b4 bd c9 aa 70 3d
       0.07334039 -0.02311135 -0.088048436 0.058756623
000100 5f 9b a8 bc 9f 38 55 be 74 1f fd bd d7 20 0c 3e
       -0.0205819 -0.2082238 -0.12359515 0.13684402
000110 d6 01 6a bc 83 4c cc 3d 0d a5 e9 3d b4 4d 1f be
       -0.014282664 0.09975531 0.11408434 -0.15556985
000120 7f a9 f5 bb 7b f8 12 3e 16 86 5d 3e 61 6d f2 3d
       -0.007497012 0.143526 0.21633181 0.118372686
000130 60 57 29 3e 6f 07 b6 3c b6 75 54 3e c6 8e b2 bb
       0.16537237 0.022220341 0.20748028 -0.005449149
000140 15 26 07 3e 88 f1 5e 3e 57 e3 15 3e ec ae c6 bd
       0.13198121 0.21771824 0.14637505 -0.097013324
000150 e8 ce 57 be 2c 29 68 3e 49 15 a8 3a 6a e7 12 be
       -0.21075022 0.22671956 0.0012823726 -0.1434609
000160 06 77 d4 3d 49 82 0e 3e b7 5a f2 3c d4 10 02 be
       0.103742644 0.13916887 0.029584272 -0.12701732
000170 a7 cc cd 3d 47 5a 6e be 53 f0 d3 3d a3 47 02 3e
       0.100488 -0.23276626 0.103485726 0.1272264

fc3.bias f4 [6]
000000 2e a8 46 3e 74 e8 19 3e 5a 9e 35 be 4b 58 11 3e
       0.19400093 0.1503008 -0.17736188 0.14193837
000010 2d 83 5b be 8a 6a fb 3d
       -0.21436758 0.1227618
